checkpoint_actor0.pth (torch_old, 188323 bytes, 10 tensors)

fc1.weight f4 [256, 48]
0	0xbeb749a5	-0.35798374
1	0x3fa4e197	1.2881345
2	0xbc4f47c8	-0.012651391
3	0x3ea2b601	0.31779483
4	0x3e7d60c6	0.24743947
5	0xbf26e7c5	-0.651974
6	0xbd8881c5	-0.066653766
7	0x3e9f9f67	0.31176302
8	0xbeaad54c	-0.33365858
9	0x3fa08337	1.2540044
10	0xbdb05189	-0.086093016
11	0xbe3bf4c5	-0.18355091
12	0x3e23521c	0.15949291
13	0xbf51446d	-0.81745034
14	0xbe30d4ff	-0.17268752
15	0xbe222d65	-0.15837629
16	0xbeba99f5	-0.36445585
17	0x3f9006f5	1.1252123
18	0xbd8744e2	-0.06604935
19	0xbe2395ab	-0.15975063
20	0xbcce7504	-0.025202282
21	0xbf80dbd8	-1.0067091
22	0xbd9a26de	-0.075269446
23	0xbe81c37f	-0.25344464
24	0x3e37f511	0.17964579
25	0xbf249db8	-0.6430316
26	0x3e4117ae	0.1885669
27	0xbcdad731	-0.02671394
28	0xbe4e1b7e	-0.20127675
29	0xbf1f78f6	-0.62293947
30	0x3e2bb710	0.16769052
31	0xbdbf50fa	-0.09341617
32	0x3e689b17	0.22715412
33	0xbf203457	-0.62579864
34	0x3d0973dc	0.033557758
35	0x3deddd06	0.116144225
36	0xbdd4aba3	-0.103842996
37	0xbf4dfe04	-0.8046572
38	0x3c684363	0.0141762225
39	0x3e00a4b2	0.12562826
40	0x3e3ceb46	0.18449125
41	0xbf3278d4	-0.6971562
42	0xbb0b14af	-0.0021222045
43	0xbdb5e8f8	-0.08882326
44	0xbd1ac939	-0.037789557
45	0xbf88d85d	-1.0691029
46	0x3d01a917	0.031655397
47	0xbe022fd0	-0.12713552
48	0x3edb8f4f	0.42882773
49	0xbe33a384	-0.17542845
50	0xbdad9544	-0.08475736
51	0xbefc9a73	-0.49336585
52	0x3e557b33	0.20847778
53	0x3e616e4f	0.22014736
54	0xbd8767c5	-0.06611589
55	0xbede7850	-0.43451166
56	0x3edf455a	0.436076
57	0xbe2c6374	-0.16834813
58	0xbe3059ab	-0.17221706
59	0xbeee13b6	-0.46499413
60	0xbe60f067	-0.21966706
61	0x3e7e28e9	0.24820293
62	0xbe1cc8fc	-0.15311044
63	0xbed4632b	-0.4148191
64	0x3eff3980	0.49848557
65	0x3cdc5c11	0.02689937
66	0xbe442198	-0.1915344
67	0x3eadc01c	0.3393563
68	0xbef4c0a7	-0.47803232
69	0xbd3973a2	-0.04527629
70	0xbe5cce29	-0.21563019
71	0x3eae1e2e	0.340074
72	0x3e031259	0.12799968
73	0xbe9a96e7	-0.30193254
74	0xbdb3e360	-0.08783603
75	0xbe82c936	-0.25544137
76	0xbe0f60fb	-0.14001839
77	0x3e43079c	0.19045871
78	0xbcd50652	-0.02600399
79	0xbe9d52a2	-0.30727106
80	0x3e8a1490	0.26968813
81	0xbeb9ac29	-0.3626416
82	0x3e48e695	0.1961921
83	0xbdabf0af	-0.08395516
84	0x3e078095	0.13232644
85	0x3e2b2d48	0.16716492
86	0x3e47125b	0.19440596
87	0x3c5bc419	0.013413453
88	0x3e9602f7	0.29299137
89	0xbe9b8eb8	-0.30382323
90	0xbee79091	-0.45227483
91	0x3e69a98a	0.2281858
92	0x3efc9c19	0.49337843
93	0xbc3b486a	-0.011430839
94	0xbecdec6d	-0.4021944
95	0x3e98899a	0.29792482
96	0xbeaaf601	-0.3339081
97	0x3f773ad3	0.96574134
98	0x3db341d3	0.08752789
99	0xbda2699c	-0.079303
100	0xbe7825f4	-0.24233228
101	0xbac68e51	-0.0015148615
102	0x3da1a8fa	0.07893558
103	0xbdea801c	-0.11450216
104	0xbe8fc737	-0.28081676
105	0x3f7ba710	0.9830179
106	0xbeceecf1	-0.40415147
107	0xbd8b0158	-0.06787366
108	0xbd06922e	-0.03285425
109	0xbe22bf8e	-0.15893385
110	0xbeb212ac	-0.3477987
111	0xbd782443	-0.060581457
112	0xbe8aaf90	-0.2708707
113	0x3f7f166f	0.99643606
114	0x3ce0fb07	0.02746345
115	0xbe4faf27	-0.20281659
116	0x3db2fb6d	0.08739362
117	0xbea79c1f	-0.32736298
118	0x3dcfef64	0.10153082
119	0xbe2dbed4	-0.16967326
120	0xbd47f529	-0.048817787
121	0x3f4b8e8f	0.795144
122	0xbedbcd73	-0.42930183
123	0x3e98168c	0.29704702
124	0x3e8e4042	0.277834
125	0xbcb36c94	-0.02190236
126	0xbebc04c1	-0.36722377
127	0x3eb7bdfd	0.35887137
128	0x3dd19fd4	0.10235563
129	0x3f6f77ec	0.9354236
130	0xbde84fdf	-0.11343359
131	0xbd7c2dfb	-0.061567288
132	0x3de4a67c	0.11164567
133	0xbe1ade58	-0.1512388
134	0xbde86569	-0.113474675
135	0x3cc09f08	0.023513332
136	0x3d1117d7	0.035423126
137	0x3f4f5ea1	0.8100377
138	0xbe39def7	-0.1815146
139	0xbec48a97	-0.38386986
140	0xbe0028ae	-0.12515518
141	0xbeb64c9d	-0.35605326
142	0xbe6c1e0c	-0.23058337
143	0xbeb44d95	-0.3521544
144	0x3db212a9	0.086949654
145	0x3ea13f3f	0.31493565
146	0x3de3d021	0.11123682
147	0x3f56868b	0.83799046
148	0xbe607dc8	-0.21922982
149	0xbd94a82b	-0.07258638
150	0x3e641fa4	0.22277695
151	0x3f548814	0.8302014
152	0x3e40e8a5	0.18838747
153	0x3f1d5c15	0.6146863
154	0xbe6e38c2	-0.23263839
155	0x3eea6ad1	0.4578462
156	0xbe271425	-0.16316278
157	0x3ea3b6a0	0.3197527
158	0xbe347b81	-0.17625238
159	0x3eea414f	0.45752952
160	0x3dedca31	0.116108306
161	0x3f1f9555	0.6233724
162	0x3e754179	0.23950757
163	0x3e3e13c6	0.1856223
164	0xbe159418	-0.14607275
165	0x3f69378e	0.91100395
166	0x3e42175a	0.1895422
167	0x3dccbe8f	0.09997284
168	0x3e7c8ed6	0.24663863
169	0x3f343b79	0.7040325
170	0x3e87322c	0.26405466
171	0x3dea0cc5	0.11428217
172	0x3e451466	0.19246063
173	0xbe2978dc	-0.1655001
174	0x3ead225e	0.33815283
175	0x3e65cd1d	0.22441526
176	0x3ea05ee4	0.31322396
177	0x3f1fe176	0.624534
178	0x3debc2c8	0.11511761
179	0x3c3f5dbc	0.011680063
180	0x3dad9cf5	0.08477203
181	0x3e8e805b	0.27832302
182	0x3d80624a	0.06268747
183	0x3d052fff	0.032516476
184	0x3e48fecd	0.19628449
185	0x3ed464ca	0.41483146
186	0xbdcef855	-0.10105959
187	0xbe8f7dbb	-0.28025612
188	0x3d602a74	0.054727986
189	0x3f51553c	0.8177068
190	0xbd123aad	-0.03570049
191	0xbe56bdc9	-0.20970835
192	0x3d9664b7	0.073434286
193	0xbd2ea87d	-0.04264115
194	0xbcd20d1f	-0.025641022
195	0xbde74d4d	-0.11294041
196	0x3d2634db	0.04057775
197	0xbf0b937d	-0.54521924
198	0x3d2e954c	0.04262285
199	0xbde70469	-0.11280138
200	0x3ce81e6a	0.028334815
201	0x3e4c7f3c	0.19970411
202	0xbdeb6816	-0.11494462
203	0x3f182b32	0.5944091
204	0xbd6287c7	-0.05530527
205	0xbf386ee2	-0.72044194
206	0xbe256282	-0.16150859
207	0x3f183444	0.5945475
208	0xbcd371bd	-0.02581107
209	0x3e843c30	0.2582717
210	0xbcb6551e	-0.022257384
211	0x3ea2e2ca	0.3181365
212	0xbd373e54	-0.044737175
213	0xbf54a2bb	-0.83060807
214	0xbdd3d706	-0.10343747
215	0x3eb88365	0.36037746
216	0xbd535fd4	-0.05160506
217	0xbe0b486c	-0.13601846
218	0x3e206586	0.15663728
219	0x3eefee43	0.46861467
220	0xbd428723	-0.047492158
221	0xbf005d24	-0.5014212
222	0x3e7d94e5	0.2476383
223	0x3ef6b238	0.48182845
224	0x3ce1f28f	0.027581481
225	0xbd05dea2	-0.032683022
226	0xbe71aa01	-0.23600008
227	0x3eb476b8	0.35246825
228	0x3d8da763	0.06916692
229	0xbf424d55	-0.7589925
230	0xbdf9a725	-0.121900834
231	0x3ec79a6f	0.3898501
232	0xbd8b34c3	-0.06797173
233	0x3d9561cf	0.07294046
234	0xbeb172d2	-0.34657913
235	0x3e8c6af1	0.2742534
236	0x3d2b6f02	0.041853912
237	0xbf60645c	-0.87653136
238	0xbe935ab9	-0.28780153
239	0x3e79715e	0.24359652
240	0xbe9fef0e	-0.31237072
241	0x3f4b0c43	0.79315585
242	0x3d9eb704	0.07749751
243	0x3ecddf19	0.40209273
244	0x3d04b8a1	0.03240264
245	0xbcf5cb4e	-0.03000417
246	0xbd07e320	-0.033175588
247	0x3eca269d	0.39482585
248	0xbe33e758	-0.1756872
249	0x3f6b1af6	0.91838014
250	0x3e71216e	0.23547909
251	0x3e0b59e7	0.13608514
252	0x3e030ff6	0.12799057
253	0xbe26078a	-0.16213813
254	0x3e9af91f	0.3026819
255	0x3de927a7	0.11384516

fc1.bias f4 [256]
0	0x3d6899b3	0.056787204
1	0xbf00e6df	-0.5035228
2	0xbe29217c	-0.1651668
3	0xbe8900cc	-0.2675842
4	0xbd7eb3fa	-0.062183358
5	0xbec511f6	-0.38490266
6	0xbe946791	-0.28985265
7	0xbedf060b	-0.43559298
8	0xbe9b097f	-0.30280682
9	0xbef1a85e	-0.47198766
10	0x3d81488c	0.06312665
11	0xbeb730d9	-0.35779455
12	0xbf0de298	-0.5542388
13	0xbf3dded0	-0.7416811
14	0xbe451d1c	-0.19249386
15	0x3e07dbc4	0.13267428
16	0xbe92395a	-0.2855938
17	0xbe29f1a9	-0.16596092
18	0xbe8a375e	-0.26995367
19	0xbe362f12	-0.17791393
20	0xbe2b0e04	-0.16704565
21	0xbdde69d9	-0.108600326
22	0xbf095c84	-0.5365679
23	0xbece0905	-0.40241256
24	0xbf0f3d8d	-0.55953294
25	0xbf05857a	-0.52156794
26	0xbf86d1e1	-1.05328
27	0xbf08d073	-0.5344307
28	0xbdfb4f8d	-0.122710325
29	0xbee508a3	-0.44733152
30	0xbf3e8819	-0.7442642
31	0xbeae8b7f	-0.34090802
32	0xbe42011c	-0.18945736
33	0xbf0bb51e	-0.5457324
34	0xbea4708c	-0.32117116
35	0xbf0e4d2e	-0.55586517
36	0xbeec206e	-0.46118492
37	0xbe836fd3	-0.25671253
38	0xbddbc018	-0.10729998
39	0xbf25b14f	-0.64723676
40	0xbf169ff6	-0.5883783
41	0xbf4a1e8a	-0.7895285
42	0xbe7d3b90	-0.24729753
43	0xbe661d86	-0.224722
44	0xbd5ec41f	-0.054386254
45	0xbdddb8ee	-0.10826288
46	0xbe0c03cf	-0.13673328
47	0xbed2f1db	-0.41200146
48	0xbdb83d80	-0.08996105
49	0xbee476b4	-0.44621813
50	0xbe5ae59c	-0.21376652
51	0xbe1f6bde	-0.15568492
52	0xbe6a50c8	-0.22882378
53	0xbeb192ec	-0.34682405
54	0xbf1bb935	-0.6082948
55	0xbedd4943	-0.43219957
56	0xbdc54b2a	-0.09633477
57	0xbeb55152	-0.35413605
58	0xbeb8d763	-0.36101827
59	0xbf1c039e	-0.6094302
60	0xbe865404	-0.26235974
61	0xbe876e51	-0.26451352
62	0xbf1c4a20	-0.61050606
63	0xbe919524	-0.28434098
64	0xbe809586	-0.25114077
65	0xbe2aa927	-0.16666089
66	0xbf0361bb	-0.51321
67	0xbea5fe4d	-0.3242058
68	0xbeefd6dd	-0.46843615
69	0xbeea2267	-0.45729372
70	0xbf0a85db	-0.541105
71	0xbec641f6	-0.387222
72	0xbd135c0d	-0.03597646
73	0x3d9c6d93	0.07638087
74	0xbdb88972	-0.090105906
75	0xbe6c6f36	-0.23089299
76	0xbecd4aee	-0.4009623
77	0xbee4a859	-0.4465969
78	0xbebf8955	-0.37409464
79	0x3973dfd5	0.0002325767
80	0xbf04eebc	-0.5192678
81	0xbed6c5ae	-0.41947693
82	0xbee8a108	-0.45435357
83	0xbe69f2ff	-0.22846602
84	0xbe8ec0e1	-0.2788153
85	0x3da471fd	0.08029554
86	0xbed1c07f	-0.40967175
87	0xbeea9ab9	-0.4582117
88	0xbe051b0f	-0.12998603
89	0xbe90d605	-0.28288284
90	0xbe755058	-0.2395643
91	0xbf24ef22	-0.6442739
92	0xbee538dd	-0.44769946
93	0xbdd18c71	-0.10231865
94	0xbe963d13	-0.2934347
95	0xbe9ac55f	-0.30228707
96	0xbf2f0782	-0.6837083
97	0xbc1a6356	-0.009423098
98	0xbf12f3dc	-0.5740335
99	0xbe0bcd05	-0.13652427
100	0xbebbb963	-0.36664876
101	0xbefa1b71	-0.4884906
102	0xbf1989e9	-0.5997606
103	0xbf03eaa7	-0.51529926
104	0xbef85c49	-0.48507908
105	0xbe76d7a7	-0.24105702
106	0xbf001feb	-0.500487
107	0xbe8ca428	-0.2746899
108	0xbee403ac	-0.4453405
109	0xbde1136b	-0.10990032
110	0xbefa4c19	-0.48886183
111	0xbe470fd6	-0.19439635
112	0xbe794c26	-0.24345455
113	0xbf014d7e	-0.5050887
114	0xbf0c8268	-0.54886484
115	0xbece4b10	-0.40291643
116	0x3e28254c	0.16420478
117	0xbeb81f38	-0.35961318
118	0xbe617a8a	-0.22019401
119	0xbeb36d23	-0.35044202
120	0xbc63169f	-0.013860374
121	0xbed991df	-0.42494103
122	0xbe990ba7	-0.29891703
123	0x3e0a8f20	0.1353116
124	0xbf316c52	-0.6930591
125	0xbea59a0c	-0.3234409
126	0xbda29b26	-0.079397485
127	0xbeff4fb3	-0.49865493
128	0xbed5f8bb	-0.4179133
129	0xbeb18b94	-0.34676802
130	0x3d46e8f1	0.048561994
131	0xbe9872fc	-0.29775226
132	0xbee2e9a0	-0.44318867
133	0xbe9b7f30	-0.30370474
134	0xbe709f66	-0.23498306
135	0xbe6419f9	-0.22275533
136	0xbed251a2	-0.41077906
137	0xbeeb2336	-0.459253
138	0xbee98842	-0.4561177
139	0xbc68183b	-0.014165933
140	0xbf23e171	-0.6401587
141	0xbed27a03	-0.41108713
142	0xbf0ceaee	-0.55045974
143	0xbe2d9e32	-0.16954878
144	0xbed32799	-0.41241148
145	0xbecc2761	-0.39873794
146	0xbd1ee83b	-0.03879569
147	0xbe5aafd3	-0.21356134
148	0xbf0407ec	-0.5157459
149	0xbe8011e4	-0.2501365
150	0xbef2903c	-0.47375667
151	0xbecc1e25	-0.39866748
152	0xbe6a3bda	-0.22874394
153	0x3e2df414	0.1698764
154	0xbe0539db	-0.13010351
155	0x3e98a8a3	0.2981616
156	0xbe4c2159	-0.19934596
157	0xbed7201d	-0.42016688
158	0xbf0ddcdd	-0.55415136
159	0xbf252c4b	-0.6452071
160	0x3db45cbd	0.08806751
161	0xbea1d22c	-0.3160566
162	0xbcfc0f8a	-0.030769128
163	0xbf4eeac1	-0.80826956
164	0xbf0010cb	-0.50025624
165	0xbf1d07cc	-0.6134002
166	0xbd02fb3d	-0.03197788
167	0xbf0fced6	-0.5617498
168	0xbdf63967	-0.120226674
169	0xbdcddfe9	-0.10052473
170	0x3e0ccfef	0.13751195
171	0xbeef2c2b	-0.46713385
172	0xbf20a02f	-0.6274442
173	0xbed91613	-0.42399654
174	0xbef76eff	-0.4832687
175	0xbea42ce1	-0.3206549
176	0xbf0c8ba9	-0.54900604
177	0xbefbbcad	-0.49167386
178	0xbe50ed4a	-0.20403019
179	0xbe25e857	-0.16201912
180	0x3c900649	0.017581122
181	0xbe5c3486	-0.21504411
182	0xbede92c8	-0.4347136
183	0xbf0933d9	-0.5359474
184	0xbd954394	-0.0728828
185	0xbf131b08	-0.5746312
186	0xbe0cd3a2	-0.13752607
187	0xbd750a5d	-0.059824336
188	0xbf00bb25	-0.5028556
189	0xbebf6a35	-0.37385717
190	0xbe6f95ec	-0.23397034
191	0xbf004fba	-0.50121653
192	0xbebe8ab7	-0.37215206
193	0xbf01f687	-0.50766796
194	0xbefc7b49	-0.4931281
195	0xbecf1b21	-0.40450385
196	0xbf1ff714	-0.62486386
197	0xbf06d3b9	-0.52666813
198	0xbf06cc02	-0.5265504
199	0xbe7b406c	-0.24536294
200	0xbed37f6a	-0.41308147
201	0xbe1e29bb	-0.15445606
202	0xbeeee5e3	-0.46659765
203	0xbe7e909c	-0.24859852
204	0xbdc09ee5	-0.09405307
205	0xbe9718a7	-0.29510996
206	0xbe44d7c0	-0.19222927
207	0xbf2cbf66	-0.6747955
208	0xbd005a91	-0.03133637
209	0xbe2b83a7	-0.1674944
210	0xbf4d99af	-0.8031263
211	0xbf06a230	-0.5259123
212	0xbd80b3c3	-0.06284287
213	0xbebf6005	-0.37377945
214	0xbe6cb630	-0.23116374
215	0xbe5b7a56	-0.21433386
216	0xbe131360	-0.1436286
217	0xbd9965dd	-0.07490132
218	0xbebd0910	-0.36920977
219	0xbf2ab62a	-0.6668421
220	0xbe858401	-0.26077273
221	0xbe6ffc13	-0.23436002
222	0xbe18ef03	-0.14934926
223	0xbe9f5b27	-0.3112423
224	0xbedffbb1	-0.43746713
225	0xbe906585	-0.28202453
226	0xbed38c89	-0.41318157
227	0xbddcfc3b	-0.10790297
228	0xbe3ebc0d	-0.18626423
229	0xbf333014	-0.69995236
230	0xbebf9308	-0.37416863
231	0xbe8378eb	-0.2567819
232	0xbe594a6e	-0.21219799
233	0xbde57fc0	-0.11206007
234	0xbed73734	-0.42034304
235	0xbe830ad9	-0.25594214
236	0xbec04ad5	-0.37557092
237	0xbe14ebaa	-0.14543024
238	0xbec097c4	-0.37615788
239	0xbde87edf	-0.11352324
240	0xbe5e8b4a	-0.21732822
241	0x3dabca45	0.08388189
242	0xbea76ae2	-0.32698733
243	0xbe7abc3e	-0.24485871
244	0xbdd924c3	-0.10602715
245	0xbe1ec0ac	-0.15503186
246	0xbe31dbef	-0.17369054
247	0xbefb18a4	-0.49042237
248	0xbe494e6e	-0.19658825
249	0xbec8247e	-0.3909034
250	0xbe78d66a	-0.24300542
251	0xbea79669	-0.3273194
252	0xbebe864e	-0.3721184
253	0x3b68826e	0.0035478133
254	0xbea40b48	-0.32039857
255	0xbee7f5c9	-0.45304707

fc2.weight f4 [128, 256]
0	0x3ea09a9b	0.31367955
1	0x3ed96aa0	0.4246416
2	0x3ca502e6	0.020142984
3	0xbd9d5439	-0.0768208
4	0x3d0c36c1	0.034231905
5	0xbde49895	-0.11161915
6	0xbe732b7c	-0.23747057
7	0xbe3486a6	-0.1762949
8	0xbe7160ba	-0.23572055
9	0xbd9305f3	-0.07178869
10	0xbeafc20a	-0.34327728
11	0xbe221227	-0.15827237
12	0x3ebc7632	0.36808926
13	0xbd0bb63e	-0.034109347
14	0xbf13ef42	-0.57786953
15	0x3e7ea1a8	0.24866354
16	0xbed7bb4c	-0.42135084
17	0xbed37461	-0.41299728
18	0xbd513749	-0.051078115
19	0x3f19f849	0.6014448
20	0xbf04106c	-0.5158756
21	0x3e19e71d	0.15029569
22	0x3e8b9e1c	0.27269065
23	0xbca2c816	-0.019870799
24	0x3eb6a25a	0.3567074
25	0x3e557877	0.20846735
26	0x3ed4a2f3	0.4153057
27	0x3ea55d16	0.3229758
28	0x3e2c294c	0.16812629
29	0x3de88d18	0.113550365
30	0xbf0065c8	-0.50155306
31	0xbde118e8	-0.109910786
32	0xbdaa17ab	-0.083052956
33	0xbe8fb06c	-0.28064287
34	0x3de7820d	0.11304102
35	0x3e5a5aab	0.2132365
36	0x3e5da449	0.21644701
37	0x3e345e1b	0.17614023
38	0xbe84ab14	-0.25911772
39	0x3ea12e2f	0.31480548
40	0x3e731dbb	0.2374181
41	0x3eb833dd	0.3597707
42	0x3e04d486	0.12971696
43	0xbece0540	-0.4023838
44	0xbe05ad41	-0.13054372
45	0xbe248e9a	-0.16070023
46	0x3e94ec75	0.29086652
47	0x3e5fcc12	0.2185519
48	0xbe7454c3	-0.23860459
49	0x3e8b1470	0.2716403
50	0xbf4b63f3	-0.79449385
51	0x3e489042	0.1958628
52	0x3d9cf619	0.07664127
53	0x3db3fa2c	0.08787951
54	0xbee128c4	-0.43976414
55	0xbd553a06	-0.05205729
56	0xbebd5ecf	-0.36986396
57	0xbea02a58	-0.31282306
58	0xbcea54c1	-0.028604867
59	0x3e04574f	0.1292393
60	0xbf34aad8	-0.70573187
61	0x3ee2eac4	0.44319737
62	0xbd326739	-0.043555472
63	0x3cc35e44	0.02384866
64	0x3e8c5eaf	0.27415988
65	0xbe7c656a	-0.24648061
66	0x3ead08ca	0.33795768
67	0xbe71be6d	-0.23607798
68	0x3e50bc22	0.20384267
69	0x3e4c4c9b	0.19951098
70	0x3e8a3d2d	0.26999798
71	0x3e563029	0.20916809
72	0xbe87cb87	-0.26522467
73	0xbca53e60	-0.020171344
74	0x3dc32852	0.09529175
75	0xbe611dab	-0.21983974
76	0x3e81c57e	0.25345987
77	0x3dcf25c6	0.101146266
78	0xbe5cfdd7	-0.21581207
79	0x3ee1fca9	0.44138077
80	0xbc403863	-0.011732194
81	0x3e5c1699	0.21492995
82	0xbe6766de	-0.22597834
83	0xbd89c207	-0.06726461
84	0xbdd696f4	-0.10478011
85	0x3e04eda5	0.12981279
86	0x3e3a0893	0.18167333
87	0x3ed816c2	0.42204863
88	0x3dd24eae	0.10268913
89	0xbe4ce324	-0.20008522
90	0xbe61b5dc	-0.2204203
91	0x3d2b6310	0.04184252
92	0x3ec0cf89	0.37658337
93	0x3e0bc318	0.13648641
94	0xbd77128b	-0.06032042
95	0x3e887412	0.26651055
96	0xbedd6f0d	-0.43248788
97	0x3e6afa90	0.22947145
98	0xbeae66f1	-0.34062913
99	0x3d5db0ff	0.054123875
100	0xbe23c67a	-0.15993682
101	0xbd21d83c	-0.039512858
102	0xbe84259a	-0.25809938
103	0x3eaa798c	0.33295858
104	0xbeeb3233	-0.45936736
105	0x3e6d55f6	0.23177323
106	0x3e88eb39	0.2674196
107	0x3d094acf	0.03351861
108	0xbc360d66	-0.011111593
109	0xbf4f0ef6	-0.80882204
110	0xbd92a74d	-0.07160816
111	0x3eb22f74	0.3480183
112	0x3e215d49	0.15758242
113	0x3de7914e	0.113070115
114	0x3e51059f	0.204123
115	0x3dc3f81b	0.09568807
116	0x3d3c2d20	0.045941472
117	0x3e6d5eb5	0.23180659
118	0x3e37b1a3	0.17938857
119	0x3d5d645d	0.054050792
120	0x3e7737a4	0.24142319
121	0xbd097d71	-0.033566896
122	0xbe8bef00	-0.2733078
123	0xbd3516b4	-0.044211105
124	0xbe25cba6	-0.16190967
125	0xbe3dbb03	-0.1852837
126	0xbef11ead	-0.47093716
127	0xbe4c5ae7	-0.19956551
128	0x3e96be5d	0.2944211
129	0xbefc6ea8	-0.49303174
130	0x3e2e0598	0.16994321
131	0xbea027b6	-0.31280297
132	0xbf37e3c0	-0.71831894
133	0x3f25d513	0.6477825
134	0xbe65d8e9	-0.22446026
135	0xbeb01e13	-0.34397945
136	0x3da5a44e	0.08087979
137	0x3ee3d016	0.44494694
138	0xbebc26cb	-0.36748347
139	0x3ed2da70	0.4118228
140	0xbe9ec719	-0.31011274
141	0xbea428b1	-0.32062295
142	0x3ee7b99f	0.45258805
143	0xbee6bcf3	-0.45066032
144	0x3e37de9d	0.17956014
145	0x3e5db312	0.21650341
146	0xbe5914d6	-0.21199355
147	0x3e8efd77	0.27927753
148	0x3e4890de	0.19586512
149	0x3e90f11a	0.28308946
150	0xbe199a95	-0.15000375
151	0xbe8bbb1e	-0.27291197
152	0x3ec7bb31	0.39010003
153	0xbee287fa	-0.44244367
154	0xbc6e103b	-0.014530237
155	0x3d67361e	0.056448095
156	0xbe1e2d24	-0.15446907
157	0x3d98ceff	0.07461356
158	0xbe151d6c	-0.14562005
159	0xbe379433	-0.17927627
160	0xbec9d859	-0.39422873
161	0xbf0d7169	-0.55251175
162	0xbe727a03	-0.23679356
163	0xbd8ad1f0	-0.06778324
164	0xbe05fc09	-0.13084425
165	0x3db4658d	0.08808432
166	0x3d5de12d	0.054169822
167	0x3f0a5e83	0.54050463
168	0xbea3ea82	-0.32014853
169	0x3ecee907	0.4041216
170	0x3e83b270	0.25722075
171	0x3d9b0ff5	0.07571403
172	0xbe9a43e5	-0.30129924
173	0xbdb284e9	-0.08716757
174	0xbe687638	-0.22701347
175	0x3db168df	0.08662581
176	0xbecb8ec2	-0.39757353
177	0x3e7531cd	0.23944779
178	0x3e8c3cce	0.2739014
179	0x3e24262d	0.16030188
180	0x3d1b269f	0.03787863
181	0x3f1996b5	0.59995586
182	0xbd67e52f	-0.05661505
183	0x3dd1d094	0.10244861
184	0x3e46e95e	0.1942496
185	0x3ed408e0	0.4141302
186	0xbda3e836	-0.08003275
187	0x3da2e20a	0.0795327
188	0xbf10a492	-0.56501114
189	0x3e49c06b	0.19702308
190	0xbddfe809	-0.10932929
191	0x3e6355c6	0.22200689
192	0xbe39d4e0	-0.18147612
193	0x3e7ff743	0.24996667
194	0x3e8d1b01	0.27559665
195	0x3e17c3a9	0.14820732
196	0xbe8ad9fe	-0.2711944
197	0xbda3d300	-0.079992294
198	0x3e9b5435	0.30337682
199	0x3e1a75ec	0.15084046
200	0x3e777a9a	0.24167863
201	0xbe7300df	-0.23730801
202	0xbeb9a6a2	-0.36259943
203	0x3dbb3ddd	0.09142659
204	0xbf1500ef	-0.5820455
205	0xbcc5ad54	-0.0241305
206	0xbd1b3e11	-0.037900988
207	0xbec039c7	-0.3754408
208	0xbed317a2	-0.41228968
209	0xbe9fb881	-0.31195453
210	0xbeb6e88f	-0.35724303
211	0xbda01d45	-0.07818083
212	0xbf25565e	-0.6458491
213	0x3efa3a8d	0.48872796
214	0xbedac62f	-0.42729327
215	0xbf25e1f4	-0.647979
216	0xbe199cd4	-0.15001231
217	0x3d8ae8aa	0.067826584
218	0x3e19482c	0.14968938
219	0x3e893baf	0.26803347
220	0x3e2357bd	0.15951438
221	0xbe958097	-0.2919967
222	0xbeffd35f	-0.4996595
223	0xbe3de9e8	-0.1854626
224	0x3c804c9e	0.015661534
225	0xbe23da8f	-0.16001342
226	0x3dcebb8e	0.10094367
227	0x3e6b2c25	0.22966059
228	0x3e94427b	0.2895697
229	0xbe24a405	-0.16078193
230	0xbeb0b768	-0.34514928
231	0xbc8a49d7	-0.016880913
232	0x3caf82d2	0.021424685
233	0x3eb8e5b3	0.36112747
234	0xbef90b66	-0.4864151
235	0x3de05ce6	0.10955219
236	0x3ed6940c	0.41909826
237	0xbf410ecb	-0.754132
238	0x3b09b6e5	0.0021013555
239	0x3ea4dd6d	0.32200184
240	0x3e4101fd	0.18848415
241	0x3f331a83	0.6996233
242	0x3e0f21b8	0.13977706
243	0xbf0f507c	-0.55982184
244	0x3d3f7996	0.046746813
245	0x3e99d900	0.3004837
246	0x3dc49bf6	0.0960006
247	0x3e8b11ae	0.27161926
248	0x3e390d06	0.18071374
249	0x3e977f31	0.29589227
250	0x3dcc5844	0.09977773
251	0x3d839578	0.06424993
252	0x3d1b4b2b	0.037913483
253	0xbdb1763b	-0.08665129
254	0xbe9cbb07	-0.3061144
255	0xbe7a40b9	-0.24438752

fc2.bias f4 [128]
0	0xbecf7e7e	-0.40526193
1	0xbdd5888c	-0.10426435
2	0xbe5bccc7	-0.21464835
3	0xbd006bb9	-0.031352732
4	0xbda262dd	-0.07929013
5	0xbecd67be	-0.40118212
6	0xbe8c9b9f	-0.2746248
7	0xbe794700	-0.2434349
8	0xbe910165	-0.28321376
9	0xbe9b4b10	-0.30330706
10	0xb8ded8a3	-0.00010626137
11	0xbeaa33cb	-0.3324264
12	0xbe02f777	-0.12789713
13	0xbdab5299	-0.08365364
14	0xbf575b1d	-0.841234
15	0xbd248eae	-0.040175132
16	0xbd9de820	-0.0771029
17	0xbda146eb	-0.07874855
18	0xbf05c6ad	-0.5225628
19	0xbf053dec	-0.5204761
20	0xbea9ebcd	-0.33187714
21	0xbd04e027	-0.03244033
22	0xbe8958e7	-0.2682564
23	0x3de2d1c7	0.11075168
24	0xbd09edce	-0.033674054
25	0xbe872163	-0.2639266
26	0xbe36e0dc	-0.17859215
27	0xbdb4b52d	-0.08823619
28	0xbe548262	-0.20752862
29	0xbe98fd1c	-0.29880607
30	0xbdbab088	-0.09115702
31	0xbe670c58	-0.22563303
32	0xbe0443ee	-0.12916538
33	0xbeac4be4	-0.3365165
34	0xbe9afd13	-0.30271205
35	0xbef29936	-0.47382516
36	0xbda4151f	-0.08011841
37	0xbeab2acb	-0.33431086
38	0xbd80a68e	-0.06281768
39	0xbed8bd6c	-0.42332017
40	0xbe9697eb	-0.2941278
41	0x3c322581	0.010873199
42	0xbe6dc980	-0.23221397
43	0xbda92a6d	-0.08260045
44	0xbdad55c2	-0.08463623
45	0x3c8a8ea9	0.016913729
46	0x3df0cefd	0.1175823
47	0xbdb0fd9c	-0.08642122
48	0xbdd393e2	-0.10330941
49	0xbe5f7e3f	-0.21825503
50	0xbe97c03c	-0.2963885
51	0xbe9e6961	-0.30939773
52	0xbe8a6c76	-0.27035874
53	0xbe766a4d	-0.24063988
54	0xbd619dae	-0.055082016
55	0xbec11ab1	-0.37715676
56	0xbe3c7ecf	-0.18407749
57	0xbea7a32c	-0.32741678
58	0xbe0ffc50	-0.14061093
59	0xbe692954	-0.22769672
60	0xbe6aaa53	-0.22916536
61	0xbe1c10a5	-0.15240724
62	0xbe8bfaae	-0.2733969
63	0xbe1a0611	-0.15041377
64	0xbe15610f	-0.14587806
65	0xbe57b4ae	-0.21065018
66	0xbd398a7a	-0.045298077
67	0xbe273fa6	-0.16332874
68	0xbd3b78bb	-0.045769434
69	0xbe9ed83f	-0.31024358
70	0xbdfd29da	-0.12361498
71	0xbe876cc0	-0.26450157
72	0x3c0a2a8f	0.008432998
73	0xbee439f3	-0.44575462
74	0x3d32f9e1	0.043695334
75	0xbdf28dea	-0.11843474
76	0xbea735a8	-0.32658124
77	0xbe6cab4c	-0.2311222
78	0xbe4106c1	-0.18850233
79	0xbd5ba8d5	-0.053627808
80	0xbdb72b6a	-0.089438275
81	0xbea8b580	-0.32950974
82	0xbea33174	-0.31873667
83	0xbe98bedc	-0.29833114
84	0xbe8847d8	-0.26617312
85	0xbe9e966a	-0.30974132
86	0xbd620ab2	-0.05518598
87	0xbec0d43d	-0.37661925
88	0xbe6e86da	-0.2329363
89	0xbe96a02e	-0.29419082
90	0xbec80eb9	-0.39073732
91	0xbf341458	-0.7034354
92	0xbede9be0	-0.43478298
93	0xbe9d0f5c	-0.3067578
94	0xbe6c7c10	-0.23094201
95	0x3d56f42a	0.052478947
96	0xbe336d2c	-0.17522115
97	0xbba701de	-0.005096658
98	0xbe7a2823	-0.24429373
99	0xbedcb63f	-0.43107793
100	0xbebb2a50	-0.3655572
101	0xbdc9db26	-0.09856252
102	0xbdde59f1	-0.10856999
103	0xbe0f0c7b	-0.13969605
104	0x3c4304e8	0.011903025
105	0xbe2c6678	-0.16835964
106	0xbe0c66c6	-0.1371108
107	0x3da13adb	0.07872554
108	0xbe8a563a	-0.2701891
109	0xbe44b2a7	-0.19208775
110	0xbc43e68c	-0.011956822
111	0xbe6e48fc	-0.23270029
112	0xbe08e10a	-0.13367096
113	0xbe991e38	-0.29905868
114	0xbe4b01ed	-0.19824953
115	0xbe3bcd4b	-0.18340032
116	0x3bd79c55	0.0065799155
117	0xbe394bdf	-0.18095349
118	0xbd909be1	-0.070609815
119	0xbddae30a	-0.106878355
120	0xbe4da2ff	-0.2008171
121	0xbe738a2a	-0.23783174
122	0xbe043a4e	-0.12912866
123	0xbec68cf8	-0.38779426
124	0xbed5a3d7	-0.41726562
125	0x3e31b973	0.173559
126	0xbe65954a	-0.2242023
127	0x3dd4ea05	0.10396198

fc3.weight f4 [2, 128]
0	0x3e81dae9	0.25362328
1	0x3bffcdc1	0.00780651
2	0x3eefb748	0.4681952
3	0xbea33bd6	-0.3188159
4	0xbdb786d9	-0.08961267
5	0x3f5155e9	0.81771713
6	0x3ec86a6a	0.39143687
7	0x3cdb9e84	0.026808985
8	0x3ee0a40c	0.43875158
9	0x3e958174	0.29200327
10	0xbe165952	-0.1468251
11	0x3ec12b67	0.37728426
12	0xbe934240	-0.28761482
13	0xbe688fec	-0.22711152
14	0x3df22566	0.118235394
15	0x3c2c47ff	0.010515212
16	0xbe7621a0	-0.24036264
17	0x3d237d71	0.039914552
18	0xbea9b371	-0.33144715
19	0x3eaa7f29	0.3330014
20	0x3e0ec87a	0.13943663
21	0x3e76f36d	0.24116297
22	0x3cfa6eb1	0.03057036
23	0xbddae8ac	-0.1068891
24	0xbda4dcdf	-0.0804994
25	0xbe580065	-0.210939
26	0xbe31bf9e	-0.17358252
27	0x3dba368a	0.09092434
28	0x3e5707a2	0.20999005
29	0x3f491995	0.7855466
30	0xbd8f17cb	-0.0698696
31	0xbed9c758	-0.425349
32	0x3e037ba6	0.12840137
33	0x3c0b697a	0.008509034
34	0x3f085ce8	0.53266764
35	0x3e8433af	0.2582068
36	0xbe2b4510	-0.16725564
37	0x3f2feb68	0.68718576
38	0x3dde6838	0.10859722
39	0xbe2842c8	-0.16431725
40	0x3ebc5726	0.3678524
41	0xbe3dc60b	-0.18532579
42	0x3eb667cc	0.35626066
43	0x3e315efd	0.17321391
44	0xbe94000a	-0.2890628
45	0x3e38c2b5	0.18043025
46	0x3aae5d20	0.00133029
47	0xbc623ba5	-0.013808166
48	0xbeceac8b	-0.40366015
49	0xbec52bbe	-0.38509935
50	0x3f451ca9	0.76996857
51	0x3ee75f88	0.45190072
52	0xbe01a558	-0.1266073
53	0x3ec5f8eb	0.38666472
54	0xbf693bbb	-0.91106766
55	0x3eda4438	0.42630172
56	0x3eef325e	0.46718115
57	0x3e9b6934	0.303537
58	0x3e1c5a33	0.15268783
59	0xbec0edcf	-0.37681434
60	0xbe4f9649	-0.20272173
61	0xbe9d154d	-0.30680314
62	0x3f8d255c	1.1027026
63	0x3dfdd1ae	0.12393509
64	0xbe7a4032	-0.24438551
65	0x3d12adbf	0.03581023
66	0xbe9cd21b	-0.30629048
67	0x3e51aafe	0.20475385
68	0xbf1322fd	-0.5747526
69	0x3f11ef5c	0.5700586
70	0xbefbb6b2	-0.49162823
71	0x3dbb7bb1	0.09154452
72	0xbdf2ff9d	-0.118651606
73	0x3f348644	0.70517373
74	0x3e0dbdbb	0.13841908
75	0x3e93fc32	0.28903347
76	0x3e689de0	0.22716475
77	0xbddfb2bc	-0.10922763
78	0x3ead1dc0	0.3381176
79	0xbd68192b	-0.056664627
80	0x3e5d2ebe	0.21599862
81	0x3e5c8566	0.21535262
82	0x3e7b88bc	0.24563879
83	0xbec21836	-0.37909096
84	0x3ecad11c	0.39612663
85	0x3f0af988	0.54287004
86	0x3e7e27ab	0.2481982
87	0x3e1f5ca5	0.15562685
88	0xba908a87	-0.0011027612
89	0x3eac7cec	0.33689058
90	0x3ec0e11d	0.37671748
91	0xbed287e5	-0.41119304
92	0xbdae026e	-0.08496557
93	0x3e0f8d65	0.14018781
94	0x3de6d5e5	0.11271266
95	0xbc85333b	-0.01625978
96	0xbe5d17ed	-0.21591158
97	0xbe8e4c2f	-0.27792498
98	0x3dbe3a90	0.09288514
99	0x3e3b02c3	0.18262772
100	0x3e1cf555	0.15327962
101	0xbe5f4c3f	-0.2180643
102	0xbd0fe4ef	-0.035130437
103	0xbe8da0bf	-0.27661702
104	0xbe436ef0	-0.19085288
105	0xbe3c1427	-0.18367063
106	0xbe473fa6	-0.19457874
107	0x3dbcfba1	0.09227682
108	0xbf1824f1	-0.5943137
109	0xbea40402	-0.32034308
110	0x38f7b577	0.00011811678
111	0x3f166c95	0.58759433
112	0xbe486eb9	-0.19573487
113	0x3ebbd6b3	0.3668724
114	0x3ddeca7f	0.10878467
115	0x3f45659f	0.77108186
116	0xbdec5758	-0.11540097
117	0xbeac632f	-0.3366942
118	0xbde18503	-0.11011698
119	0x3e9e6f55	0.30944315
120	0x3ee8263f	0.4534168
121	0x3dd25d2f	0.102716796
122	0x3e321101	0.17389299
123	0x3f0a3d7f	0.54000086
124	0xbd6747c5	-0.05646493
125	0xbdfb945b	-0.12284156
126	0x3e163ba7	0.14671193
127	0x3eb4ba6b	0.35298476
128	0xbeac6c82	-0.33676535
129	0xbf8fd02d	-1.1235405
130	0x3f120306	0.57035863
131	0x3c164d5b	0.009173716
132	0x3ea4da5a	0.3219784
133	0x3dd332f5	0.10312454
134	0xbf1bb10b	-0.6081702
135	0xbf72ac12	-0.9479381
136	0xbf5098ef	-0.8148336
137	0x3d9bc8ca	0.07606657
138	0x3ee17c44	0.4404012
139	0xbeadad55	-0.33921304
140	0xbe75dd22	-0.24010137
141	0x3e182a0a	0.14859787
142	0xbf60a521	-0.87751967
143	0x3f8b2f59	1.0873824
144	0x3e730f7a	0.23736373
145	0x3e9d7c25	0.30758777
146	0xbe379f6a	-0.17931905
147	0xbd436312	-0.047701903
148	0xbf0f2bcb	-0.559262
149	0xbf5901cb	-0.8476836
150	0xbf2be276	-0.67142427
151	0xbe6456e9	-0.22298779
152	0x3ea420ad	0.3205618
153	0x3f85b7ff	1.0446776
154	0xbe1477db	-0.14498846
155	0x3ecbf766	0.39837188
156	0xbfa8dbd8	-1.3192091
157	0x3f35c92e	0.710101
158	0x3f0ffd06	0.5624546
159	0xbef1dc47	-0.4723837
160	0x3e18f177	0.14935862
161	0xbebecdee	-0.37266487
162	0xbf12ba6f	-0.57315725
163	0x3df645bd	0.1202502
164	0xbf6e6030	-0.9311552
165	0x3f122010	0.57080173
166	0x3f4b6fa4	0.79467225
167	0x3ebce14d	0.3689064
168	0xbd264080	-0.040588856
169	0x3f3feded	0.7497242
170	0xbea7293b	-0.32648644
171	0x3f201c11	0.62542826
172	0x3e9e35fc	0.30900562
173	0x3e1bf32b	0.1522948
174	0x3f0b1f9e	0.5434512
175	0xbf86a643	-1.0519489
176	0x3e96d7e8	0.29461598
177	0xbf5c79a9	-0.8612314
178	0xbea2fb7c	-0.31832492
179	0x3e20a777	0.15688883
180	0xbf671669	-0.9026857
181	0x3ecadb37	0.39620373
182	0x3dbfecd3	0.093713425
183	0xbf5b2072	-0.8559638
184	0xbe11fa6f	-0.14255689
185	0xbf5e3a1f	-0.86807436
186	0x3e33a367	0.17542802
187	0xbb267f07	-0.0025405304
188	0x3ed33bed	0.41256657
189	0x3e4dfd9b	0.20116274
190	0x3f5dc2ac	0.8662517
191	0xbf7662ec	-0.9624469
192	0xbf0377e0	-0.5135479
193	0xbf16ad85	-0.5885852
194	0x3ea9e737	0.33184215
195	0xbe9211f0	-0.2852931
196	0xbe2e5813	-0.17025785
197	0x3e214555	0.15749104
198	0x3c03ef5f	0.008052676
199	0x3d5f8e60	0.05457914
200	0xbe5352b4	-0.20637017
201	0xbe83993a	-0.2570284
202	0xbf5b6fbc	-0.8571737
203	0xbed76375	-0.42068067
204	0x3ecf496c	0.40485704
205	0x3f03e484	0.5152056
206	0xbf0fd0a7	-0.56177753
207	0x3f049663	0.5179197
208	0xbd4484ba	-0.04797814
209	0x3eb9d083	0.36291894
210	0xbe95b4c4	-0.29239476
211	0xbe4447d2	-0.19168022
212	0x3e0634ac	0.1310603
213	0xbf4421d0	-0.76614094
214	0xbf844815	-1.0334498
215	0xbef33ba9	-0.47506455
216	0x3f3bc7ac	0.7335155
217	0xbe61bad5	-0.22043927
218	0xbd27df11	-0.040984217
219	0xbe1fb62d	-0.15596838
220	0xbef82688	-0.48466897
221	0xbf839608	-1.0280161
222	0xbed6921b	-0.41908345
223	0x3f1ee405	0.6206668
224	0x3f1a3678	0.6023936
225	0x3eb0ffb5	0.3457009
226	0x3fa99490	1.3248463
227	0x3ef38c26	0.47567862
228	0xbeb233a8	-0.34805036
229	0xbe1dc5c9	-0.1540748
230	0x3e3e6222	0.18592122
231	0xbe55be5b	-0.20873396
232	0x3e1f4224	0.15552574
233	0xbecdde79	-0.40208796
234	0xbfb02f4d	-1.3764435
235	0xbf46a898	-0.77601004
236	0x3f86c0f8	1.0527639
237	0x3e186d85	0.14885528
238	0xbf486f7f	-0.7829513
239	0xbe3c2b8a	-0.18375984
240	0xbdfa7036	-0.12228434
241	0xbedb32b2	-0.42812115
242	0xbf340793	-0.7032406
243	0xbe471682	-0.1944218
244	0x3e3ae6c9	0.182521
245	0x3d26e5aa	0.04074637
246	0x3eaabcf6	0.3334729
247	0x3e0feaac	0.14054364
248	0xbf8cb188	-1.0991678
249	0x3e851e6f	0.2599978
250	0x3eca97e3	0.39569005
251	0x3f017ed3	0.50584143
252	0xbf39a428	-0.7251611
253	0xbe96eee4	-0.29479134
254	0x3f3f1209	0.74636894
255	0x3d83b833	0.064316176

fc3.bias f4 [2]
0	0xbdf11c05	-0.117729224
1	0x3e5a4b16	0.21317706

bn1.weight f4 [256]
0	0x3f318596	0.6934446
1	0x3ee5b3c5	0.44863716
2	0x3f341a9f	0.7035312
3	0x3f2fc06f	0.68653005
4	0x3f23e0c2	0.6401483
5	0x3f39cd0b	0.72578496
6	0x3f21c3fc	0.63189673
7	0x3f3dd078	0.74146223
8	0x3f5a8aec	0.8536823
9	0x3f29cc83	0.66327685
10	0x3f2ff56e	0.6873387
11	0x3f17a02a	0.59228766
12	0x3f4b9860	0.7952938
13	0x3f88c84e	1.0686128
14	0x3f4764c2	0.7788812
15	0x3f37ea40	0.7184181
16	0x3f35ffd2	0.71093476
17	0x3f97e77e	1.1867521
18	0x3f687b3b	0.90813035
19	0x3f48526e	0.7825078
20	0x3f98866f	1.1916026
21	0x3f27e679	0.6558605
22	0x3f357f6c	0.70897555
23	0x3f657e7e	0.89646137
24	0x3f2826e6	0.65684354
25	0x3f7f5bd5	0.997495
26	0x3f42bf64	0.7607329
27	0x3f861684	1.0475621
28	0x3f709cc7	0.93989223
29	0x3f0b1612	0.5433055
30	0x3f9bcad2	1.2171271
31	0x3f708506	0.9395298
32	0x3f535070	0.8254461
33	0x3f34012a	0.70314276
34	0x3efa5f5e	0.48900884
35	0x3f01c1f1	0.50686556
36	0x3ed607e2	0.4180289
37	0x3f82fed6	1.023402
38	0x3f33fb25	0.7030509
39	0x3e84be7f	0.25926587
40	0x3f892ca2	1.0716746
41	0x3fd20099	1.6406432
42	0x3f11de05	0.569794
43	0x3f699d85	0.9125598
44	0x3f5c4521	0.8604298
45	0x3fa0dfd7	1.256831
46	0x3f1f03fe	0.62115467
47	0x3f2c44b0	0.6729231
48	0x3f147e1d	0.58004934
49	0x3f1f376d	0.6219395
50	0x3fa7f978	1.3123007
51	0x3f49d49d	0.7884005
52	0x3f615b0b	0.88029546
53	0x3f772937	0.96547264
54	0x3f058720	0.5215931
55	0x3f6ee7df	0.9332256
56	0x3f4d9d1d	0.8031786
57	0x3f13c2b8	0.5771899
58	0x3f36c064	0.71387315
59	0x3f8b58d3	1.0886482
60	0x3f8825c2	1.0636523
61	0x3f6d52ba	0.92704356
62	0x3f112637	0.56698936
63	0x3f27f6e7	0.6561112
64	0x3f5750c5	0.8410762
65	0x3f4a5c01	0.79046637
66	0x3f258790	0.64659977
67	0x3f43dd35	0.7650941
68	0x3f43ed01	0.76533514
69	0x3eeb72e0	0.4598608
70	0x3f7bca2c	0.98355365
71	0xbf175eab	-0.59128827
72	0x3f98b849	1.1931239
73	0x3f9e8286	1.2383583
74	0x3f30e40e	0.69097984
75	0x3f018f50	0.506093
76	0xbf3efcba	-0.7460438
77	0x3c937574	0.018000342
78	0x3f96684b	1.1750578
79	0x3f63ed5a	0.89034045
80	0x3f3c043b	0.73443955
81	0x3f1a3360	0.6023464
82	0x3f2e2d68	0.68038034
83	0x3f5ba1af	0.85793585
84	0x3f18c1f2	0.5967094
85	0x3eb229f7	0.34797642
86	0x3edcad6f	0.4310107
87	0x3f338f70	0.70140743
88	0x3f1da343	0.6157724
89	0x3f60377d	0.8758467
90	0x3e55b469	0.20869602
91	0x3f811f75	1.0087725
92	0x3f31ef33	0.69505614
93	0x3eab64a9	0.33475235
94	0x3f8950f8	1.0727835
95	0x3f639fe5	0.88915855
96	0x3f2572f6	0.6462854
97	0x3f4d23e5	0.80132896
98	0x3f8961f4	1.0733018
99	0x3ed5c7b2	0.41753918
100	0x3f835736	1.026099
101	0x3f31ad15	0.6940473
102	0x3f23c921	0.63978773
103	0x3f4e547d	0.8059767
104	0x3f67c381	0.9053269
105	0x3eeedb85	0.46651855
106	0x3f9abfaf	1.2089747
107	0x3f1b082b	0.6055934
108	0x3f596f03	0.84935015
109	0x3f65ff46	0.8984264
110	0x3f111adc	0.5668161
111	0x3f967547	1.175454
112	0x3f52a670	0.82285213
113	0x3f611ac6	0.8793148
114	0x3f1b93b9	0.6077228
115	0x3f572b0f	0.8405008
116	0x3ebaf33d	0.365137
117	0x3f3a820b	0.7285468
118	0x3eefd4ec	0.46842134
119	0x3f1d703f	0.614994
120	0x3f655080	0.8957596
121	0x3f172fef	0.59057516
122	0x3f3028cd	0.6881226
123	0x3f226add	0.6344431
124	0x3f2e1fff	0.6801757
125	0x3f78c288	0.9717183
126	0x3f226937	0.63441795
127	0x3f2015e7	0.6253342
128	0x3f03c1c0	0.51467514
129	0x3f44ad4f	0.7682695
130	0x3f7eb71d	0.9949816
131	0x3f2eb47c	0.6824415
132	0x3f889685	1.0670935
133	0x3f130ee5	0.574446
134	0x3f525622	0.8216268
135	0x3f8c46a5	1.0959059
136	0x3f97278e	1.1808946
137	0x3efecb33	0.49764404
138	0x3f72a2d2	0.94779694
139	0x3f07a276	0.5298227
140	0xbf2c8936	-0.6739687
141	0x3fc29cc9	1.5204097
142	0x3f382c35	0.71942455
143	0x3f053dd8	0.5204749
144	0x3ecf4e53	0.40489444
145	0x3f30460a	0.6885687
146	0x3f330eb9	0.6994434
147	0x3f47adce	0.7799958
148	0x3f9ab08d	1.2085129
149	0x3f1f2e70	0.62180233
150	0x3efa8d0c	0.48935735
151	0x3f64605c	0.8920953
152	0x3f22ae13	0.63546866
153	0x3f05b5aa	0.5223032
154	0x3f2b207c	0.6684644
155	0x3f99838f	1.1993273
156	0x3eb7d162	0.35901934
157	0x3f2ce3e0	0.6753521
158	0x3f5d1bff	0.86370844
159	0x3f956696	1.1671932
160	0x3ef6dd8d	0.48215905
161	0x3f84eb8c	1.0384383
162	0x3f311e6f	0.6918706
163	0x3f821e9e	1.0165594
164	0x3f395ba0	0.72405434
165	0x3f9a49a5	1.2053725
166	0x3f600453	0.875066
167	0x3eb5d7cf	0.3551621
168	0x3f58f82b	0.84753674
169	0x3f47417c	0.77834296
170	0x3f4467ba	0.76720774
171	0x3f6d6995	0.9273923
172	0xbf1b858b	-0.60750645
173	0x3f7d701b	0.98999184
174	0x3f7b9ea2	0.9828893
175	0x3f351b64	0.7074492
176	0x3f319cc7	0.6937985
177	0x3f9afddb	1.210872
178	0x3f377f0c	0.71678233
179	0x3f3a5b8f	0.7279596
180	0x3f0a6d4f	0.5407304
181	0x3f48f24c	0.78494716
182	0x3f2b6d79	0.66963917
183	0x3f9a498d	1.2053696
184	0x3f6a4c40	0.915226
185	0x3f1ca12c	0.6118343
186	0x3f2b19c6	0.668362
187	0x3f276bc0	0.6539879
188	0x3f49281a	0.78576815
189	0x3f648470	0.89264584
190	0x3f66638e	0.8999566
191	0x3f775b4a	0.9662367
192	0x3f26f5f0	0.6521902
193	0x3eec2150	0.46119165
194	0x3f3c8466	0.73639524
195	0x3f215f0d	0.6303566
196	0x3f5420e0	0.82862663
197	0x3f31303a	0.6921421
198	0x3f4104ab	0.7539775
199	0x3f3f6f77	0.74779457
200	0x3f319d08	0.69380236
201	0x3f32f4eb	0.69904965
202	0x3f51b0f0	0.8191061
203	0x3f13f3cd	0.57793885
204	0x3f732f34	0.949939
205	0x3f19479c	0.5987489
206	0x3f19f184	0.6013415
207	0x3f796da9	0.97432953
208	0x3f12beb3	0.57322234
209	0x3f3da5a1	0.74080855
210	0x3f912367	1.1338929
211	0x3f8e1b23	1.1102031
212	0x3f87dc15	1.0614039
213	0x3f8a83a0	1.0821419
214	0x3f40cbfd	0.7531126
215	0x3f7d87ce	0.99035347
216	0x3f0b0f21	0.5431996
217	0x3f33693f	0.7008247
218	0x3f6c1cb9	0.9223133
219	0x3f5e5f70	0.86864376
220	0x3f5711f7	0.8401179
221	0x3ef3494e	0.47516865
222	0x3f65ed3c	0.89815116
223	0x3f0897f7	0.5335688
224	0x3f59ad09	0.85029656
225	0x3f3d8b35	0.7404054
226	0x3f5849dd	0.84487706
227	0x3f43fbf8	0.7655635
228	0x3f388d26	0.72090375
229	0x3f1936e9	0.5984941
230	0x3f6ba4c1	0.9204827
231	0x3f23956f	0.6389989
232	0x3ee48a74	0.4463688
233	0x3f43100e	0.7619637
234	0x3f5393b3	0.82647246
235	0x3f2f2300	0.6841278
236	0x3f6ce8c7	0.9254269
237	0x3f65f043	0.89819735
238	0x3f314d3f	0.69258493
239	0x3f2aff22	0.6679555
240	0x3f9fbf19	1.2480193
241	0x3f92b497	1.1461362
242	0x3f4e57da	0.806028
243	0x3f27d1d3	0.6555454
244	0x3f5434c4	0.82893014
245	0x3f600820	0.875124
246	0x3f850a1e	1.0393713
247	0x3e6b7e47	0.2299739
248	0x3f4764ed	0.77888376
249	0x3f7eef33	0.9958374
250	0x3f501b6a	0.8129183
251	0x3f6b5bc4	0.919369
252	0x3f83a8a4	1.028584
253	0x3f341477	0.70343727
254	0x3f6c300c	0.92260814
255	0x3f0490a4	0.51783204

bn1.bias f4 [256]
0	0xbdf60e78	-0.120144784
1	0x3e1e2f41	0.15447713
2	0x3dc2f5e6	0.09519558
3	0x3ea364c1	0.31912807
4	0x3d28c6fe	0.0412054
5	0x3e925db7	0.28587124
6	0x3e55994b	0.20859258
7	0x3e7d9874	0.24765188
8	0x3ef5dc4f	0.48019645
9	0x3e4ae193	0.19812612
10	0x3e7fea13	0.24991636
11	0x3ec82f94	0.390988
12	0x3db9a484	0.09064582
13	0x3eb9edc5	0.36314216
14	0x3e44f0a1	0.19232418
15	0x3d75dcc0	0.060024977
16	0x3e64391e	0.22287413
17	0x3cd209db	0.025639465
18	0x3e492c2d	0.19645758
19	0x3ea364c7	0.31912825
20	0x3eb7ee81	0.35924152
21	0x3e02b684	0.12764937
22	0x3dcedfc2	0.10101272
23	0x3e408084	0.18799025
24	0x3b28b392	0.0025741798
25	0x3e2e8109	0.1704141
26	0xbe5cacb7	-0.2155026
27	0x3dc25421	0.094887026
28	0x3e08a5e8	0.13344538
29	0x3d59918f	0.05311733
30	0x3ebc87c9	0.36822346
31	0x3e5821e8	0.21106684
32	0x3e09ff03	0.13476186
33	0x3c8ff326	0.017571997
34	0x3c807785	0.015681991
35	0x3e95654e	0.29178852
36	0x3dd26ce7	0.10274678
37	0x3e9390db	0.28821453
38	0x3ea4208f	0.3205609
39	0xbbc29c34	-0.005939031
40	0x3ea21423	0.31655988
41	0x3e966e77	0.29381153
42	0x3d803f13	0.062620305
43	0x3f0a6cbf	0.54072183
44	0xbd955504	-0.07291606
45	0x3e3562bb	0.17713444
46	0xbdb0940e	-0.08621989
47	0x3d4b5557	0.049641933
48	0x3eaa8404	0.33303845
49	0x3dbe1d9d	0.09282992
50	0x3e73a8c6	0.2379485
51	0x3e360ba5	0.1777788
52	0x3e93509e	0.28772444
53	0x3f0b9b4f	0.5453386
54	0x3e89037b	0.26760468
55	0x3df54223	0.11975505
56	0x3eae55ab	0.34049734
57	0x3e434cd2	0.19072273
58	0x3eac9983	0.3371087
59	0x3f1d1ad0	0.6136904
60	0x3f385f65	0.7202056
61	0x3e3226f7	0.17397676
62	0xbe29a792	-0.16567829
63	0x3daa7cc1	0.08324576
64	0x3e21c22b	0.15796725
65	0x3eef3932	0.46723324
66	0x3d023601	0.031789783
67	0xbdc04e28	-0.09389907
68	0x3e302db3	0.17204933
69	0xbd39ffff	-0.045410153
70	0x3ee25de1	0.4421225
71	0xbe75c62f	-0.24001382
72	0x3eb6749a	0.35635835
73	0x3f002a53	0.5006458
74	0x3cef2bd7	0.02919571
75	0x3ede2236	0.43385476
76	0xbe423660	-0.18966055
77	0xbb614e94	-0.0034379112
78	0x3e89668a	0.26836044
79	0x3d2caa16	0.042154394
80	0x3e772b8a	0.24137703
81	0x3d156121	0.036469582
82	0xbe26eecf	-0.16302036
83	0x3dc2faed	0.095205165
84	0x3e6d42df	0.2317004
85	0xbe40f21e	-0.1884236
86	0xbd993edf	-0.07482695
87	0x3e7a6297	0.24451672
88	0x3e35a3bb	0.1773824
89	0x3efed0ff	0.49768826
90	0x3d882447	0.06647544
91	0x3ee23428	0.44180417
92	0x3ea3193f	0.318552
93	0x3df2e376	0.11859791
94	0x3ec8ac38	0.39193892
95	0xbed27df9	-0.41111735
96	0x3e278396	0.1635879
97	0x3ec18603	0.37797555
98	0x3e7969af	0.24356721
99	0xbe8edeae	-0.27904266
100	0x3e6ef0e0	0.23334074
101	0x3e0a8114	0.13525802
102	0x3e5b67ba	0.21426287
103	0x3ca9d985	0.020733604
104	0x3e2889a4	0.16458756
105	0x3db71296	0.08939092
106	0x3e4fe8bf	0.2030363
107	0x3e228263	0.15870051
108	0x3ea360c9	0.3190978
109	0x3f0c2f84	0.54760003
110	0x3ec04207	0.37550375
111	0x3ea40185	0.3203241
112	0x3da84179	0.08215613
113	0x3f0010b6	0.500255
114	0x3d8cc933	0.06874313
115	0x3e8620bb	0.26196846
116	0x3d040c7b	0.032238465
117	0x3e2a7eff	0.16650008
118	0x3dee0f89	0.11624057
119	0x3f03de05	0.5151065
120	0x3ee8298f	0.45344207
121	0x3dde74d2	0.108621255
122	0x3ece3377	0.4027364
123	0xbe4397e1	-0.19100906
124	0xbdb4b8de	-0.08824323
125	0x3e89e511	0.26932576
126	0x3ec1411a	0.3774498
127	0x3e72171f	0.23641632
128	0xbec32669	-0.38115242
129	0x3e72ce79	0.23711576
130	0x3f411cf5	0.7543481
131	0x3e168d64	0.14702374
132	0x3e1782fb	0.14796059
133	0x3deacfe4	0.11465433
134	0x3e3b65f7	0.18300615
135	0x3f0b63a4	0.54448915
136	0x3e3a97f9	0.18222035
137	0x3e90a4db	0.28250775
138	0x3e2ab051	0.16668822
139	0x3de49c74	0.111626536
140	0x3eaacb46	0.3335821
141	0x3f74a5b6	0.95565355
142	0x3e41d9aa	0.18930689
143	0x3e481e9e	0.1954293
144	0x3d3e25cd	0.04642277
145	0x3de8044e	0.11328946
146	0x3f011286	0.5041889
147	0x3d894eaa	0.06704457
148	0x3e26d7e9	0.162933
149	0x3d670106	0.05639746
150	0x3e3b02a3	0.18262725
151	0x3ec7e592	0.39042336
152	0xbd243272	-0.04008717
153	0x3e9297f4	0.28631556
154	0x3e25559c	0.16145939
155	0xbe99c8b6	-0.30035943
156	0x3e2c3058	0.16815317
157	0xbd593973	-0.053033303
158	0x3e7e42b2	0.2483013
159	0x3ef6f984	0.4823724
160	0x3e06f4a7	0.13179265
161	0x3dfee1d1	0.12445415
162	0x3ef710ce	0.48255008
163	0x3eb81edf	0.35961053
164	0x3e89efa1	0.26940635
165	0x3eebe896	0.46075886
166	0x3ec170f3	0.37781486
167	0xbcf575e4	-0.029963441
168	0x3eb00962	0.3438216
169	0x3e157138	0.14593971
170	0xbd81a473	-0.06330194
171	0x3e6f0cfb	0.23344795
172	0xbeb352e8	-0.3502419
173	0x3ee89c42	0.45431715
174	0x3e4cdc33	0.20005874
175	0xbe0e4606	-0.138939
176	0x3e80ae70	0.25133085
177	0x3ec69e06	0.38792437
178	0x3e600799	0.21877898
179	0x3e3e4fc4	0.18585116
180	0x3ea48ef3	0.32140312
181	0xbdadc9fa	-0.084857896
182	0x3e54f4fd	0.2079658
183	0x3f07d9d6	0.53066766
184	0x3f1d1df4	0.6137383
185	0x3c82c856	0.015964668
186	0x3cf8923e	0.030343171
187	0x3dce9a31	0.100880034
188	0x3e7a823d	0.24463744
189	0x3d18fe3a	0.037351824
190	0x3e20355e	0.15645358
191	0x3e4b2b21	0.19840671
192	0x3d6a7eb0	0.057249725
193	0x3dc0c005	0.09411625
194	0x3e95b59a	0.29240113
195	0x3e02941a	0.12751809
196	0x3dfa5567	0.122233205
197	0x3e4eca37	0.20194326
198	0x3d894e00	0.067043304
199	0x3e1691fd	0.14704128
200	0x3e62c02d	0.22143622
201	0xbd14dcc8	-0.036343366
202	0x3e8223a9	0.25417832
203	0xbe0af71d	-0.13570829
204	0x3eaf393f	0.34223363
205	0x3e1499e8	0.14511836
206	0xbe28e8e0	-0.16495085
207	0x3dbe0df2	0.092800036
208	0x3e6664eb	0.22499435
209	0x3e6e770d	0.23287602
210	0x3f0ba1ab	0.5454356
211	0x3e042785	0.129057
212	0x3ede1300	0.4337387
213	0x3e01d86d	0.12680216
214	0x3e852135	0.26001897
215	0x3ef8ee8e	0.48619503
216	0x3ed08820	0.40728855
217	0x3d85a215	0.06525055
218	0x3e50d8d7	0.20395218
219	0xbd89120d	-0.06692896
220	0x3de64502	0.11243631
221	0xbcea8cd3	-0.028631603
222	0x3ebbe38c	0.36697042
223	0x3d5f0f4b	0.054457944
224	0x3e62dca2	0.22154477
225	0x3e2d2c09	0.1691133
226	0xbd4292a5	-0.047503132
227	0x3e63f619	0.22261848
228	0xbcec4b57	-0.028844519
229	0x3e2078e1	0.15671112
230	0x3ee92734	0.45537722
231	0x3d16e3a8	0.036838204
232	0x3ced17be	0.028941985
233	0x3e1a1913	0.15048628
234	0x3e7f7960	0.24948645
235	0x3e33f454	0.17573673
236	0x3e8fb7ba	0.2806986
237	0x3e9899f8	0.2980497
238	0x3ebd27fd	0.3694457
239	0x3dbc2a1d	0.0918772
240	0x3ea34f36	0.3189637
241	0x3e5407a6	0.20706043
242	0x3e84e5ec	0.25956666
243	0x3e6bdef2	0.23034266
244	0x3e5234f0	0.20528007
245	0x3e55d229	0.20880951
246	0x3ec21fb5	0.37914816
247	0xbd9b88ff	-0.07594489
248	0x3e9c0e72	0.3047977
249	0x3e920ce6	0.28525466
250	0x3eb28520	0.3486719
251	0x3e82b458	0.25528216
252	0x3e470119	0.19434012
253	0x3e81a2fd	0.25319663
254	0x3e885370	0.26626158
255	0x3da82dde	0.082118735

bn1.running_mean f4 [256]
0	0x3f95c395	1.1700312
1	0x40179f2e	2.3690906
2	0x40b5cd5c	5.6813183
3	0x40bc7945	5.8898034
4	0x3f94da50	1.1629124
5	0x40f2c3c4	7.586397
6	0x403965c5	2.8968365
7	0x41393cb2	11.577318
8	0x3ffdf214	1.9839501
9	0x402ccf5d	2.7001565
10	0x40a369cb	5.106664
11	0x408a7bc8	4.32761
12	0x4022dc5b	2.5446994
13	0x40a048e5	5.0088983
14	0x3f551288	0.832314
15	0x3f9d4e22	1.2289469
16	0x3f8f60e7	1.1201447
17	0x3e53c464	0.20680386
18	0x3fc52217	1.5401028
19	0x40c6818f	6.2033153
20	0x409f9547	4.9869723
21	0x3f957ad7	1.1678113
22	0x3f9f9146	1.2466209
23	0x3f4e3a41	0.8055764
24	0x3d97c3ff	0.0741043
25	0x417ec760	15.923676
26	0x403d4778	2.957487
27	0x3ffa9b95	1.957873
28	0x3f90443c	1.1270823
29	0x3df27fbf	0.11840772
30	0x402d1b7a	2.704802
31	0x3ef90f08	0.4864428
32	0x3e5149a4	0.20438248
33	0x00000004	6e-45
34	0x409a0d31	4.8141103
35	0x40df43b3	6.977014
36	0x3ff635b8	1.9235144
37	0x40a1acd9	5.0523496
38	0x40984da8	4.7594795
39	0x3afa1649	0.0019080128
40	0x40037421	2.053963
41	0x3fdc9122	1.7231791
42	0x406d0863	3.703637
43	0x408d4fd6	4.4159956
44	0x3fc13cc0	1.5096664
45	0x40833445	4.1001306
46	0x4160ebb7	14.057548
47	0x3ed7c7f1	0.4214473
48	0x40408274	3.0079622
49	0x3fef14ae	1.8678186
50	0x3ec6e6fb	0.388481
51	0x3fa75c94	1.3075128
52	0x3fadab7f	1.3567961
53	0x4030c20a	2.7618432
54	0x3ff5922c	1.9185233
55	0x3fb1a232	1.3877623
56	0x4061cbc8	3.5280628
57	0x40c335c5	6.1003137
58	0x4056e3b5	3.3576481
59	0x405cb31c	3.448432
60	0x4022257e	2.5335383
61	0x40f3d068	7.61919
62	0x4079bf62	3.902306
63	0x3e229ab3	0.15879326
64	0x3f6f39b2	0.9344741
65	0x40fd3450	7.912636
66	0x3fbac566	1.4591491
67	0x3eb1cdae	0.34727234
68	0x4014f24b	2.3272884
69	0x3f010a19	0.5040603
70	0x3fd42ca8	1.6576128
71	0x412941e9	10.578591
72	0x4040a6ae	3.0101733
73	0x4037228b	2.8614833
74	0x408127fa	4.03613
75	0x41b49b0e	22.57571
76	0x40326843	2.7876136
77	0x41611b53	14.069171
78	0x40c07992	6.01484
79	0x3ff8a175	1.9424273
80	0x4158ac41	13.542054
81	0x3fd53d73	1.6659378
82	0x4002a24e	2.0411563
83	0x402d2f8d	2.7060273
84	0x402d20f3	2.705136
85	0x4169142c	14.567425
86	0x3f28ab75	0.6588662
87	0x40f38133	7.6095214
88	0x3f66a6ad	0.9009808
89	0x40af53c5	5.478976
90	0x4116611d	9.398709
91	0x410c917a	8.785517
92	0x40a2168f	5.0652537
93	0x413da217	11.852073
94	0x3fd29191	1.6450673
95	0x40aef920	5.467911
96	0x3f1b41cf	0.6064729
97	0x403169ef	2.7720907
98	0x3fe517c5	1.7897879
99	0x3f851c01	1.0399171
100	0x3ef2b888	0.4740641
101	0x4003cbf6	2.0593238
102	0x40632d38	3.549635
103	0x4006eb02	2.1080937
104	0x3f3c70b5	0.7360948
105	0x40bbb2e7	5.8655887
106	0x3fc4992a	1.5359242
107	0x41500cb7	13.003104
108	0x3eeb512b	0.45960364
109	0x3fd32a1e	1.6497228
110	0x41007481	8.028443
111	0x3f3eb331	0.74492174
112	0x3f71f7b0	0.94518566
113	0x3fb3e4fc	1.4054255
114	0x3ec3103e	0.3809833
115	0x3fd7f259	1.6870834
116	0x413cfbf7	11.811515
117	0x40a7ffc3	5.249971
118	0x402c6b80	2.6940613
119	0x40b18e69	5.548634
120	0x40eb04d9	7.3443418
121	0x401fe873	2.4985626
122	0x40250a30	2.5787468
123	0x4111fa44	9.1236
124	0x401344c4	2.3010721
125	0x3fa6d0ae	1.3032434
126	0x401b8995	2.4302723
127	0x3f9a6c2c	1.2064261
128	0x41027b60	8.155121
129	0x40052d08	2.0808735
130	0x40b391aa	5.6115313
131	0x4046ab5f	3.1042097
132	0x3eef3322	0.467187
133	0x3fa4efc6	1.2885673
134	0x409267dc	4.575178
135	0x404e8492	3.2268414
136	0x3fd018f7	1.6257619
137	0x40657dc2	3.5858006
138	0x3f604b8f	0.87615293
139	0x40a7c976	5.2433424
140	0x3c15a984	0.009134654
141	0x407cfad3	3.952809
142	0x40630827	3.5473726
143	0x40c05cb8	6.011318
144	0x3e74e9bb	0.23917286
145	0x40271e8e	2.61124
146	0x41440b36	12.252737
147	0x4041d088	3.0283527
148	0x3f1001f2	0.5625297
149	0x3f90e176	1.1318805
150	0x40facda2	7.8376017
151	0x4048eacc	3.1393309
152	0x3f97c6fc	1.18576
153	0x40f12f48	7.5370216
154	0x3fc52021	1.540043
155	0x42372c51	45.793278
156	0x4132f275	11.184194
157	0x3e51f127	0.20502149
158	0x3f33ba55	0.70206195
159	0x4018a384	2.3849802
160	0x3f8d0f54	1.1020303
161	0x3f82fee6	1.0234039
162	0x411e10cd	9.879102
163	0x3fd8a580	1.6925507
164	0x4031c3ca	2.777575
165	0x407b06cc	3.9222898
166	0x4037748c	2.8664885
167	0x3f460854	0.7735646
168	0x3f83558c	1.0260482
169	0x3f4221d1	0.7583285
170	0x405bcef7	3.4345071
171	0x3fa120c0	1.258812
172	0x3f30e0b2	0.6909286
173	0x40c8c2d0	6.273781
174	0x3f737d8a	0.9511343
175	0x4006ad24	2.1043177
176	0x3f8c54e3	1.0963405
177	0x400c4b57	2.1920984
178	0x40896ef5	4.2947946
179	0x402c852f	2.695629
180	0x41069480	8.411255
181	0x3f58f8e6	0.8475479
182	0x3f7dea4a	0.9918562
183	0x404b81a1	3.179787
184	0x40cf01ec	6.4689846
185	0x3f4c4910	0.79798985
186	0x3fe58568	1.7931337
187	0x40502165	3.2520382
188	0x40168e90	2.3524513
189	0x3fc6befc	1.5527034
190	0x3f018962	0.50600255
191	0x410f105b	8.941493
192	0x3f414e61	0.7551022
193	0x402f004b	2.734393
194	0x40bab043	5.8340163
195	0x3f72c8b6	0.9483751
196	0x3f052438	0.5200839
197	0x3e699325	0.22810037
198	0x3f97cf81	1.18602
199	0x3fe7bdde	1.8104818
200	0x40ce424d	6.4455934
201	0x408a00f1	4.312615
202	0x3fef6d92	1.8705313
203	0x3fba75a8	1.4567156
204	0x4075765c	3.835349
205	0x4116a453	9.415118
206	0x405c59a6	3.4429717
207	0x3f5a8df3	0.8537285
208	0x4007b5c9	2.1204703
209	0x3f001d88	0.5004506
210	0x41b63560	22.776062
211	0x40044e5c	2.0672827
212	0x3fc6ccef	1.5531291
213	0x3f8db460	1.1070671
214	0x3fa89b80	1.3172455
215	0x4042c3fd	3.0432122
216	0x40e2ac50	7.0835342
217	0x40a505e9	5.1569715
218	0x3f07287e	0.5279616
219	0x4096085c	4.6885204
220	0x40283da3	2.628762
221	0x3f8964be	1.0733869
222	0x4008ce63	2.1375968
223	0x3fe1e80c	1.764894
224	0x3fc73e38	1.5565863
225	0x3ee55985	0.4479486
226	0x3f7a14a3	0.9768774
227	0x41114a1b	9.080592
228	0x40005338	2.0050793
229	0x3f1c28c3	0.609997
230	0x408aa9a8	4.33321
231	0x400e7e31	2.226452
232	0x3f0536b8	0.5203662
233	0x40155e10	2.3338661
234	0x3ffedd2b	1.9911245
235	0x40cc8fef	6.39257
236	0x3f2cec60	0.6754818
237	0x3fe344af	1.7755336
238	0x3fded85a	1.7409775
239	0x40b61d4f	5.6910777
240	0x3f2bdf24	0.6713736
241	0x400adba9	2.169657
242	0x3fef7dd3	1.8710274
243	0x40806c8f	4.013252
244	0x40ccd1c1	6.4006047
245	0x4085ee91	4.185372
246	0x3fc9360e	1.5719621
247	0x41e9884b	29.19155
248	0x401283b9	2.2892897
249	0x3f480eab	0.7814738
250	0x407e991b	3.9780948
251	0x3f9a476c	1.2053046
252	0x3f46d764	0.7767241
253	0x419228b5	18.269876
254	0x3fbcbc54	1.4744973
255	0x3f1e1703	0.61753863
