checkpoint_critic1.pth (torch_old, 188851 bytes, 9 tensors)

fcs1.weight f4 [256, 48]
000000 30 37 09 3e 9c 0d b7 3d d3 a3 af be 12 43 86 3d
       0.13399959 0.08938143 -0.34304675 0.065557614
000010 95 94 a9 3d 5f 49 52 bd cc 0f bb be 8b 2d 86 3d
       0.08280293 -0.051339503 -0.3653549 0.065516554
000020 8c be 22 3d 24 0d 9c 3d 48 36 68 be fa 5b 63 3e
       0.0397325 0.07619694 -0.22676957 0.22203055
000030 6a cf e4 3d 78 00 dc 3d d6 ef 37 be bd 1c 31 3e
       0.111723736 0.10742277 -0.17962584 0.17296119
000040 0f 1a f0 3d 62 34 16 3e 1b 6e 8d be 2b 88 9e be
       0.1172372 0.1466842 -0.27623066 -0.30963263
000050 28 82 cb 3e 4d ab 07 3d 80 42 32 be 4e d8 4a be
       0.3974774 0.03312235 -0.1740818 -0.19809076
000060 ec 9f b7 3d 88 b3 85 3e c4 b1 c2 bd 93 2b 9c be
       0.089660496 0.26113534 -0.09506562 -0.30501994
000070 bc a3 2d be 0b 5c d6 bd 95 e6 a6 bd 67 99 7e be
       -0.16956991 -0.104667746 -0.08149449 -0.24863206
000080 9b c5 6e bd 8e 23 20 3e df 0e 3b 3e 38 c9 81 be
       -0.05829392 0.15638563 0.18267392 -0.2534883
000090 d0 fb df bd 0f 1d cc 3d 2e e5 37 3e 75 5e 9b be
       -0.10936701 0.0996648 0.17958519 -0.30345502
0000a0 d8 a2 9f bc b5 cf b2 3d 9e 58 34 be 41 04 04 bf
       -0.01948683 0.08731023 -0.1761193 -0.5156899
0000b0 06 64 c6 be 48 10 d1 3d cf 2a 62 be af 17 e2 be
       -0.38748187 0.102081835 -0.22086643 -0.44158694
0000c0 54 dd 93 3e 37 c6 7e 3e 6c fe f9 3d e2 00 ae 3c
       0.28879797 0.248803 0.1220673 0.021240655
0000d0 25 16 9b 3d 4c 81 44 be 79 23 14 3e fa 7f ff bc
       0.07572583 -0.19189948 0.14466657 -0.031188954
0000e0 f3 09 f7 3d ea 11 83 3c 9a 72 4f be 81 32 32 be
       0.120624445 0.015999753 -0.20258561 -0.17402078
0000f0 cb e3 99 3d 0e b4 c3 bc e2 41 5e be c4 89 de bd
       0.07514151 -0.023889568 -0.2170482 -0.108661205
000100 a7 1a 23 3b 0a 98 c0 3b 93 43 ba be 58 6b ba 3d
       0.0024887712 0.0058774995 -0.3637968 0.091025054
000110 0e 08 8e 3e 24 60 af 3d 17 f3 c1 be b5 1c 23 3e
       0.2774052 0.08563259 -0.37880775 0.1592892
000120 84 40 54 3e 1a 90 f2 3e a1 71 7a 3d 66 90 1b be
       0.20727736 0.47375566 0.06114352 -0.15191802
000130 5a a6 f6 bd 7f 04 c5 bd e8 c5 07 3d 87 3f 4b be
       -0.12043448 -0.09619998 0.033147722 -0.19848453
000140 c1 5d a4 bb 7a e9 b9 3e 66 d7 06 bf a6 9c 3a be
       -0.005016059 0.3631094 -0.5267242 -0.18223819
000150 7d f2 21 be 33 7a 09 3d a4 55 db be c4 de 86 be
       -0.15815158 0.033563804 -0.42838776 -0.26341832
000160 0e d6 03 3d 24 b3 38 3e 6d 7f 86 be 7c 41 1b bf
       0.03218656 0.18037087 -0.26269093 -0.60646796
000170 06 ed 85 be 81 29 08 3c 3c e9 84 be f9 f5 03 bf
       -0.26157397 0.008310677 -0.25959194 -0.515472
000180 4a 53 02 bd 94 46 99 bd 73 2f 4d 3d 6e 53 85 3e
       -0.031817712 -0.07484165 0.05009408 0.26040214
000190 95 63 e1 3e b5 f9 3b bf 53 d0 18 3d 77 be bf 3e
       0.44021288 -0.734279 0.03730805 0.3745
0001a0 86 99 51 bb bb 4e 71 bd 3b e2 89 3d 45 15 30 3e
       -0.0031982376 -0.058912974 0.06732603 0.17195614
0001b0 b0 8a 85 3e e5 76 4f bf 43 b1 90 3d b9 45 6c 3e
       0.26082373 -0.81040794 0.0706506 0.23073472
0001c0 9b b2 ae bd 34 48 12 be 6d 7a e4 3d 53 65 fa 3c
       -0.0853016 -0.14285356 0.11156163 0.030565893
0001d0 3e 21 22 be 14 50 7d be d7 cd 9e 3d 1e 0f a4 bd
       -0.15832993 -0.24737579 0.077541046 -0.08010696
0001e0 da 2b 2e 3c a8 75 05 bf ae 07 c0 3d 1d 69 08 bd
       0.010630572 -0.52132654 0.09376465 -0.03330337
0001f0 4d 69 da be 81 e6 45 bf c7 51 94 3c 6a d9 0a 3d
       -0.42658463 -0.77304846 0.0181054 0.03389875
000200 dc 81 8e 3c 33 14 18 bf 5f 02 a9 3d eb 3e 53 be
       0.017395906 -0.5940582 0.082524054 -0.2062947
000210 f9 0b 96 be de d5 55 bf b8 fc 68 3a be 62 22 be
       -0.2930601 -0.8352946 0.00088877557 -0.1585798
000220 e2 bb c8 bb b2 39 e1 be 0d d9 49 3d f3 da fd bd
       -0.006125913 -0.4398933 0.04927926 -0.12395277
000230 f6 2d fc 3d 82 fe 2d be f3 c8 bb 3d d9 cd 13 be
       0.12313454 -0.16991618 0.091691874 -0.14433993
000240 17 e6 c1 3e 81 34 49 3e 5c e2 c2 bd ef 79 a4 3d
       0.37870857 0.19648935 -0.09515831 0.080310695
000250 7a e3 a0 3d 36 d5 14 3e 5c 2c c3 bd bc fc ac 3d
       0.07855888 0.14534459 -0.09529945 0.08446643
000260 8f a6 c7 3e aa 55 17 3e 76 9a 8d bc db c3 de bd
       0.38994262 0.14778772 -0.017285567 -0.108772
000270 59 cb 0b 3d b3 40 0c 3d b8 fd ff bd 7b fa da bd
       0.034129474 0.03424139 -0.12499565 -0.106923066
000280 e6 21 d4 3e 72 58 c9 3c 78 2b 35 3e e3 6b 37 3d
       0.41432112 0.024578307 0.17692363 0.044780623
000290 c6 7c 6c 3e 76 85 27 3e 4a 7e 05 3e bc a8 de 3d
       0.23094472 0.16359505 0.13036457 0.10872027
0002a0 8b 51 98 3e 47 e5 12 3d 0f 8d 1e bd e6 8f 74 be
       0.29749712 0.035863187 -0.038708743 -0.23883018
0002b0 31 99 b2 bd 3f 38 11 3e 17 fa 93 bd 3a 1c 64 be
       -0.08720625 0.14181612 -0.07225435 -0.22276393
0002c0 77 cc d7 3e 49 35 60 3d 30 45 3e 3e c5 2d 84 be
       0.42148182 0.054738317 0.1858108 -0.2581617
0002d0 93 79 d0 bb db 5a df 3d 4d bc 35 3e f1 be 8a be
       -0.006362149 0.10906001 0.17747612 -0.27098802
0002e0 12 b7 c0 3e 31 75 2b be 1a 96 47 3e 66 b3 e6 3a
       0.37639672 -0.16743924 0.19490853 0.0017601072
0002f0 50 3e 40 be f2 94 4d 3e d2 58 4f 3e 45 f9 36 3d
       -0.1877377 0.2007635 0.20248726 0.044671316
000300 bb 70 91 bd fa 8c 0d bf bc d0 2c bd ce d3 20 be
       -0.0710158 -0.5529324 -0.042191252 -0.15705797
000310 0f d2 2e be 6c 41 e0 3b c6 d8 06 be b6 92 0f be
       -0.17072318 0.0068437364 -0.1316863 -0.1402081
000320 84 a7 02 be 69 84 01 bf 3e ad e7 be 7d 80 28 be
       -0.12759215 -0.50592667 -0.4524936 -0.16455264
000330 48 c6 79 be 8c 1f 2b bd 99 b0 d4 be 15 9b 28 be
       -0.24392045 -0.041778132 -0.41540983 -0.16465409
000340 bc db 60 be d4 b6 2c bf 07 45 cd be a2 1e 95 be
       -0.21958822 -0.67466474 -0.40091726 -0.29124933
000350 aa c7 d1 be d0 89 68 bd b6 05 b9 be dd 78 b8 be
       -0.40972644 -0.056772053 -0.3613717 -0.3602971
000360 c5 29 e6 bd 3c de be be 13 fe 3b bd 69 7f 76 3d
       -0.11238436 -0.37278926 -0.0458966 0.0601801
000370 19 b2 0d 3e 0b 85 4c 3d f0 56 53 bd 9f be 00 3d
       0.1383747 0.049931567 -0.051596582 0.03143179
000380 a9 bd 0b be a1 3e 82 be 32 69 36 be 4c 75 04 3e
       -0.13646568 -0.25438407 -0.17813566 0.1293537
000390 0c c9 5e 3e 0e 13 33 bd 77 50 50 be de 2b 9b 3d
       0.21756381 -0.043719344 -0.20343195 0.075767264
0003a0 fb e7 0b be 90 fa e0 be 0c 0b cd 3d 71 d2 e7 bd
       -0.13662712 -0.43941164 0.10011873 -0.113194354
0003b0 2d e3 d1 3e 18 44 26 bd 78 57 20 3d 90 fd 0d be
       0.40993634 -0.040592283 0.039145917 -0.13866258
0003c0 1e c9 37 3d c7 d3 d9 3f ed 07 1c bb 7f 1b c0 3d
       0.044869535 1.7017754 -0.0023808435 0.093802445
0003d0 41 1d 47 3e 46 ac 73 3e f7 a7 d1 bc 5d 6d 0a 3e
       0.19444753 0.23796186 -0.025592787 0.13518281
0003e0 1d 0f 62 3e 5e 08 c8 3f 42 64 bc 3c 80 0d 88 be
       0.22076078 1.5627553 0.022997025 -0.265728
0003f0 f9 1d 26 3e f0 22 9f 3e 15 7e a1 bd 13 93 66 be
       0.16222371 0.31081343 -0.07885376 -0.22517042

fcs1.bias f4 [256]
000000 4f a7 9e bd fd e3 3a be 62 d5 92 3e 69 da 9e 3c
       -0.07746755 -0.18251033 0.28678423 0.019391255
000010 25 5a cd 3d 28 59 96 be 83 32 c9 3d 5c 66 3e be
       0.10026959 -0.29364896 0.098240875 -0.18593735
000020 ad 27 20 be ac 4f 37 3a cc 5b 67 3e 7a e9 c1 bd
       -0.15640135 0.0006992768 0.22593611 -0.0946836
000030 a3 fb b9 be 66 f3 a6 bc 99 fa 09 3e cc eb b1 bc
       -0.36324796 -0.020379733 0.13474502 -0.021718882
000040 43 4f 2b 3e 94 e2 01 bf 59 26 8c 3e 4e b7 13 be
       0.16729455 -0.50736356 0.27373007 -0.14425394
000050 e2 ab 99 bc b8 ee a5 bd 9c bd 41 bf 5d e8 0b be
       -0.018758718 -0.081021726 -0.75679946 -0.13662858
000060 ac 40 ff bd 14 52 10 be 37 16 14 be 8a 81 23 3d
       -0.12463507 -0.1409381 -0.144616 0.03991846
000070 b0 70 74 be 26 46 a6 be cc 60 57 bd fa 11 18 be
       -0.23871112 -0.32475394 -0.052582547 -0.14850608
000080 37 80 b3 bd 5b c2 81 be 4d b5 2f 3c 49 52 90 be
       -0.087646894 -0.25343594 0.010724378 -0.2818778
000090 00 3e 4c be b6 53 0a be a2 d5 d5 bd b0 f6 01 bf
       -0.19945526 -0.13508496 -0.10441138 -0.5076704
0000a0 d2 42 99 bd 81 2d 3d be 0f 3b 18 be d3 36 05 3d
       -0.07483448 -0.1847439 -0.14866279 0.032522988
0000b0 1d e9 1a be 5c e1 e7 bd 2a 1a 89 be 96 de 99 be
       -0.15127988 -0.11322281 -0.26777774 -0.30052632
0000c0 a0 b8 27 be 08 91 db 3c 3a 78 6c be 18 84 e4 ba
       -0.16379023 0.026802555 -0.23092738 -0.0017434387
0000d0 96 de 9e bd 1a 5f d4 bd 81 23 27 3d ee 9a 23 be
       -0.07757299 -0.10369702 0.040805344 -0.1597707
0000e0 f5 f7 4f 3d e5 96 d8 be 82 a1 0a bf ff 1d 11 bf
       0.05077358 -0.42302623 -0.5415269 -0.56686395
0000f0 07 3f d7 bc 80 7c d4 3c 0b ee d7 3d 2a a1 a8 bd
       -0.026275171 0.025938272 0.1054345 -0.082338646
000100 8a 33 37 be 08 3f 80 3d 09 2c c1 be 15 25 a8 be
       -0.17890754 0.06262022 -0.3772891 -0.3284079
000110 93 99 77 3d 02 53 9b 3a 0d 7f 98 be a6 22 19 be
       0.060449194 0.00118503 -0.29784432 -0.14954624
000120 40 d1 f2 bd 8a ae 88 3d a0 69 29 be 8f d3 d8 3d
       -0.118563175 0.06673916 -0.16544199 0.105872266
000130 40 cd 92 3d d9 38 e2 bc b6 83 5d 3d e4 7f 92 bc
       0.071680546 -0.027614998 0.054080687 -0.017883249
000140 d0 35 65 bd e9 c8 d8 bd 8a 50 86 be a6 75 89 3d
       -0.055959523 -0.105851956 -0.2623332 0.06711893
000150 bb dd 40 bf bd 84 75 3c 6b 5e ce be 51 39 96 be
       -0.75338334 0.014985261 -0.4030641 -0.29340604
000160 fa 62 7e bd 4c 00 d6 bd 68 f8 39 be 36 7b 48 3b
       -0.06210611 -0.104492754 -0.18161166 0.0030591018
000170 48 fb 2e be a4 e9 2f be fa a9 65 bd 2b 10 3e bf
       -0.17088044 -0.1717897 -0.056070305 -0.7424342
000180 8d 0b 1b be fb 0e ac bb 80 ff 46 be c2 50 b2 3d
       -0.15141125 -0.0052508092 -0.19433403 0.087068096
000190 30 5c a0 3d 6e a9 85 3c cc c2 30 bf b3 96 cc be
       0.07830083 0.016316142 -0.69047236 -0.39958724
0001a0 ce e6 4d ba eb 51 0b bd 71 8a 8c be a9 80 41 be
       -0.0007854522 -0.03401367 -0.27449372 -0.18896736
0001b0 99 4c 60 be b9 c2 c3 bd bc 98 2d be fc 81 37 3d
       -0.2190422 -0.09558625 -0.16952795 0.044801697
0001c0 bc a7 5f 3e 2e 12 01 bf e1 df d8 3d af 04 1f bf
       0.2184133 -0.50418365 0.105895765 -0.6211652
0001d0 8d 58 d4 3d 0f 2a 56 3d 77 64 3c bd 62 a1 17 3e
       0.10368452 0.052286204 -0.04599425 0.14807656
0001e0 35 be 9c 3d f4 70 24 bd 89 73 58 bd 83 93 b5 3c
       0.076534666 -0.040146783 -0.052844558 0.022165066
0001f0 be 8d e6 3b f3 da 22 3e b1 ae c5 be a7 90 f1 3c
       0.00703594 0.15903835 -0.3860984 0.02948792
000200 42 99 b9 bd af 80 7d be 1c 56 52 3d a1 6b c2 3e
       -0.09062435 -0.2475612 0.05135165 0.3797274
000210 4b a9 e3 bd 52 e6 67 3f c6 06 95 be 2c 3e 12 3e
       -0.111162744 0.90585816 -0.2910673 0.14281529
000220 f1 53 ed bd 8e 7d a7 bd 1a f5 93 3e df a2 46 bc
       -0.11588276 -0.081782445 0.28897935 -0.012123792
000230 6e e4 1c 3e 00 40 77 bd 55 eb c7 be d5 75 06 be
       0.15321514 -0.06036377 -0.39046732 -0.13130887
000240 be 80 64 3d d7 ea c5 be fc d5 bd bc 40 06 91 bd
       0.05578684 -0.3865573 -0.023173325 -0.0708127
000250 ed 13 d9 bc 50 32 d3 3b f8 95 03 be f2 c2 a7 be
       -0.02649876 0.0064452067 -0.12850177 -0.3276592
000260 5f 3a a6 3c 94 0d 1c 3e 46 62 1e be a4 4d 2c be
       0.020291505 0.15239555 -0.15467176 -0.16826493
000270 fa de 7b be 5f c2 89 bd da 4b 71 be d8 2c 33 3d
       -0.24596778 -0.067265265 -0.23564091 0.04374394
000280 da 2e c2 be 1b 23 10 be 71 90 15 be 49 af 21 be
       -0.3792637 -0.14075892 -0.14605881 -0.15789522
000290 d6 e8 1e be c9 1a b4 3d b5 b6 86 bc a6 fc a5 be
       -0.15518507 0.08794171 -0.016444543 -0.32419318
0002a0 28 ba bd bd a7 b2 dd 3d b2 05 9c be d6 10 d5 3d
       -0.09264022 0.10825091 -0.30473095 0.10403602
0002b0 16 bb ed 3d a7 12 63 bd 83 a8 49 be 98 4b 3d be
       0.116079494 -0.05543771 -0.19693188 -0.18485868
0002c0 54 11 49 be c5 c0 e6 3d 87 b3 b4 bd 21 21 85 be
       -0.19635516 0.112672366 -0.088233046 -0.26001838
0002d0 9e 3f a1 3e 70 07 0d be 86 41 bd 3d fa 4a 05 bd
       0.3149385 -0.13772368 0.09241013 -0.032542206
0002e0 2c 7c 6e 3d 95 cb 86 3c cf 74 e7 3b 2f 63 94 bb
       0.05822389 0.016454497 0.007063485 -0.004528425
0002f0 b4 ca 3d be e9 54 41 be 68 84 9d bd af 46 5c be
       -0.18534356 -0.18880047 -0.0769127 -0.21511339
000300 be a1 53 be c0 5f c3 bd f2 c3 a3 be 9b 33 01 3e
       -0.20667168 -0.09539747 -0.31985432 0.12617342
000310 3d fa 8f 3e bc 27 89 be 11 e7 5b be 91 c6 3b 3e
       0.28120604 -0.26788127 -0.21474864 0.18337466
000320 1f ad a1 bc 84 97 06 be 1b 81 10 be c4 53 a4 bd
       -0.01973587 -0.13143736 -0.1411175 -0.080237895
000330 1c 7c 0c be 87 98 2e 3c 28 5d 2f be 1b 7f 96 bd
       -0.13719219 0.010656483 -0.1712538 -0.07348462
000340 6a 09 04 3e 22 5f 68 3d 9d b0 63 be c9 88 81 be
       0.12894216 0.05673135 -0.22235341 -0.2529967
000350 b0 be 69 3e 87 bd b3 be 7f d0 9b be 20 39 d1 bd
       0.22826648 -0.35105535 -0.30432507 -0.10215974
000360 04 d6 c7 bd 3e f2 46 bc 30 ea 45 be 82 07 e3 be
       -0.09757617 -0.012142716 -0.19327617 -0.44341666
000370 dc 7c ef bd a3 59 1a be 73 fb ee bd 40 5d 98 3d
       -0.11693737 -0.15073256 -0.11669054 0.07439661
000380 ad 12 46 3d 37 5a 90 bd 75 06 dd bd 84 69 b7 bd
       0.048357654 -0.07048457 -0.10792247 -0.089556724
000390 44 70 09 3a b0 b4 7e bd bd eb 0e 3e 33 94 7c 3c
       0.0005242864 -0.062184036 0.13957115 0.015416193
0003a0 29 d0 61 bc d7 c6 c1 be 27 70 bb bd 4d 85 58 be
       -0.013782539 -0.37847015 -0.09152251 -0.211446
0003b0 75 28 5f be d0 c6 85 be 6c fc 6c 3c d5 f2 06 be
       -0.21792777 -0.26128244 0.014464479 -0.1317857
0003c0 b2 f7 d9 bb 92 1c df 3c 09 1a e8 bd 67 7e 1f be
       -0.006651842 0.027235303 -0.11333091 -0.15575562
0003d0 51 38 21 3e ab 8c f8 bc 5a 09 c0 be 30 49 df bd
       0.15744139 -0.030340513 -0.37507135 -0.10902631
0003e0 ac bb 03 3b 84 04 ef bd 7f 44 79 3d 16 f1 6b be
       0.0020100875 -0.11670783 0.06085634 -0.23041186
0003f0 67 cd 2f 3d 4d 92 c6 bd d8 c0 f8 bd 8f 72 5a 3e
       0.042920496 -0.096958734 -0.12146157 0.21332763

fc2.weight f4 [128, 258]
000000 18 49 2c 3d 80 09 56 bd 72 de c7 bd c1 f2 ce bd
       0.042061895 -0.052255154 -0.09759225 -0.101048954
000010 72 cf 1f be 4c 44 40 3d d9 26 bb be 03 47 7e bc
       -0.15606478 0.046940133 -0.36553076 -0.01551986
000020 26 7a 40 3e 05 22 07 be a1 15 d0 3d b3 5d 69 be
       0.18796596 -0.13196571 0.101603754 -0.2278965
000030 bd 6f 25 be b6 3f 59 be 9a 65 a6 bd 81 d9 55 bc
       -0.16155906 -0.2121571 -0.08124848 -0.013052345
000040 d1 e8 ed bd 04 91 24 bd 2d e1 9a bd aa 0b 8c be
       -0.11616672 -0.04017736 -0.0756248 -0.2735265
000050 3c d1 c7 bd e3 94 aa bd 17 fb f4 3c c7 d0 05 be
       -0.09756705 -0.08329179 0.029904885 -0.13067923
000060 d0 5d a3 be 67 ce a3 be e9 f7 fe 37 e8 4f d2 bd
       -0.3190751 -0.3199341 3.0394602e-05 -0.10269147
000070 60 e9 05 3e 88 55 5a bd fd 1e 27 bd 91 90 54 be
       0.13077307 -0.053304225 -0.040801037 -0.20758273
000080 09 b4 3e bf d1 b7 16 3d 3e 05 97 be 55 15 a5 be
       -0.7449346 0.036796395 -0.29496187 -0.32242838
000090 09 08 fd be 68 a2 0b 3e 7e 46 0e bd a1 80 3d 3e
       -0.49420193 0.13636172 -0.034735195 0.185061
0000a0 8f 86 88 ba ad 24 a7 be 09 d7 7b 3b 82 56 46 3e
       -0.0010416078 -0.3264517 0.0038427731 0.19368938
0000b0 35 ca 45 bd 58 04 42 3d cb d0 71 be c1 2b 7e be
       -0.048288543 0.047367424 -0.23614804 -0.24821378
0000c0 a3 81 7b be f3 d5 9a be c6 13 d6 3d 18 85 ca 3c
       -0.24561171 -0.30241355 0.1045299 0.024721667
0000d0 6c ea a0 be 4f 94 1d be 03 dd f8 3d 7a 0e a6 be
       -0.3142885 -0.15388606 0.1215153 -0.3243292
0000e0 e4 9c d9 bd 42 5b ff be f5 f7 f9 bd 08 34 2e bd
       -0.10625628 -0.49874312 -0.12205497 -0.04253009
0000f0 8a ed 7a be c1 5d 86 be 3f 4e ac bd b2 5f a2 be
       -0.24504676 -0.26243404 -0.08413362 -0.31713635
000100 0b 43 5d ba da 3a 15 3d 07 10 4e 3c d6 a6 7f 3d
       -0.0008440471 0.03643308 0.012577063 0.062414967
000110 b8 9c e6 3d 5b ee 1d be 85 78 6b be 5b e4 81 3d
       0.112603605 -0.15422957 -0.22995193 0.063423835
000120 71 a4 b6 bd 7d b2 22 3e b5 5e 86 be b6 88 aa bd
       -0.089180835 0.158884 -0.2624413 -0.08326857
000130 45 96 a2 bc 80 44 f3 3d 6d 52 d4 bd 71 92 ce bd
       -0.019847045 0.118783 -0.10367284 -0.10086525
000140 f1 7c e7 3d f9 75 c2 be 30 9b 0f 3b 93 1d fc bb
       0.113031276 -0.3798063 0.0021912567 -0.007693955
000150 8a 0f 8f bd c1 10 06 3d 86 cb be be c2 e5 c0 bd
       -0.06985386 0.03273082 -0.3726465 -0.09418823
000160 fa 61 3c be 7b 82 b0 be 45 45 1f 3e 68 41 a4 be
       -0.1839675 -0.3447455 0.15553768 -0.3208115
000170 ed cf 60 3d 89 2d 2f be dd 1e 82 be 7f b7 32 be
       0.054885793 -0.17107214 -0.25414172 -0.1745281
000180 e8 d8 e2 be 24 67 4a be 88 83 3a b9 14 78 8c bc
       -0.4430611 -0.19765908 -0.00017787341 -0.017147101
000190 cd 6b 26 be 27 0c 20 3e de a9 b7 be 36 2b 1a bf
       -0.1625206 0.15629636 -0.35871786 -0.60222185
0001a0 6f 43 c0 be 16 8d fe be 2a 28 93 3d 59 36 14 be
       -0.37551448 -0.49717015 0.07185395 -0.14473857
0001b0 45 5a 98 be 75 e0 e7 be 3e 75 25 bb c0 41 25 be
       -0.2975637 -0.45288435 -0.0025246884 -0.16138363
0001c0 bc 54 76 3d 0a e1 73 be a7 70 44 be 8c 96 64 be
       0.060139403 -0.23816314 -0.19183598 -0.22323054
0001d0 8f 14 a5 bb 92 6d 44 3e 84 ea b7 be f4 20 a7 3d
       -0.005037851 0.19182423 -0.3592111 0.08160582
0001e0 93 1e 3b bd b2 7a 2b 3c 99 04 6c be 9f fb f0 bd
       -0.045683455 0.010466265 -0.23048629 -0.11766743
0001f0 92 53 4e be 09 f7 76 3e 5a e8 69 be e4 01 5b be
       -0.20149067 0.24117674 -0.22842541 -0.2138744
000200 51 8a b1 bd d5 31 41 3e 4e de 22 be 76 f7 cc bd
       -0.0866896 0.18866666 -0.15905115 -0.10008137
000210 8c 57 35 be 8a e7 4f bd 3e ae 1e 3d 56 ab e6 bc
       -0.17709178 -0.050757922 0.03874039 -0.028157871
000220 c2 5b e8 be 55 f9 17 be 0b fd 28 be b9 dc fc 3c
       -0.45382506 -0.14841206 -0.16502778 0.030866968
000230 ec 93 b1 3d 98 6e 15 be ff d7 1a 3d a8 71 1d be
       0.08670792 -0.1459297 0.037803646 -0.15375388
000240 a5 69 0c bf e0 98 44 bd 90 f6 0c be 4d 8c 2e be
       -0.548487 -0.047997355 -0.13765931 -0.17045708
000250 d9 5f ad be 6d d4 f5 3d d9 73 50 ba 55 44 3b 3e
       -0.33862188 0.120034076 -0.0007951833 0.18287785
000260 12 bc 5c be 70 9d a1 bc d7 36 8c 3b f2 2e 0a be
       -0.21556118 -0.019728392 0.0042789984 -0.1349447
000270 91 5c 8c be 85 47 00 be 59 c7 b7 bd 7a b0 09 bc
       -0.27414373 -0.12527283 -0.089735694 -0.008403892
000280 93 e6 5b bc 17 f3 6f be 2b 3e 9c 3d 03 58 9e be
       -0.013421672 -0.23432575 0.07629045 -0.30926523
000290 0f af 45 be e8 7d 26 be a9 30 6a be 62 be 96 3a
       -0.19305061 -0.16258967 -0.22870125 0.001150083
0002a0 9a e1 28 3e 5c fa 17 3e 2b 4b 3f be b1 2c 2e bd
       0.1649231 0.14841598 -0.18681018 -0.04252309
0002b0 16 1a 76 3d 16 46 96 3c 5b 0a a2 3c 38 e5 92 be
       0.06008347 0.018343966 0.019780328 -0.28690505
0002c0 e3 a2 dc bd f3 d7 e2 bd fe 08 e9 bd 71 c7 e9 3d
       -0.10773256 -0.11076345 -0.11378668 0.114149936
0002d0 54 3f 0c bd 42 08 a5 be 93 19 3d be 19 77 f1 bd
       -0.034240082 -0.32232863 -0.18466787 -0.11790294
0002e0 84 33 f7 bd a0 8c ba bd a7 18 e9 be db 2b d9 3c
       -0.12070373 -0.09108853 -0.4552662 0.02651017
0002f0 09 d1 07 3c 4c 2e 4a bc 00 20 a6 3d 4b c3 52 bd
       0.008289584 -0.01234014 0.08111572 -0.051455777
000300 c1 fa 6f bc 59 8c 5c bf 77 3f 1a be 34 03 07 be
       -0.014647187 -0.86151654 -0.15063272 -0.13184816
000310 52 f5 65 3d e4 c9 02 bf 86 81 0b bd 66 e5 88 3d
       0.05614216 -0.5108931 -0.03405907 0.06684379
000320 0b 9b 63 bb 26 d8 12 bf 29 92 8c be 49 6f 62 3c
       -0.0034729864 -0.57361066 -0.2745526 0.013820478
000330 d5 2e 89 3e 3e 5f 48 be 28 5a ee be 2e d7 5e bf
       0.26793543 -0.19567582 -0.4655316 -0.8704709
000340 39 1d ab 3d 3a 6e 59 bc aa d9 bb 3c c7 3c b9 bd
       0.08355183 -0.013270909 0.022930939 -0.090447955
000350 c4 0e 76 3e bb b0 5d be 79 12 9c 3e cb 06 a4 3d
       0.2402907 -0.21649449 0.30482844 0.08009108
000360 c1 24 ff bd 20 3b 9e be 01 9c 8c bc 83 f2 c2 3d
       -0.12458182 -0.30904484 -0.017164232 0.09518912
000370 05 6a e5 3c 47 fc 8c 3c ad b5 97 be 15 16 ef bd
       0.028004656 0.017210139 -0.29630795 -0.11674134
000380 33 b4 4e bd 27 58 6d be d9 a3 97 be 10 82 ad be
       -0.05046482 -0.23178159 -0.29617193 -0.33888292
000390 80 03 0b 3c ef 2a 64 bd af 2f 2d 3e 9f 33 95 be
       0.008484721 -0.055705007 0.16912721 -0.29140946
0003a0 e4 5a 3e be 90 27 17 be 11 4c 4c bd de 4b 9c bc
       -0.1858936 -0.14761186 -0.04987723 -0.019079145
0003b0 99 b1 64 be fe 86 71 be 99 d3 c2 be b9 e2 bb be
       -0.22333373 -0.23586652 -0.3805206 -0.36696413
0003c0 67 1e b3 bd d3 db f5 bd f2 d4 62 bd 22 75 21 3e
       -0.08746033 -0.12004819 -0.05537886 0.15767339
0003d0 5f e0 c8 bd 36 e4 69 3d 04 ca 81 bd f8 17 79 be
       -0.098084204 0.057102405 -0.063373595 -0.2432555
0003e0 af 0d 19 be 60 0e 8e be 80 5b cb be 49 03 33 be
       -0.14946626 -0.27745342 -0.39718246 -0.17481722
0003f0 d6 58 4f bb 3b e2 93 bd 65 29 82 bd d7 eb 71 be
       -0.0031638644 -0.072208844 -0.06355552 -0.23625122

fc2.bias f4 [128]
000000 7a aa 31 3e 10 a4 4b be 90 9d 6f be 7a 4c 36 be
       0.17350188 -0.19886804 -0.23399949 -0.17802611
000010 ef dc 01 be 91 e9 f7 bd 07 fe 0a be 6b de 1b be
       -0.12681936 -0.12105096 -0.13573466 -0.15221564
000020 90 e0 49 bd 1b 8b 26 be 6e 27 4c 3e ab 8a 07 be
       -0.049286425 -0.16264002 0.19936916 -0.13236491
000030 b8 7d 5a be 71 7d 2d be 02 ca 20 bd 45 38 77 be
       -0.2133702 -0.16942383 -0.03925515 -0.24142559
000040 be 50 84 be 69 da 42 bd 7d 2f 09 3c 6f 89 ce bd
       -0.2584285 -0.047571573 0.0083731385 -0.10084807
000050 d3 41 0e be 27 bb 49 be 87 1d 67 3d 01 94 e3 bd
       -0.13892297 -0.19700299 0.056424644 -0.11112214
000060 03 35 98 bc 19 9f 30 be ae 03 f5 bd 90 a5 a7 bd
       -0.018579965 -0.17248191 -0.119635925 -0.081858754
000070 91 43 12 be 2a 72 1a be 93 48 76 be d9 2f de bd
       -0.14283587 -0.15082613 -0.24051122 -0.1084897
000080 64 16 43 be 37 19 85 be f9 d4 88 3d 94 95 50 be
       -0.1905151 -0.259958 0.06681246 -0.2036956
000090 df 35 cd bd ff 6c 05 be 20 ea 3a be cb a8 94 be
       -0.10020041 -0.1302986 -0.18253374 -0.2903503
0000a0 29 05 9f be 52 26 2b be 66 97 77 be aa 37 39 be
       -0.31058624 -0.16713837 -0.24178848 -0.1808764
0000b0 8c cd 38 be 1b 81 9e 3e a6 99 18 be 8a 19 11 be
       -0.1804716 0.30957875 -0.14902362 -0.14169899
0000c0 8e 57 39 3e ab f1 dd 3d 78 99 33 3e cf 3e 30 be
       0.18099806 0.1083711 0.17539012 -0.1721146
0000d0 d2 ad 33 bd c5 1c 76 bd de 44 26 be d7 96 8d bd
       -0.04386694 -0.06008603 -0.16237208 -0.06913536
0000e0 5b 4b 12 be 2f e7 71 be 6d 9b e6 be 3f 28 6e be
       -0.14286558 -0.23623346 -0.45040455 -0.2325754
0000f0 53 77 3d bd 93 3e 88 bd 12 dd 07 be 40 c2 40 be
       -0.046256375 -0.0665256 -0.13267925 -0.188241
000100 14 c5 e5 bd 9b 43 83 be cb e4 d7 3b 5b 99 78 be
       -0.1121923 -0.25637516 0.0065885535 -0.2427725
000110 51 b8 56 be c7 d9 fe be bc 0e 1b be a7 57 9b be
       -0.20968749 -0.49775526 -0.1514234 -0.3034031
000120 b3 81 2c be 46 59 96 be 07 d2 c7 bb a7 9b 9a be
       -0.16846351 -0.29364985 -0.0060980353 -0.30196878
000130 07 fa 3e be ba 87 f3 bd 35 cf 39 be e3 d6 4c be
       -0.18650065 -0.11891122 -0.1814545 -0.20003848
000140 74 c7 25 be f8 a6 5e be a9 eb 37 be 3a 75 5d be
       -0.16189367 -0.21743381 -0.17960991 -0.2162675
000150 33 39 92 be ba db 74 be d3 dd 4f be f1 1b 20 3e
       -0.28559265 -0.23911944 -0.20299463 0.15635659
000160 fc a2 3d be e9 ea 7a bd ea e2 34 3d 8b 7f df bd
       -0.18519205 -0.061259184 0.044161715 -0.10912999
000170 4f 35 b5 bd 6a 1d c6 be fb 3b 6f be c8 39 57 be
       -0.088480584 -0.38694316 -0.23362724 -0.21018136
000180 b4 20 59 be be 37 e8 be 88 4c 50 be 1b a9 07 be
       -0.21203882 -0.45355028 -0.20341694 -0.13248102
000190 9b 6c b4 bd 50 11 80 be ce e6 50 be b6 8b ab be
       -0.08809777 -0.25013208 -0.20400545 -0.33505028
0001a0 cd a1 b8 3c ec 2d 94 be 85 4b 50 be 2e 87 83 bd
       0.02253809 -0.28941286 -0.20341308 -0.06422268
0001b0 36 a1 4e be 5f 69 c6 bd 4a 9c ef bd 02 29 4d be
       -0.20178685 -0.09688067 -0.11699732 -0.20035174
0001c0 ba 41 b9 bd f7 14 8f be d1 79 13 be 25 38 ae bd
       -0.090457395 -0.27945682 -0.14401938 -0.085068025
0001d0 fd 1d db be c2 ba cd bd b4 53 74 be 43 cf bc bd
       -0.42796317 -0.10045387 -0.23860055 -0.092192195
0001e0 0e 16 37 be 95 9d 2e be e1 f7 49 be dd dd 16 be
       -0.17879507 -0.170523 -0.19723465 -0.14733072
0001f0 4e 86 56 be 9d 33 03 be 6a b6 d5 bd 5c ca 8b be
       -0.2094967 -0.12812658 -0.10435183 -0.27302825

fc3.weight f4 [1, 128]
000000 8e 3b 1a 3e e5 5b 62 bd eb 3c ed bd d7 0a 98 3e
       0.15061781 -0.05526342 -0.11583885 0.2969577
000010 29 6c 46 3f e3 7f d5 bc 34 02 b9 bd 2f 61 84 be
       0.7750879 -0.026061958 -0.09033623 -0.25855395
000020 dd c2 d5 be a3 aa d1 3e 07 b0 67 3d 5f 1a b6 3e
       -0.4175023 0.40950498 0.056564357 0.35566995
000030 e1 2b 27 bf a3 ac 1e 3d 17 4e c1 bc ec 84 a8 be
       -0.6530133 0.038738858 -0.023596806 -0.3291391
000040 d5 4b 84 3f bf 87 db bc 1d 9b b1 3e a2 9b a3 be
       1.0335642 -0.026798127 0.34688655 -0.31954676
000050 ba 0d 78 bd 79 e4 bf 3d de 8a 8a 3c 3f 69 a7 3d
       -0.060559966 0.093697496 0.01691192 0.08174371
000060 9f 03 dd bc 3d a1 12 bc 27 40 53 be c4 5a 58 bd
       -0.026979266 -0.008949575 -0.20629941 -0.052820936
000070 07 97 ab bc 65 73 c5 3c 56 96 a7 bd 7e 2d a0 3d
       -0.020946039 0.024102876 -0.08182971 0.07821177
000080 76 9d 35 bf 0f cb cd be 03 ae f3 3c f5 8d 2a 3f
       -0.7094339 -0.40193984 0.029746061 0.6662286
000090 89 73 88 bd b8 4b d6 3d e4 bd 4e bf a9 88 2a 3d
       -0.066626616 0.10463661 -0.807585 0.041634236
0000a0 cc 1d 95 bd c9 a9 69 be 52 04 1a be 7e b2 de be
       -0.07281074 -0.22818674 -0.1504071 -0.43495554
0000b0 ba 8b 14 bf 3a ea 41 3d 3f 5d a2 3e 26 a9 82 3b
       -0.58025706 0.047342516 0.31711766 0.003987449
0000c0 b8 16 a5 3c 2d 13 4c 3d bb ba a4 3c 5d 39 24 bd
       0.020152435 0.049822975 0.020108571 -0.04009377
0000d0 a5 d5 b0 bc 2e fa 1f 3d 7b 9f 3f bd 9d 31 b2 bc
       -0.021586249 0.03905695 -0.04678295 -0.021752173
0000e0 d7 02 a4 3e 1d 62 b7 3d d7 a9 b1 3d ef 86 9b 3b
       0.32033417 0.089542605 0.086749725 0.00474631
0000f0 51 37 5d bd 94 bb a0 3d b4 0d f4 bd ac 90 ee bd
       -0.054007832 0.07848278 -0.11916676 -0.11648688
000100 ca f5 6a bd 96 2c f0 3e e5 6b 8a 3b 67 08 90 3d
       -0.05736331 0.46909016 0.004224288 0.070328526
000110 bf 72 e1 be 12 d8 1e bd ea cc 08 bc ff c7 4b bd
       -0.44032857 -0.03878028 -0.008349637 -0.049751278
000120 69 9d f8 3e 6b 13 96 3d a1 cd 8f 3d d8 61 50 3f
       0.48557594 0.073279224 0.070216425 0.813993
000130 65 5e 93 be ed 41 bd 3c f8 93 70 3e 7c cf 8d bd
       -0.28782955 0.023102725 0.23493946 -0.0692434
000140 e6 8f 15 3d 0f 07 92 3d 75 97 07 be 98 c5 53 bd
       0.036514185 0.071302526 -0.1324137 -0.051702112
000150 a8 67 83 3f e5 24 72 bd c2 76 34 be d0 20 4c 3e
       1.0266008 -0.059117217 -0.17623428 0.19934392
000160 66 7f 44 bc 09 43 9a 3e f1 35 18 3e 8f d1 28 3b
       -0.011993265 0.3012927 0.14864327 0.0025759672
000170 10 70 05 be 6d 1e d2 3e 9a c8 92 bd b2 0e ea be
       -0.1303103 0.41038838 -0.07167168 -0.45714337
000180 c7 52 99 be 17 00 52 3d 50 a4 03 be 6d 7e 1b 3c
       -0.29945967 0.051269617 -0.12855649 0.0094905915
000190 6c b4 dd bd 2b 69 21 bf 0c 40 ae bd a8 3e 85 3f
       -0.10825428 -0.630511 -0.0850831 1.0409746
0001a0 29 d4 15 3d fa 73 b4 3d 09 6c b6 bc c9 d0 27 bd
       0.036579285 0.08811183 -0.022268312 -0.040970597
0001b0 b9 27 6f 3e 5e b1 86 be 9f 46 ce bd 97 7e b1 bd
       0.23354997 -0.26307195 -0.10072064 -0.08666723
0001c0 fa 1c a0 3d e7 ee d2 bd ad 97 dc 3b af 13 b7 be
       0.07818027 -0.10299473 0.0067319483 -0.35757205
0001d0 cd 81 9a 3f af 55 45 be 84 fc 53 3f 8b b8 b9 be
       1.2070862 -0.19270967 0.82807183 -0.36273608
0001e0 5d c4 af 3d 9f d9 8c bb 23 95 e2 bc 03 9c f1 3e
       0.08582375 -0.0042984034 -0.027659005 0.4718934
0001f0 55 ff 25 bf e5 2f 07 bf ce cc 87 be e7 68 94 3e
       -0.6484273 -0.52807456 -0.2652344 0.28986284

bn1.weight f4 [256]
000000 a2 de 0d 3e 52 c4 3e 3f 7e eb ac 3e e9 fc 4c 3f
       0.13854459 0.7451831 0.33773416 0.8007341
000010 ed 9a f1 3e 9f f0 64 3e 6e 35 29 3f f8 da c5 3e
       0.47188511 0.22357415 0.6609715 0.38643622
000020 9e 2d ce 3e 4f ed 29 3f 74 ed 34 3e 6b dd 11 3f
       0.40269178 0.6637773 0.17668706 0.5697848
000030 10 35 bf 3e f3 55 a2 3e ac 40 09 3f 5d 90 15 3e
       0.3734517 0.317062 0.53614306 0.14605851
000040 8c c8 41 3f 65 8d e5 3e 59 17 c4 3e b2 24 bf 3e
       0.75696635 0.44834438 0.38299063 0.37332684
000050 36 fc 4d 3f b1 40 de 3e cf 73 b1 3e cd 14 cd 3e
       0.8046297 0.4340873 0.34658667 0.40054932
000060 5d af d4 3e a3 f6 c1 3e 94 6a 9d 3e b6 42 e8 3e
       0.41540042 0.3788348 0.30745375 0.45363396
000070 ed ef 0e 3f 70 be 09 3e d3 82 0b 3f 61 ac 9c 3e
       0.5583485 0.13451552 0.54496497 0.30600265
000080 7a 0d 94 3f 07 7d ba 3e 29 be 01 3f c9 5e d0 3e
       1.1566613 0.36423513 0.50680786 0.40697315
000090 a2 dc 16 3f 21 43 f5 3e 57 e9 f2 3e 96 a4 53 3e
       0.5893041 0.47902778 0.4744365 0.20668253
0000a0 89 e6 94 3e 2b 3a 21 3e 0f 00 09 3f 80 cd 8f 3e
       0.29082134 0.15744846 0.53515714 0.28086472
0000b0 15 dc f0 3e 5a b5 6d be d5 56 25 3f d8 93 2a 3e
       0.4704291 -0.23213711 0.6458562 0.1665796
0000c0 54 3e f6 3e d2 85 90 3e 60 c4 16 3f 34 5c c8 3e
       0.48094428 0.28227097 0.58893394 0.39132845
0000d0 b2 e7 d3 3e 88 5d bd 3e 29 d8 2c 3e 8e ba b7 3e
       0.41387707 0.3698542 0.16879334 0.35884517
0000e0 17 87 8b 3e 81 4b 0c 3f 4c a4 2c 3f f5 fa 04 3f
       0.27251503 0.5480271 0.674382 0.5194543
0000f0 05 e0 25 3f b4 8a 5c 3e 8c ba 51 3f dc c9 e3 3e
       0.6479495 0.21537286 0.8192527 0.44489944
000100 91 13 76 3e 16 43 b7 bd 22 36 8c 3e ff 8a 09 be
       0.24030901 -0.089483425 0.2738505 -0.13431929
000110 d2 d2 5b 3e 16 ac 00 3f b6 2c 0e 3f 01 58 a4 3e
       0.2146714 0.5026258 0.55536973 0.32098392
000120 1e 19 fe 3e 38 78 e2 3e 39 36 bf 3e 24 b5 7e 3e
       0.49628538 0.44232345 0.37346056 0.24873787
000130 d2 bd 62 3e eb 59 3c 3f a7 84 90 3d a4 fe 89 3e
       0.22142723 0.73574704 0.070565514 0.26952088
000140 3b 1d b2 3e 87 4f a3 3e 9a 1a 86 3e 49 e2 c2 3e
       0.34787926 0.31896612 0.2619217 0.38063267
000150 75 72 39 3f 93 35 1a 3f e9 15 45 3f 45 53 9c 3e
       0.7244027 0.60238 0.7698656 0.3053228
000160 0a d0 7f 3e 43 8a b9 3e b4 72 22 3f 8d 5e 0f 3f
       0.24981704 0.36238298 0.63456273 0.5600365
000170 a7 b6 e9 3e 5b 6d 46 3e 82 8b 80 3e 73 7e df 3e
       0.45647165 0.19377653 0.25106436 0.4365116
000180 48 51 8b 3e 78 99 59 3e 63 68 7f 3e aa aa c0 3e
       0.2721045 0.2124995 0.24942164 0.37630206
000190 07 57 f2 3e 9e 6f 0e 3f eb 70 13 3f a5 d3 14 3f
       0.47332022 0.55639064 0.57594174 0.58135444
0001a0 b7 9c b9 3e 0e 37 08 3f 20 64 57 3e b3 6b ec 3e
       0.36252376 0.53209007 0.21034288 0.46175918
0001b0 05 c6 68 3f a3 8b f8 3e 59 06 a8 3e 7f 33 1a 3f
       0.90927154 0.48544034 0.32817343 0.60234827
0001c0 7d b3 49 3e 93 4c 93 3f 5b 05 54 3e 4f 8f 15 3f
       0.19697376 1.1507744 0.20705168 0.58421797
0001d0 6a fe 46 3e 22 9e 18 3f 83 cf e8 3e 6b 2a d8 3e
       0.19432989 0.5961629 0.4547082 0.42219862
0001e0 3b c0 90 3e 45 a4 f2 bd 10 95 5e 3e 9e 49 ad 3e
       0.2827166 -0.11847738 0.2173655 0.33845228
0001f0 b3 62 e3 3e 20 07 d1 3e df 94 f5 3e 90 63 4b 3e
       0.4441124 0.40825748 0.47965142 0.19862199
000200 14 ed 66 3e 0a e0 a8 3e 38 32 3b 3f db 26 2b 3f
       0.22551376 0.32983428 0.731235 0.66856164
000210 25 19 c3 3e 32 01 7c 3f fc 67 21 3e 90 a9 18 3e
       0.3810512 0.98439324 0.15762323 0.14908433
000220 03 46 50 3f 53 88 6c 3e 4a cd 04 3f 10 cb 3a 3f
       0.8135683 0.23098879 0.51875746 0.729661
000230 01 09 0d 3f 18 e6 0f 3f 7d 92 d5 3e c8 ba 91 3e
       0.55091864 0.5621047 0.41713324 0.28462815
000240 7a 9b 29 3f 78 82 39 3e ef 84 16 3f cb 25 ca 3e
       0.66252863 0.18116176 0.5879659 0.3948196
000250 6f 9e 1b 3f 58 a0 79 be 71 e1 b9 3e cb 3e 88 3e
       0.60788625 -0.24377573 0.3630481 0.26610407
000260 e4 f6 3c 3e ce 79 2a 3e a2 55 45 3e 49 ac 42 3f
       0.18453556 0.16648027 0.19270948 0.76044136
000270 5a 56 15 3f 0e 41 a7 3e 84 91 18 3e 3d f3 da 3e
       0.5833489 0.3266682 0.1489926 0.427637
000280 a6 2f 4b 3e 7b 31 b5 3e a8 f1 00 3f 60 c2 14 3f
       0.19842395 0.35389313 0.5036874 0.5810909
000290 4c 84 43 3f 80 c6 e8 3e 8c fe c8 3e e7 a2 2a 3f
       0.76373744 0.45463943 0.39256704 0.6665482
0002a0 fb 43 2a 3f 6b a0 d0 3e c5 79 9b 3e 2f a4 8c 3e
       0.6650998 0.4074739 0.3036634 0.27469012
0002b0 d4 7b d2 3e a4 72 87 3e af 30 9b 3e 9f a5 05 3f
       0.41110098 0.2645465 0.3031058 0.5220584
0002c0 f9 f1 21 be da 92 9d 3e e0 24 2b 3e 7b ac 9e be
       -0.15814961 0.307761 0.16713285 -0.30990967
0002d0 36 44 e3 3e 65 82 1d 3f 83 5d 9e 3e 52 1c e0 3e
       0.44387978 0.6152709 0.3093072 0.43771607
0002e0 98 ef d4 3e 63 87 a1 3e ca c8 15 3f 36 f0 d2 3e
       0.41589046 0.31548604 0.58509505 0.4119889
0002f0 f8 5a 94 3e 1d ba a9 3d 70 eb 0d 3f 5f f5 15 3f
       0.28975654 0.082874514 0.55437374 0.5857753
000300 f7 e2 f7 3e 5f bd 24 3f a6 45 97 3e 95 42 ef 3e
       0.48415348 0.6435146 0.29545325 0.46730486
000310 db d7 b7 3e a1 18 c1 3e fb c0 93 3e 21 a0 f0 3e
       0.35906872 0.37714103 0.2885817 0.4699717
000320 ff c9 e0 3e b4 8c 23 3f 36 74 12 3f 19 22 6e 3e
       0.4390411 0.6388657 0.57208574 0.23255195
000330 5d e8 e0 3e 51 61 35 3f 3e 38 9b 3e 4e 58 76 3f
       0.4392728 0.7085162 0.30316347 0.9622849
000340 05 90 ab 3e 35 32 eb 3e dc 36 0d 3f 8e 4b 3c be
       0.33508316 0.45936742 0.55161834 -0.18388197
000350 60 a7 8a 3f 18 73 ce 3e 27 4b a3 3e ed 1d a0 3e
       1.0832329 0.40322185 0.31893274 0.31272832
000360 4e 08 de 3e 4d 6f cf 3e 88 6d 01 3d a1 c2 ad 3e
       0.4336571 0.40514603 0.031598598 0.33937553
000370 63 6c 24 3e bb c7 d4 3e 89 96 b9 3e 24 15 1a 3f
       0.16056971 0.41558632 0.36247662 0.6018851
000380 29 e9 31 3f ac 09 4d 3e 11 4c ca 3e cd 72 1a 3f
       0.694964 0.20023221 0.3951116 0.6033142
000390 3f b1 3d 3e d2 26 4f 3f b3 0b 92 3e e4 43 11 3f
       0.18524645 0.8091861 0.2852455 0.5674422
0003a0 94 09 83 3e 40 da 88 3e c2 f7 83 3e 34 60 3b 3e
       0.25593245 0.26729012 0.25774962 0.18298417
0003b0 54 15 ec 3e b7 94 fe 3e e3 22 8e 3e d2 66 13 3f
       0.46110022 0.49722835 0.2776099 0.57578766
0003c0 d7 fb 1e 3f 58 37 ea 3e 9b 9a b8 3e c2 4f 85 3e
       0.6210303 0.4574535 0.36055455 0.26037413
0003d0 06 2b b8 3e 98 23 bf 3e 28 f9 4b 3e 34 70 2a 3f
       0.35970324 0.37331843 0.19919264 0.6657746
0003e0 5d ee b2 3e b6 ae 21 3f 28 15 a1 3e 46 bd 89 3e
       0.34947482 0.6315721 0.31461453 0.26902217
0003f0 52 34 36 3e 61 d2 a4 3e 27 5a c2 3e 9a 0a 02 3f
       0.17793396 0.32191756 0.37959406 0.50797427

bn1.bias f4 [256]
000000 6e 97 0e ba cc 43 b7 3e ee 6f 03 3e 47 f2 39 3e
       -0.0005439435 0.35793912 0.12835667 0.18158828
000010 c0 24 cc 3e 29 4d 12 3e ca a5 50 3e 48 25 a4 bc
       0.39871788 0.14287247 0.20375744 -0.020037308
000020 69 f0 39 3e 34 d1 8c 3e db 84 36 bc c8 86 e7 3e
       0.18158115 0.2750336 -0.011140074 0.45220017
000030 2a 15 34 3e 45 67 70 3e 8d 72 58 3e b7 4f b9 3d
       0.17586198 0.23476894 0.21137448 0.090484075
000040 7f c8 ef 3e 39 61 bd 3d 5c ae 31 3e cb 36 0c 3e
       0.46832654 0.092470594 0.17351669 0.13692777
000050 08 f8 15 3e 8f 95 89 3e 3a ea c0 3d 21 53 35 3e
       0.14645398 0.26871917 0.09419675 0.17707492
000060 a6 db 80 3e a9 17 cb 3e 21 23 9c 3e 99 02 cd 3e
       0.25167578 0.3966649 0.3049555 0.40041044
000070 6f 9d 83 3e 64 a9 30 bd 8b 60 6c 3e c2 89 86 3d
       0.2570605 -0.043130293 0.23083703 0.06569244
000080 4e 31 8f 3e af f5 8a 3d 29 0a 05 3e dc f7 37 3e
       0.27967304 0.06785142 0.12992157 0.17965645
000090 77 3e ac 3e e2 01 a6 3e 46 df 62 3e 78 30 95 be
       0.33641407 0.3242331 0.22155485 -0.2913854
0000a0 15 64 23 3e 6f fe 05 bd 25 93 2d 3e 22 dd db 3d
       0.15956147 -0.03271335 0.16950662 0.10735537
0000b0 36 fa 3c 3e 80 31 8f bd 84 51 cd 3e 58 7f 7f 3c
       0.18454823 -0.06991863 0.40101254 0.015594326
0000c0 4d e5 0f 3e 21 b6 59 3e 9c 15 4e 3d a7 dd 19 3e
       0.14052315 0.21260883 0.050313577 0.1502596
0000d0 0e 1a 24 3e 84 bc 0c 3e 66 15 ad bd 54 7a 23 3e
       0.16025564 0.13743788 -0.08451347 0.15964633
0000e0 00 19 d6 3d f0 cc 9e 3e f6 f4 af 3d 5c db 15 be
       0.10453987 0.3101573 0.085916445 -0.1463446
0000f0 13 2c 67 3e d7 a6 0f 3e 73 46 70 3e ad 4e b4 3e
       0.22575407 0.14028488 0.23464374 0.35216275
000100 a2 13 13 3e 12 f8 5a bc d4 38 f7 3d e6 1e 0e 39
       0.14362958 -0.013364809 0.12071386 0.00013553686
000110 00 86 cf 3d 61 bb 34 3e 9e d5 59 3e 9d 0f 05 3e
       0.1013298 0.17649604 0.21272895 0.12994237
000120 86 aa 66 3e 71 1e 52 3e d2 e5 03 3e 1e 78 02 3e
       0.22525987 0.20519425 0.12880638 0.12741134
000130 dd de 17 3e 35 9a 91 3e da 81 f5 3c 63 4b 86 3e
       0.1483111 0.28437963 0.029969145 0.2622939
000140 11 6e 8d 3e a8 6d 87 3e 2a f9 73 3e df 91 6a 3e
       0.27623037 0.2645085 0.23825517 0.22907208
000150 90 b6 03 3e da 8e b2 3e 65 a4 13 3e 5e 49 e5 3d
       0.12862611 0.34874612 0.1441818 0.11195634
000160 28 94 90 bd c7 8d c1 3e ad c4 4f 3e c6 d8 88 3e
       -0.070595086 0.3780348 0.2028987 0.26727885
000170 f2 2e 60 3e 56 1e 86 3d c0 a8 a7 3e 80 27 28 3e
       0.21892908 0.06548755 0.32745934 0.16421318
000180 e3 94 78 3e 80 a9 ff 3d a0 87 aa be 84 71 49 3e
       0.24275546 0.124835014 -0.333066 0.19672209
000190 4f 29 74 3e 13 97 41 3e 98 b4 a0 3e fa 63 a0 3e
       0.23843883 0.18905286 0.31387782 0.31326276
0001a0 96 54 a2 3e 99 d1 a5 3e 26 93 62 3d 2a 64 23 3e
       0.3170516 0.32386473 0.055316113 0.15956178
0001b0 f8 ee 77 3e ce f9 84 3e 80 75 4e 3e a0 4b 94 3e
       0.24212253 0.25971836 0.2016201 0.28963947
0001c0 b4 58 e9 ba b1 3d a5 3e aa 77 e0 3d fd c1 96 3e
       -0.0017802925 0.3227363 0.10960324 0.29444876
0001d0 c2 82 48 be 27 dd 70 3e 5f 30 98 3e 40 54 47 3e
       -0.1958113 0.23521863 0.29724404 0.19465733
0001e0 dc b0 80 3e 26 bd 4f bc b4 68 88 3d 02 47 4b 3e
       0.25134933 -0.012679374 0.066605955 0.19851306
0001f0 59 0f 6d 3e 68 b5 88 3e 99 23 98 3e 41 4f c0 3b
       0.23150386 0.26700902 0.2971466 0.005868823
000200 62 9c 5c 3e 4d 2e 00 3e 9c 7d 50 3e 42 82 b8 3e
       0.2154403 0.12517662 0.20360416 0.3603688
000210 68 b2 1c 3e b4 c6 ed 3e 3e 9b 5e 3e 42 71 22 3d
       0.15302432 0.4644066 0.21738908 0.039658792
000220 eb 17 95 3e 0c 81 42 3e 5c 92 a5 3e 70 c5 7d 3e
       0.2911981 0.1899454 0.32338226 0.24782348
000230 43 b7 8a 3e 27 bc 70 3e ab 4d 77 3e 2a 7c 81 bd
       0.27092943 0.23509274 0.24150722 -0.063225105
000240 9c 18 ab 3e d7 49 9f 3d e5 49 b4 3e 22 9e 16 3e
       0.33417213 0.07777756 0.35212627 0.1470876
000250 7c 9b 4c 3e 8e 4d 03 bd dc d7 df 3d 9c f9 ce bc
       0.19981188 -0.032056384 0.10929844 -0.025265507
000260 00 ac 20 3e eb ba 01 be a4 d1 81 3d 1b f4 90 3e
       0.15690613 -0.1266896 0.06338814 0.28311238
000270 70 c8 6a 3e 91 48 e6 3d a8 bb fc 3d 35 a2 f7 3d
       0.22928023 0.1124431 0.1234048 0.120914854
000280 38 52 6b be dd 6c 99 3e 08 03 1c 3e bd b6 6a 3e
       -0.22980583 0.2996587 0.15235531 0.22921272
000290 f2 25 b1 3e f5 7a e8 3d 2e 05 f0 3d 74 e6 9e 3e
       0.34599262 0.11351577 0.11719738 0.31035197
0002a0 d3 80 b8 3e 5e 56 06 3e 51 66 5f 3e 10 ae ee 3c
       0.36035785 0.13118884 0.21816374 0.029135734
0002b0 89 6c 60 3e df 42 15 3e 8c d4 24 3e 1d bb d3 3e
       0.21916403 0.1457629 0.16096705 0.41353694
0002c0 e0 cc 1a bd fb 42 c4 3d 0c 11 bc 3d a3 4b fe bd
       -0.03779304 0.09583088 0.09182939 -0.1241677
0002d0 4e 2d af 3d 50 c3 b5 3e 4a bf 9c 3e b1 a2 73 3e
       0.08553563 0.35500574 0.30614692 0.2379253
0002e0 ac 21 47 3e 71 09 84 3e c3 8f 92 3e e3 1c 0e 3e
       0.19446439 0.25788453 0.28625306 0.13878207
0002f0 84 c3 f9 3d 9b 22 69 3b 3a 0a 51 3e 19 a1 bd 3e
       0.12195495 0.0035573605 0.20414057 0.3703697
000300 a6 a1 b6 3e 06 5c 1f 3e 58 93 95 3d fc c6 81 3e
       0.35670203 0.15562448 0.07303494 0.25347126
000310 0f a5 0d 3e 0d cb 9f 3e 79 7c 1e 3e a4 53 15 3e
       0.13832496 0.31209603 0.1547717 0.14582688
000320 d4 0c 19 3e 3e 02 80 3e 0c 52 be 3e aa 0b e2 3d
       0.149463 0.2500171 0.37171972 0.11037381
000330 b0 a0 31 3e 0e c4 59 3e 22 67 a3 3e aa 97 ba 3e
       0.17346454 0.21266195 0.31914622 0.36443835
000340 f8 0b c1 3e b9 0a 5e 3e 66 f5 10 3e 22 03 c6 bd
       0.37704444 0.21683778 0.14156112 -0.09668566
000350 a2 98 7a 3e f8 70 84 3e de 29 94 be ab a8 b0 3d
       0.24472287 0.25867438 -0.28938192 0.08625921
000360 1c ff 29 3e 98 93 94 3e 23 49 98 38 91 24 6e be
       0.16601223 0.29018855 7.2615476e-05 -0.23256136
000370 b9 ee 28 3e c1 9b 9b 3e 40 cf 3b 3e 27 17 9c 3e
       0.16497315 0.30392268 0.18340778 0.30486414
000380 ea dd 17 3e c0 2d 84 3d a5 b7 0a 3e 92 3f 34 3e
       0.14830747 0.064540386 0.13546617 0.17602375
000390 46 cc 10 bd e8 64 d0 3e 44 29 ff 3d 6d 49 d6 3e
       -0.03535106 0.40701985 0.12459043 0.41852894
0003a0 f4 4a 9b 3d c0 59 58 3e 61 94 ca 3d 6c 6b 47 3d
       0.075826555 0.21127987 0.09891582 0.04868643
0003b0 23 08 4e 3e 4c 9f 7c 3e 3a a1 0c 3e b3 a6 92 3e
       0.20120291 0.24670142 0.13733378 0.28642806
0003c0 c5 9b b6 3e 46 63 28 3e 39 88 46 3e b5 e8 d8 bd
       0.35665718 0.1644412 0.19387902 -0.1059126
0003d0 46 60 b8 3e 36 41 6a 3e 3f b9 d6 3d bf 6c af 3e
       0.3601095 0.22876438 0.10484552 0.34262654
0003e0 c5 50 0e 3e aa 62 93 3e cf 41 92 3e 56 67 7c 3e
       0.13897999 0.28786212 0.28565833 0.24648795
0003f0 13 2f 99 bc 36 1a 64 3e d5 0c 34 3e 96 4e 1d 3e
       -0.018699205 0.22275624 0.1758302 0.1536201

bn1.running_mean f4 [256]
000000 d0 b3 bc 40 d6 3c 93 40 11 7c 01 40 79 e2 0f 3f
       5.89695 4.6011763 2.0231974 0.56204945
000010 28 6c 1c 41 6e 36 ba 3f 37 54 42 3f 2e 5c 45 40
       9.776405 1.4547861 0.7590975 3.0837512
000020 bc 9a ce 40 bc 90 cb 3f c0 14 9a 40 6f a6 29 41
       6.4563885 1.5903544 4.815033 10.603133
000030 7b b7 02 40 0c 6e 24 41 a3 3a 88 3f 37 70 c1 40
       2.0424488 10.276867 1.0642895 6.044948
000040 61 2e 6b 41 0c da 21 3f 74 c9 3b 40 80 3c a7 3f
       14.698823 0.6322334 2.9341707 1.3065338
000050 31 96 5d 3e 93 c6 99 40 35 55 c9 41 2b 4a c6 40
       0.21639325 4.80549 25.166605 6.1965537
000060 26 7a 04 41 89 51 1d 41 c2 9b 0d 41 8e 5d 16 41
       8.279821 9.832406 8.850527 9.3978405
000070 f1 6a 55 40 d2 07 da 40 29 f5 8b 40 ed 5b 32 3e
       3.3346522 6.8134546 4.373677 0.1741788
000080 b2 3e 8e 40 14 a4 f9 3e d2 45 08 40 2d 85 c5 3f
       4.445153 0.48757994 2.1292615 1.5431267
000090 2e ec 16 41 30 fb ac 40 a2 33 91 40 9a 84 07 41
       9.432661 5.4056625 4.537553 8.469873
0000a0 21 4d f3 3f c1 58 94 40 20 f6 30 3f a3 c9 29 40
       1.9007913 4.635834 0.69125557 2.652932
0000b0 d8 0b cc 3f 3c 5e 5c 3f 20 62 a0 40 97 d9 48 40
       1.5941114 0.8608129 5.011978 3.1382806
0000c0 e4 2e 8c 3f 16 8b cd 40 47 22 84 40 be 71 24 40
       1.095181 6.4232283 4.1291842 2.5694423
0000d0 fb 81 b6 3f 1f 75 dc 3f 17 8c 8e 40 69 89 58 40
       1.4258417 1.7223243 4.454601 3.3833869
0000e0 1f 2a f8 40 79 51 a1 40 7b fd a6 3f 6f c0 89 40
       7.7551417 5.0411954 1.3046106 4.3047404
0000f0 ef 2e 6f 40 f8 f6 39 41 fd 49 3a 40 9c cd 16 41
       3.7372396 11.622795 2.910766 9.425198
000100 80 08 60 40 44 16 82 41 bf 91 c4 40 fd 35 89 3b
       3.5005188 16.260872 6.1427913 0.004187344
000110 a5 18 d8 40 e0 62 86 3f 8a 90 ef 3f 45 9c 99 40
       6.7530084 1.0498924 1.8715985 4.800326
000120 d1 b4 bf 40 2c cf 23 40 44 b6 37 40 38 13 0d 41
       5.9908223 2.5595198 2.8704996 8.817192
000130 00 e9 ae 40 00 d3 5e 40 a7 eb 5d 41 af 2b 05 41
       5.4659424 3.4816284 13.870032 8.323165
000140 fa 01 b1 40 1f 75 3e 41 fe 2a 17 41 ee aa 1f 40
       5.5314913 11.903594 9.447996 2.4948077
000150 56 9a c1 41 32 38 8b 40 99 b2 45 3f 6a 55 67 3f
       24.20036 4.35061 0.77225643 0.90364707
000160 66 b7 31 41 65 d6 d3 40 28 59 15 3f b7 ca dc 40
       11.107275 6.619921 0.58339167 6.8997455
000170 2c 94 37 40 a9 c4 a5 41 8b cd 51 41 98 d4 c2 41
       2.8684187 20.721025 13.112681 24.353806
000180 11 ca 1e 41 dc 46 b1 40 91 38 e4 40 98 aa 7f 40
       9.924333 5.5399 7.131905 3.9947872
000190 2b b5 45 40 68 8f 2b 3f 41 a4 f3 40 87 b2 45 40
       3.0891826 0.67015696 7.6138005 3.0890214
0001a0 ea 7f ca 40 ab 7b 2e 41 67 ed 82 3f 8f a7 2e 40
       6.3281145 10.905192 1.02287 2.728977
0001b0 cc 11 af 3f fa 53 15 41 23 27 69 40 1d 7b 72 40
       1.3677306 9.333002 3.6430137 3.7887642
0001c0 d9 35 e1 3e 16 05 74 40 19 99 9a 40 31 c9 82 3f
       0.43986395 3.8128104 4.8311887 1.0217649
0001d0 f6 49 8b 40 5b 53 69 40 42 17 db 40 91 5b f5 3f
       4.3527784 3.6457126 6.846589 1.9168569
0001e0 d8 0b 11 41 c5 46 45 41 f0 96 c1 3f 4a 3f d2 40
       9.065392 12.329778 1.5124187 6.5702257
0001f0 fa 36 eb 40 b6 7e 85 3f 90 31 bd 40 c9 b6 97 40
       7.350461 1.0429294 5.9123 4.7410626
000200 99 6d 16 41 28 9a 1b 40 91 1d 2b 3f 47 a6 5a 40
       9.401757 2.431284 0.6684199 3.4163988
000210 a1 8a 74 40 cf a6 1b 40 e3 a9 bd 40 25 15 7f 40
       3.8209612 2.4320562 5.926988 3.9856656
000220 3e 43 c0 3f d3 3c f5 40 9c d1 3b 40 35 bc fb 3f
       1.5020521 7.663675 2.9346685 1.9666811
000230 0e 69 17 40 22 bf 86 3f ea 4b 2f 40 b3 82 67 40
       2.365787 1.0527079 2.7390084 3.6173522
000240 14 05 ef 40 1b 32 cd 40 c2 7a a0 40 95 4a b5 40
       7.46937 6.4123664 5.014985 5.6653543
000250 50 c2 4f 40 0b 47 00 3f 0e 9d 72 40 e9 36 b3 40
       3.246235 0.501084 3.7908359 5.600453
000260 c1 46 6c 40 01 7d b2 40 21 5f b8 40 71 d8 1b 40
       3.6918185 5.5777593 5.7616124 2.4350855
000270 a8 14 30 40 93 6a f3 3f c6 72 97 40 11 e3 8f 3f
       2.7512608 1.9016899 4.7327604 1.124117
000280 05 bd 02 41 2d 35 32 41 c9 88 0b 41 59 8c 4f 40
       8.171147 11.137982 8.720895 3.2429411
000290 24 02 3a 40 cb 83 9a 3f 22 0c 1c 3f 84 39 44 40
       2.9063807 1.207147 0.60956013 3.0660105
0002a0 87 71 cd 3f 29 12 75 3f b7 13 d3 40 f3 bb 65 40
       1.6050271 0.95730835 6.5961566 3.5895965
0002b0 71 89 69 40 00 a8 a1 40 bf d6 84 40 68 3b b5 40
       3.6490138 5.051758 4.151214 5.6635017
0002c0 41 5e d1 40 11 b8 1d 3f 66 e1 9f 40 34 f2 88 40
       6.5427556 0.6160899 4.9962645 4.279566
0002d0 39 ca c8 3e 1e 31 62 40 3f f8 ad 40 43 ff 9c 3f
       0.39216784 3.5342479 5.4365535 1.22654
0002e0 53 45 11 40 ff bd 20 41 d4 44 14 41 1d 9f 01 40
       2.2698562 10.046386 9.266804 2.0253365
0002f0 18 10 87 40 37 80 94 3d 08 5c e1 3f ab 6f 7c 40
       4.2207146 0.072510175 1.7606211 3.9443157
000300 f5 6e df 40 03 17 3f 40 96 df 61 3f a5 37 fe 40
       6.9822946 2.9857795 0.8823179 7.9442925
000310 d4 e2 aa 3f 19 e8 01 41 14 32 48 40 b0 0e 5a 3f
       1.3350472 8.119164 3.1280565 0.8517866
000320 3b a2 0f 3f 4f f0 e1 40 8b 7f d0 40 59 61 32 40
       0.5610692 7.0605845 6.515569 2.7871916
000330 5e 74 04 41 6c f8 b6 3e 8d e0 20 41 dd 2a 51 40
       8.27841 0.35736406 10.054822 3.2682412
000340 58 80 20 41 0b ff cb 40 a7 be 0a 3f e6 b7 3d 3f
       10.031334 6.374883 0.5419716 0.7410873
000350 6e ac 65 3e 02 86 59 40 5d 6a c8 40 a4 46 bd 3f
       0.22429058 3.3988042 6.262984 1.4787183
000360 13 fc a7 40 83 38 28 41 04 00 00 00 cd b3 d1 3f
       5.249521 10.513797 6e-45 1.6382996
000370 b9 ea b2 41 a2 8a b8 40 99 53 ee 40 9d 01 99 40
       22.36461 5.766923 7.447705 4.781447
000380 49 f7 ab 3e c0 ee 4f 40 9f 6d 26 40 92 1f 08 40
       0.335871 3.2489471 2.6004407 2.126927
000390 29 53 3c 40 a5 96 f7 3f ac 23 4a 40 9f 9a 10 41
       2.9425757 1.9342848 3.1584272 9.037749
0003a0 13 47 36 40 6e 7d 44 41 26 60 1c 40 17 4b 3c 40
       2.848088 12.2806225 2.4433684 2.9420831
0003b0 79 fa 66 40 e0 b0 a5 41 cf 30 b5 40 08 91 36 41
       3.6090376 20.711365 5.662208 11.410408
0003c0 c4 28 a5 40 cc 2b 44 3f 6d 7b 97 40 14 02 13 40
       5.1612263 0.7662933 4.7338166 2.2970018
0003d0 ec e7 f0 40 e9 bc e8 40 83 eb e5 40 15 f4 69 40
       7.528311 7.2730603 7.184999 3.6555226
0003e0 3e 78 23 40 a7 23 92 40 8a 9d 16 41 c8 7c 92 40
       2.554214 4.566852 9.413462 4.577732
0003f0 60 e9 a4 40 25 be e4 40 c6 8b a0 3f f1 3b 8f 3f
       5.153488 7.148211 1.2542655 1.1190168
