checkpoint_actor1.pth (torch_old, 188331 bytes, 10 tensors)

fc1.weight f4 [256, 48]
0.03843444 -0.1094819 0.044159587 0.026510164 0.09593164 -0.46206224 -0.009843036 0.02047841
-0.002030924 -0.084470965 0.06775381 0.072047204 0.062786736 -0.9124449 -0.01883859 0.09722137
-0.016752223 -0.11535809 -0.026275625 -0.04728407 -0.030696668 -1.7380261 -0.03549585 -0.14097589
-0.058310106 1.4978775 0.051053178 0.20724864 -0.04976825 -0.4330253 0.030176722 0.14054656
0.10351778 1.5238231 0.021235267 -0.15183398 -0.007135496 -0.8996524 0.001853078 -0.14234972
0.05127874 1.3849213 -0.051316086 0.29690588 -0.032296076 -1.8004234 -0.017539293 0.25859404
-0.26041958 -0.02198155 -0.014639033 -0.10240011 0.36759463 0.3880786 0.0040028123 -0.043545596
-0.24838461 0.054277737 0.0019170039 -0.16240488 -0.19004336 -0.3470499 0.021023504 -0.11222929
-0.16504121 0.1478798 0.0065310346 0.37872782 -0.5997957 -1.2162001 -0.017565146 0.3794454
-0.15169013 -0.61038846 -0.048283458 0.14947338 -0.29913536 0.35838908 0.013547142 0.09764785
-0.11511197 -0.58212334 0.04101886 0.042068522 0.102702305 -0.42808637 0.039232552 0.13943505
-0.1393932 -0.6304123 0.0521657 -0.013478858 0.6151411 -1.1823572 0.102244645 0.05625933
-0.21336435 -0.42574802 -0.13125433 0.34781453 0.08418574 -0.17544614 -0.1398462 0.31261307
-0.21078128 -0.3591566 -0.2499897 0.15733792 0.17962198 -0.05418277 -0.19363537 0.16463034
-0.105772965 -0.20812789 -0.35673365 -0.15686281 0.039318364 -0.06099271 -0.28266475 -0.12371922
0.0096857585 -0.6261364 -0.39841697 -0.0030576729 -0.04868307 -0.19583277 -0.33633727 0.058767863
0.100972384 -0.57030433 -0.27303305 -0.39180645 -0.10083206 -0.04648838 -0.27307415 -0.30672616
0.23452008 -0.53160846 -0.43571782 -0.60082173 -0.07708011 -0.08968319 -0.48478645 -0.5691065
0.24798822 0.004038297 -0.30805394 0.04398655 -0.16605958 0.21007133 -0.19651449 0.036196835
0.4124755 0.16293801 -0.19886273 -0.72667676 -0.23276404 0.080368735 -0.14247686 -0.7269933
0.8714383 -0.07399076 0.114107355 0.40715396 0.07083368 0.43689358 0.06414211 0.32150394
-0.028860103 0.022683758 -0.08089451 -0.03721667 0.13929044 0.11716372 -0.006793939 0.072913475
0.25502434 0.12732688 0.08993217 -0.03437465 0.15437397 0.03894077 0.03750391 -0.013538226
-0.14368792 -0.19498879 -0.090811394 -0.16037549 -0.16217805 0.34360072 -0.025451295 -0.089826025
0.35252753 0.24548748 -0.1533795 -0.29632944 0.07947978 0.248908 -0.08511637 -0.2961904
0.2192532 0.1784238 0.19151834 -0.76758426 0.10363311 0.18226618 0.144954 -0.76744574
-0.074334495 -0.06324048 -0.36047956 -0.1817841 0.18322647 0.27601516 -0.4416604 -0.13954441
0.08117405 0.24861217 -0.26794076 0.5421634 -0.08639476 0.29270256 -0.1769416 0.555378
0.23226772 0.27911958 -0.12353991 0.12621696 -0.08977109 0.1437164 -0.009440171 0.16359799
0.36782232 0.17469677 -0.16736063 0.018430782 -0.18610968 0.23008804 -0.108582504 -0.012227304
-0.14250337 -0.24455883 0.26342532 0.12233146 -0.008862284 0.48685586 0.15275265 0.115064755
-0.21508156 -0.16524011 0.013636867 0.14620048 -0.029939871 -0.3250375 0.080840096 0.123961166
00000000: 6e6d 1d3d 0c38 e0bd afe0 343d d82b d93c
00000010: cf77 c43d 6c93 ecbe af44 21bc 57c2 a73c
00000020: 4019 05bb 1dff acbd 82c2 8a3d 7c8d 933d
00000030: 5596 803d fd95 69bf 6353 9abc ff1b c73d
00000040: f53b 89bc dd40 ecbd fb3f d7bc f1ac 41bd
00000050: 9477 fbbc a477 debf 1964 11bd fc5b 10be
00000060: 94d6 6ebd 73ba bf3f 231d 513d fd38 543e
00000070: cbd9 4bbd 7eb5 ddbe 2c35 f73c 70eb 0f3e
00000080: 2101 d43d a30c c33f 95f5 ad3c 5e7a 1bbe
00000090: e1d0 e9bb 9f4f 66bf fbe2 f23a 20c4 11be
000000a0: a809 523d 1a45 b13f d130 52bd 0c04 983e
000000b0: e448 04bd 4674 e6bf 90ae 8fbc 7066 843e
000000c0: b755 85be a712 b4bc 8ed8 6fbc 26b7 d1bd
000000d0: 5d35 bc3e 3db2 c63e 062a 833b de5c 32bd
000000e0: 8958 7ebe 5552 5e3d fa43 fb3a 774d 26be
000000f0: ba9a 42be 86b0 b1be 7c39 ac3c 78d8 e5bd
00000100: 9000 29be cd6d 173e 4a02 d63b 9de8 c13e
00000110: 368c 19bf 72ac 9bbf c8e4 8fbc ab46 c23e
00000120: a854 1bbe 6b42 1cbf e0c4 45bd 8d0f 193e
00000130: 4528 99be c67e b73e d5f4 5d3c 99fb c73d
00000140: d3bf ebbd 0906 15bf 6403 283d 0b50 2c3d
00000150: 9655 d23d 232e dbbe 50b2 203d 10c8 0e3e
00000160: 17bd 0ebe b362 21bf b3ab 553d 6ed6 5cbc
00000170: e379 1d3f 7b57 97bf a465 d13d 2f70 663d
00000180: 2f7c 5abe a5fb d9be 8967 06be bf14 b23e
00000190: 9369 ac3d 27a8 33be d833 0fbe d20e a03e
000001a0: 0cd7 57be 60e3 b7be 4dfd 7fbe 311d 213e
000001b0: d3ee 373e c1ee 5dbd 5a48 46be db94 283e
000001c0: 7f9f d8bd 7a1f 55be cba5 b6be a5a0 20be
000001d0: 4b0c 213d 7ed3 79bd 6fb9 90be 8160 fdbd
000001e0: 04b1 1e3c 7a4a 20bf 4ffd cbbe 3d63 48bb
000001f0: e667 47bd 6388 48be 6634 acbe 92b6 703d
00000200: 9cca ce3d 77ff 11bf fdca 8bbe db9a c8be
00000210: 0a81 cebd 996a 3ebd 60d0 8bbe 360b 9dbe
00000220: 0826 703e 7e17 08bf 6816 dfbe 74cf 19bf
00000230: 2ddc 9dbd d2ab b7bd ee35 f8be f7b0 11bf
00000240: a0f0 7d3e b153 843b 3fb9 9dbe 3e2b 343d
00000250: 860b 2abe f01c 573e 183b 49be 2243 143d
00000260: fd2f d33e 39d9 263e aca2 4bbe 7d07 3abf
00000270: b259 6ebe 5d98 a43d 74e5 11be 3c1c 3abf
00000280: 9516 5f3f 7888 97bd 1eb1 e93d 7c76 d03e
00000290: 4011 913d 84b0 df3e f05c 833d 2a9c a43e
000002a0: 066c ecbc 4ad3 b93c 05ac a5bd 8270 18bd
000002b0: 27a2 0e3e 88f3 ef3d b19f debb a953 953d
000002c0: 8d92 823e fa61 023e 5c2e b83d 6fcc 0cbd
000002d0: 3614 1e3e 5b80 1f3d b39d 193d 6fcf 5dbc
000002e0: ed22 13be 24ab 47be 53fb b9bd 7939 24be
000002f0: 0112 26be 6fec af3e 3c7f d0bc b5f6 b7bd
00000300: 7d7e b43e 1261 7b3e 840f 1dbe 7eb8 97be
00000310: 4bc6 a23d bde1 7e3e 7e51 aebd 45a6 97be
00000320: e983 603e bbb4 363e 621d 443e 6780 44bf
00000330: 993d d43d fca3 3a3e d26e 143e 5377 44bf
00000340: af3c 98bd 3a84 81bd c790 b8be 9c25 3abe
00000350: b89f 3b3e dc51 8d3e 5021 e2be bbe4 0ebe
00000360: 953e a63d 3094 7e3e 882f 89be 38cb 0a3f
00000370: bcef b0bd 1cdd 953e 2e30 35be 412d 0e3f
00000380: 97d7 6d3e c3e8 8e3e 7e02 fdbd 053f 013e
00000390: e8d9 b7bd 642a 133e f2aa 1abc 3b86 273e
000003a0: 3553 bc3e b6e3 323e 9660 2bbe 27fc 963c
000003b0: 8993 3ebe 339c 6b3e 8160 debd 0855 48bc
000003c0: 67ec 11be a16d 7abe afdf 863e eb88 fa3d
000003d0: 1d33 11bc 2c45 f93e 316b 1c3e 12a7 eb3d
000003e0: 573e 5cbe b434 29be 2a6d 5f3c 94b5 153e
000003f0: 7644 f5bc 516b a6be 7e8f a53d 5adf fd3d

fc1.bias f4 [256]
-0.17382148 -0.3144671 -0.17138869 0.02352745 -0.20397867 -0.5338798 -0.024199134 -0.2728238
-0.42042953 -0.371072 0.26259142 -0.2967387 -0.06759462 -0.12966184 -0.23854539 -0.21393202
-0.6813524 -0.0448122 -0.46985477 -0.02161843 -0.055868894 0.022893196 -0.30929628 -0.47455058
-0.22695296 -0.3554834 -0.52778333 -0.09673984 -0.3029689 -0.3567789 -0.25439543 -0.17833197
0.13686709 -0.3129003 -0.20921434 -0.37827203 0.11905423 -0.36348864 -0.1936793 -0.12820311
-0.59065473 -0.20245084 0.07133318 -0.15181018 -0.33588666 -1.198841 -0.59690654 -0.51290387
-0.11161668 -0.15043059 0.33863884 -0.41444066 -0.5199354 0.38536775 0.07919662 -0.49730814
0.02632424 -0.2963353 -0.28816232 0.09169248 -0.3152254 -0.30910707 -0.30260107 -0.36368313
-0.09353353 -0.33509594 -0.8548781 -0.34313077 -0.1561535 -0.066275574 -0.44951606 -0.26498747
-0.539634 -0.8100656 -0.14499044 -0.018632082 -0.4346809 -0.38692808 -0.119150646 -0.17336032
-0.023956653 -0.0048220735 0.14213328 -0.4833288 -0.2673629 -0.44645604 -0.0694653 -0.42141744
-0.08295445 -0.090684704 -0.4928945 -0.5721911 -0.43656808 -0.3013138 -0.042318717 -0.3507461
-0.51064634 -0.10504466 -0.3902012 -0.087126255 -0.34963804 -0.24620514 -0.37799475 -0.43029416
-0.5165185 -0.71877193 -0.45022154 -0.4675321 -0.3602506 -0.22447905 -0.2829122 -0.2495691
-0.6000765 -0.12872621 -0.57337517 -0.33601376 -0.06684772 -0.04383246 -0.21169649 -0.45185375
-0.17082372 -0.046050806 -0.34969512 0.38125366 -0.35211372 0.094835155 -0.33289787 -0.26065776
-0.3761436 -0.52676636 -0.5847844 0.11969418 -0.44786224 -0.52445495 -0.52320236 -0.05485165
-0.27106914 -0.39235073 -0.38128722 -0.64392745 -0.052581124 -0.24589118 -0.4035551 -0.1269031
-0.2924356 -0.50261825 -0.40289515 -0.18875991 -0.5824457 -0.42687207 -0.50945646 -0.3830172
-0.14415838 0.0872581 -0.38672504 -0.63805676 -0.29040036 -0.35124934 -0.5878953 -0.15478952
-0.0530821 -0.3509376 -0.3588858 -0.4243999 -0.3165744 -0.012108387 0.12483046 0.021197535
-0.1857225 -0.36991674 -0.09817724 -0.2151329 -0.17049713 0.045529455 -0.21733196 -0.45708662
-0.2902605 -0.08597437 -0.58907115 -0.10597492 -0.22885041 -0.6800306 -0.34202087 -0.3030514
-0.6225374 -0.29977238 -0.24452427 0.027615147 -0.5084828 0.06659193 0.1333547 -0.6488575
-0.78146493 -0.16836584 -0.26682967 -0.13987605 0.12433294 -0.17408524 -0.046696763 -0.46214178
-0.62258065 -0.07345145 -0.26788706 0.021094054 -0.37420598 -0.11114897 -0.33420935 -0.3151838
-0.3674875 -0.25448397 -0.642846 -0.32400557 -0.1697558 -0.33650044 -0.32819292 -0.15553436
-0.6530831 -0.14270605 0.06437308 -0.7060766 -0.1388525 -0.016117277 0.062415347 0.073527925
0.008412641 -0.38820735 -0.378643 -0.8136545 -0.3926245 -0.034392823 -0.46076065 -0.063202254
-0.28904527 -0.351301 0.042926606 -0.03416237 -0.38276428 -0.019282922 -0.3379785 -0.15180446
0.037719727 -0.16125675 -0.16996937 -0.35173315 -0.29999655 -0.08020242 -0.22305106 -0.44074976
-0.095761605 -0.054149248 -0.1571198 -0.12513337 -0.16677251 -0.12570824 -0.5773046 -0.4447482
00000000: 42fe 31be d501 a1be 8480 2fbe a4bc c03c
00000010: c9df 50be 59ac 08bf 433d c6bc 90af 8bbe
00000020: 8a42 d7be 26fd bdbe 6272 863e 23ee 97be
00000030: 0c6f 8abd 13c6 04be 3e45 74be ff10 5bbe
00000040: 1c6d 2ebf ff8c 37bd ce90 f0be 2219 b1bc
00000050: c8d6 64bd 838a bb3c 155c 9ebe 4bf8 f2be
00000060: 5b66 68be ec01 b6be cf1c 07bf 8a1f c6bd
00000070: bd1e 9bbe b9ab b6be 1e40 82be a89c 36be
00000080: e326 0c3e 7834 a0be 493c 56be dfac c1be
00000090: b4d2 f33d 2f1b babe de53 46be ad47 03be
000000a0: 2635 17bf 464f 4fbe 2117 923d 2174 1bbe
000000b0: 56f9 abbe 9f73 99bf dece 18bf ab4d 03bf
000000c0: 4997 e4bd 7a0a 1abe 1262 ad3e 9131 d4be
000000d0: 7d1a 05bf ec4e c53e d631 a23d 2c9f febe
000000e0: efa5 d73c 43b9 97be 038a 93be 44c9 bb3d
000000f0: 3965 a1be 4843 9ebe 87ee 9abe ad34 babe
00000100: 828e bfbd b291 abbe 4bd9 5abf d6ae afbe
00000110: b4e6 1fbe 7dbb 87bd f826 e6be 70ac 87be
00000120: 7425 0abf 7660 4fbf 6078 14be 4fa2 98bc
00000130: 7f8e debe 701b c6be 4105 f4bd 5e85 31be
00000140: be40 c4bc 7c02 9ebb 638b 113e df76 f7be
00000150: cae3 88be e395 e4be d343 8ebd 07c4 d7be
00000160: 06e4 a9bd e7b8 b9bd ab5c fcbe 1e7b 12bf
00000170: da85 dfbe cd45 9abe 6456 2dbd fe94 b3be
00000180: b8b9 02bf a821 d7bd 74c8 c7be 406f b2bd
00000190: c203 b3be 331d 7cbe 8788 c1be 844f dcbe
000001a0: 8e3a 04bf 7001 38bf 7083 e6be 5e60 efbe
000001b0: c472 b8be d6dd 65be ded9 90be 0b8f 7fbe
000001c0: 9d9e 19bf ced0 03be b7c8 12bf ff09 acbe
000001d0: 75e7 88bd aa89 33bd f7c6 58be 6059 e7be
000001e0: 6aec 2ebe c59f 3cbd 3d0b b3be ae33 c33e
000001f0: 4048 b4be ef38 c23d 9771 aabe ef74 85be
00000200: e595 c0be 29da 06bf 6eb4 15bf 3922 f53d
00000210: 334e e5be ae42 06bf 97f0 05bf 20ac 60bd
00000220: 93c9 8abe 32e2 c8be 1438 c3be 6ed8 24bf
00000230: 4e5f 57bd e6ca 7bbe c69e cebe e3f2 01be
00000240: 1eba 95be 97ab 00bf 4648 cebe 474a 41be
00000250: 291b 15bf fa8e dabe bd6b 02bf d51a c4be
00000260: 419e 13be 60b4 b23d d300 c6be b057 23bf
00000270: 5baf 94be f4d6 b3be 4e80 16bf 2581 1ebe
00000280: 9e6c 59bd 18ae b3be e1bf b7be f24a d9be
00000290: 0a16 a2be 4262 46bc 1da7 ff3d 74a6 ad3c
000002a0: 0a2e 3ebe ba65 bdbe 2611 c9bd cd4b 5cbe
000002b0: cd96 2ebe 187d 3a3d 458c 5ebe 4207 eabe
000002c0: 069d 94be 5513 b0bd 5ecd 16bf 6109 d9bd
000002d0: c357 6abe 7c16 2ebf 5c1d afbe 8e29 9bbe
000002e0: 9c5e 1fbf c47b 99be 9264 7abe 2939 e23c
000002f0: ee2b 02bf 5a61 883d 228e 083e 861b 26bf
00000300: 160e 48bf 1868 2cbe e69d 88be ab3b 0fbe
00000310: 45a2 fe3d 6743 32be 1b45 3fbd d99d ecbe
00000320: 7261 1fbf b76d 96bd 7e28 89be 70cd ac3c
00000330: ed97 bfbe 12a2 e3bd 7d1d abbe c55f a1be
00000340: 5227 bcbe b94b 82be 8e91 24bf 0fe4 a5be
00000350: 77d4 2dbe c949 acbe e708 a8be 6644 1fbe
00000360: 7430 27bf 8921 12be 09d6 833d 70c1 34bf
00000370: 5a2f 0ebe 6108 84bc 3ca7 7f3d cf95 963d
00000380: 2cd5 093c 1dc3 c6be 7fdd c1be a94b 50bf
00000390: 1406 c9be 7ddf 0cbd d2e8 ebbe 2f70 81bd
000003a0: befd 93be badd b3be cfd3 2f3d d7ed 0bbd
000003b0: aef9 c3be 38f7 9dbc 850b adbe a172 1bbe
000003c0: 0080 1a3d 7d20 25be 730c 2ebe 5e16 b4be
000003d0: 2699 99be 2b41 a4bd 7f67 64be f4a9 e1be
000003e0: a91e c4bd 9acb 5dbd 03e4 20be f622 00be
000003f0: 6ac6 2abe a9b9 00be 3cca 13bf 09b6 e3be

fc2.weight f4 [128, 256]
0.048726868 0.16866085 -0.057564832 0.039838236 -0.16304354 -0.22267209 -0.27972078 -0.20521235
0.2696936 0.43632692 -0.24939151 -0.11584381 -0.006748096 -0.32590437 0.34177542 0.33796865
0.05338989 0.05655449 0.068722405 0.10197816 -0.3497282 -0.20199528 0.09951823 -0.18206139
-0.46763733 -0.1126357 0.2740986 0.40300918 -0.026798166 -0.16564655 0.008589207 0.16690795
-0.07361769 0.203858 0.031088434 -0.22938451 0.10415097 0.008374772 0.10148107 -0.141662
0.699931 -0.07815494 -0.3355863 0.08283985 -0.009014445 -0.30563673 0.27714887 -0.18142527
-0.54492706 0.27150273 -0.20061922 0.12720843 -0.11444405 0.09761687 -0.349219 0.27413526
-0.12252872 0.023823222 0.39649138 0.306452 -0.121862456 -0.24596538 0.5710846 0.42668325
-0.21189056 -0.27164194 -0.20627156 0.0059949015 -0.13299254 -0.082544304 -0.16562934 -0.19100164
-0.09596004 -0.34866226 -0.5125511 0.37989074 0.15625767 0.16436122 0.058269642 0.042584315
-0.20170882 0.17206392 0.1761994 -0.52812964 0.14479484 0.5452679 -0.18593463 -0.28679493
0.049177397 -0.16588648 -0.6095038 -0.02220231 -0.08662417 -0.15288581 0.33981776 -0.24341242
0.112991184 0.16520888 -0.14994234 0.354459 0.060486294 0.39137477 0.3514457 0.025067227
-0.111477606 -0.27429125 0.5437408 -0.1532709 0.09528529 -0.32397848 -0.010570076 -0.029464945
-0.28848934 -0.7844532 -0.24119928 0.35274425 -0.26635134 0.27932748 0.074508384 -0.08013758
-0.27359605 0.108209655 0.16276184 0.2759674 -0.07238693 -0.016292246 0.3053114 -0.12566958
0.13819247 0.27681792 -0.055068497 0.29765356 0.85962105 -0.13088185 -0.03565393 -0.050020453
-0.12420985 0.35828412 0.18073688 0.16171278 -0.09518843 -0.14778431 0.38326558 -0.071147494
0.1157803 -0.0054356554 0.12333261 -0.38914445 -0.06186379 0.16129251 0.15524338 0.31909734
-0.06256862 -0.34040594 0.14170285 -0.11326421 -0.04322785 -0.24669583 0.0044550444 0.05653768
-0.26754043 0.20118594 0.1349169 -0.15092467 -0.20111796 0.2640635 0.040473722 0.27733895
0.4835639 -0.07265121 -0.041764036 0.11338432 0.063325755 -0.043102372 0.18027852 -0.11705556
-0.56010425 0.32134932 -0.01809282 0.019402277 0.18899958 0.15285382 0.16194782 0.14030819
-0.3023264 0.32474798 -0.14365903 0.24985185 -0.52482504 0.07075324 0.2813933 0.11945169
-0.07334418 0.15855235 0.42884752 -0.3213739 -0.6873218 -0.6059609 -0.10670578 -0.34265566
-0.011607841 0.114302464 0.31721222 0.09582486 0.13197847 -0.03389976 -0.34763858 0.34458387
-0.06757313 0.09764313 0.14689155 0.077049725 -0.2521606 0.6996662 0.44664404 0.33454537
-0.5651105 -0.12342823 0.13955481 -0.13535298 -0.1933737 0.16465075 0.2062421 -0.10881146
0.20611079 -0.18804426 -0.211371 0.087915696 -0.21479267 -0.19259404 -0.34014863 -0.17635153
0.2203568 -0.05154942 0.11166603 -0.011033081 0.40640017 -0.16827397 0.21863528 0.2564966
0.0716883 -0.015938006 -0.14812185 0.11402107 0.49510804 -0.11038277 -0.16368404 0.15686806
0.2966847 -0.056068487 -0.15288286 0.26850906 -0.31510782 0.2520708 -0.12528722 -0.02516043
00000000: d395 473d 6eb5 2c3e 1ac9 6bbd 6b2d 233d
00000010: e3f4 26be 2704 64be 9037 8fbe 3023 52be
00000020: 4815 8a3e 3e66 df3e 7d60 7fbe 853f edbd
00000030: 221f ddbb f0dc a6be 30fd ae3e 3a0a ad3e
00000040: 5baf 5a3d aea5 673d 55be 8c3d edd9 d03d
00000050: 930f b3be dad7 4ebe 37d0 cb3d 4d6e 3abe
00000060: 296e efbe 8cad e6bd a756 8c3e 3857 ce3e
00000070: d487 dbbc 409f 29be bfb9 0c3c ebe9 2a3e
00000080: dfc4 96bd 27c0 503e 2cad fe3c c6e3 6abe
00000090: 1b4d d53d 5736 093c 4fd5 cf3d d80f 11be
000000a0: ae2e 333f b20f a0bd f8d1 abbe f0a7 a93d
000000b0: 53b1 13bc 6b7c 9cbe 75e6 8d3e 8cc7 39be
000000c0: 5780 0bbf 6802 8b3e 206f 4dbe ed42 023e
000000d0: a461 eabd 5beb c73d d5cc b2be 755b 8c3e
000000e0: 56f0 fabd eb28 c33c eb00 cb3e 47e7 9c3e
000000f0: 0693 f9bd 59de 7bbe 9a32 123f 3a76 da3e
00000100: d7f9 58be a714 8bbe da38 53be e170 c43b
00000110: 322f 08be fd0c a9bd bd9a 29be ef95 43be
00000120: b386 c4bd dc83 b2be 8d36 03bf 0a81 c23e
00000130: 0302 203e 4f4e 283e 26ac 6e3d e46c 2e3d
00000140: c28c 4ebe 8631 303e 9e6d 343e 8133 07bf
00000150: 1945 143e ad96 0b3f a665 3ebe c9d6 92be
00000160: 3d6e 493d 25de 29be 7108 1cbf 9ee1 b5bc
00000170: 0368 b1bd 198e 1cbe 98fc ad3e 1b41 79be
00000180: ec67 e73d 842c 293e 7c8a 19be a67b b53e
00000190: 7ac0 773d 4662 c83e b1f0 b33e c959 cd3c
000001a0: 5f4e e4bd e76f 8cbe 9932 0b3f 0cf3 1cbe
000001b0: ef24 c33d 82e0 a5be 1d2e 2dbc 7860 f1bc
000001c0: e0b4 93be edd1 48bf f2fc 76be e59a b43e
000001d0: 345f 88be 0304 8f3e da97 983d 2c1f a4bd
000001e0: c814 8cbe 069d dd3d 0aab 263e 994b 8d3e
000001f0: 993f 94bd 5177 85bc c751 9c3e 87af 00be
00000200: 5482 0d3e 14bb 8d3e 818f 61bd 0c66 983e
00000210: 2010 5c3f e405 06be db09 12bd 3fe2 4cbd
00000220: bc61 febd 0471 b73e 1713 393e 0998 253e
00000230: 27f2 c2bd c554 17be 633b c43e c7b5 91bd
00000240: 391e ed3d 951d b2bb cf95 fc3d f13d c7be
00000250: e364 7dbd dd29 253e 1ff8 1e3e ba60 a33e
00000260: fa23 80bd b049 aebe 8d1a 113e 11f7 e7bd
00000270: b00f 31bd d59d 7cbe 9ffb 913b 0e94 673d
00000280: 0ffb 88be b003 4e3e a827 0a3e ff8b 1abe
00000290: def1 4dbe 5533 873e c6c7 253d 5fff 8d3e
000002a0: b095 f73e 28ca 94bd c410 2bbd 0a36 e83d
000002b0: efb0 813d 1d8c 30bd ef9a 383e d3ba efbd
000002c0: fe62 0fbf e687 a43e 6537 94bc 86f1 9e3c
000002d0: 1b89 413e b685 1c3e a6d5 253e f3ac 0f3e
000002e0: 87ca 9abe 5e45 a63e 5a1b 13be 2ad9 7f3e
000002f0: ef5a 06bf 13e7 903d c812 903e 16a3 f43d
00000300: 7935 96bd 8c5b 223e e791 db3e 1f8b a4be
00000310: 52f4 2fbf 4120 1bbf 8f88 dabd 9070 afbe
00000320: d02e 3ebc 6917 ea3d a469 a23e d33f c43d
00000330: 5d25 073e 7ada 0abd affd b1be 4c6d b03e
00000340: c863 8abd 1ff9 c73d bd6a 163e 3fcc 9d3d
00000350: 321b 81be 531d 333f 87ae e43e 8849 ab3e
00000360: 15ab 10bf f1c7 fcbd 75e7 0e3e f999 0abe
00000370: c103 46be 359a 283e 2131 533e 8bd8 debd
00000380: b50e 533e ad8e 40be a471 58be 250d b43d
00000390: 9cf2 5bbe 5f37 45be f627 aebe 7f95 34be
000003a0: 37a5 613e 7c25 53bd 29b1 e43d 19c4 34bc
000003b0: af13 d03e 0350 2cbe ede1 5f3e 8653 833e
000003c0: 51d1 923d 6c90 82bc 41ad 17be e183 e93d
000003d0: cd7e fd3e 5d10 e2bd ca9c 27be 05a2 203e
000003e0: 0fe7 973e 12a8 65bd 538d 1cbe 057a 893e
000003f0: d055 a1be 6d0f 813e 4b4b 00be 3f1d cebc

fc2.bias f4 [128]
-0.2453924 -0.21509889 -0.46308932 -0.1475444 -0.105256476 -0.049049973 -0.2628145 -0.12916397
-0.29704106 -0.28035203 -0.15997331 -0.3064108 -0.08988501 -0.10422924 -0.5900539 -0.20669875
-0.3321245 -0.018875219 -0.15281153 -0.34775418 -0.11289338 -0.3546457 -0.114902176 -0.13613664
-0.20473583 -0.037633047 -0.18586297 -0.06810613 -0.35231027 -0.26347175 -0.2024681 -0.2055898
0.00065349997 0.08389782 -0.37608695 -0.17756727 -0.31644395 -0.04683702 0.0044078357 -0.179612
-0.15090032 0.04506968 0.07931714 -0.2935781 -0.1391072 -0.222292 -0.11640427 -0.30450723
-0.055862952 -0.2689005 -0.25728396 -0.1585227 -0.4059522 -0.40533766 -0.084842 -0.22412655
-0.40124437 -0.3264589 -0.05909591 -0.02945667 -0.3424256 -0.6052291 -0.52492523 -0.37575766
-0.15122288 -0.41460237 -0.4731354 -0.4291325 -0.35181522 -0.21721095 -0.16966438 -0.196871
-0.04994075 -0.33960155 -0.5295621 -0.42689103 -0.2101876 -0.26658013 -0.49688846 -0.20307624
-0.2389406 -0.28436726 -0.08312484 -0.023395251 -0.26770255 -0.4429469 -0.2295536 -0.412907
-0.34313908 -0.28943592 -0.019982511 -0.06291473 -0.1556955 -0.5343735 -0.278309 -0.032650243
-0.49595648 -0.19067276 -0.36413825 -0.2688536 -0.2841604 -0.18395236 -0.045261867 -0.07468563
-0.24830063 -0.042092785 -0.13890591 -0.03458596 0.006475977 -0.20481196 -0.08229115 -0.2904405
-0.20770836 -0.4435538 0.06872031 0.07768567 -0.23058996 -0.09555904 -0.29232708 -0.27342504
-0.39220372 -0.113443725 0.039902303 -0.16972159 -0.014523496 0.027099822 -0.1144468 -0.5029271
00000000: 2548 7bbe e242 5cbe 0b1a edbe e115 17be
00000010: b590 d7bd a0e8 48bd 9f8f 86be 8f43 04be
00000020: c415 98be 4d8a 8fbe 0bd0 23be e0e1 9cbe
00000030: a215 b8bd 2476 d5bd c60d 17bf d6a8 53be
00000040: 390c aabe 34a0 9abc a07a 1cbe d60c b2be
00000050: a534 e7bd 1f94 b5be d551 ebbd 6767 0bbe
00000060: 45a6 51be 1c25 1abd dd52 3ebe 3a7b 8bbd
00000070: 0362 b4be c5e5 86be cc53 4fbe 2286 52be
00000080: a44f 2b3a 9fd2 ab3d 788e c0be 32d4 35be
00000090: f104 a2be 2dd8 3fbd 9b6f 903b 35ec 37be
000000a0: 9d85 1abe fc9a 383d 0671 a23d de4f 96be
000000b0: 1e72 0ebe 84a0 63be 5d65 eebd 5fe8 9bbe
000000c0: 8dd0 64bd 54ad 89be b9ba 83be c653 22be
000000d0: f7d8 cfbe 6b88 cfbe a4c1 adbd 6e81 65be
000000e0: e76f cdbe 9f25 a7be 8e0e 72bd 1d4f f1bc
000000f0: 6952 afbe 4bf0 1abf 8061 06bf 4f63 c0be
00000100: 2cda 1abe c346 d4be ce3e f2be 41b7 dbbe
00000110: 2021 b4be 8c6c 5ebe 80bc 2dbe 8d98 49be
00000120: ac8e 4cbd 41e0 adbe 6291 07bf 7691 dabe
00000130: 6b3b 57be 317d 88be 2a68 febe 38f3 4fbe
00000140: d8ac 74be 9698 91be 5b3d aabd 66a7 bfbc
00000150: 4f10 89be f0c9 e2be 1910 6bbe 8c68 d3be
00000160: edaf afbe f230 94be 5db2 a3bc 70d9 80bd
00000170: a46e 1fbe b4cc 08bf 847e 8ebe 43bc 05bd
00000180: 02ee fdbe b83f 43be 5470 babe 2ea7 89be
00000190: 797d 91be 025e 3cbe 8264 39bd c8f4 98bd
000001a0: 8542 7ebe 7c69 2cbd 5a3d 0ebe 02aa 0dbd
000001b0: 6f34 d43b 3aba 51be 4388 a8bd 9eb4 94be
000001c0: 80b1 54be 7c19 e3be 3cbd 8c3d aa19 9f3d
000001d0: c61f 6cbe 75b4 c3bd e5ab 95be 5efe 8bbe
000001e0: edce c8be 2f55 e8bd 9970 233d 7fcb 2dbe
000001f0: f5f3 6dbc 7200 de3c 1563 eabd d5bf 00bf

fc3.weight f4 [2, 128]
0.03922412 0.31312454 0.55027425 0.04441929 -0.39809883 0.11113262 -0.6986421 -0.38019276
-0.16596793 0.3637428 0.07686349 0.23902066 -0.05658543 -0.5216848 -0.20556185 -0.9515458
0.04903232 -0.31235155 -0.48294592 -0.029117726 0.31574088 0.033905268 -0.11005637 -0.27186027
-0.02606285 -0.15370636 -0.049969956 -0.23692136 -0.13024674 1.1214827 -0.19296066 0.03952911
0.18299918 -0.08690815 0.56566006 -0.09792482 0.19201353 -0.10409114 0.052642237 -0.355379
-0.025202112 -0.017171614 -0.23757929 1.0721631 -0.11285601 -0.4234111 0.14967887 -0.2368055
0.12808084 0.3178464 -0.48658982 -0.33557776 0.6910332 0.2417639 0.038257908 -0.30974197
0.25120032 0.3680006 0.22207059 0.17384882 0.18390682 0.9208734 0.09477427 0.32089087
-0.0051935203 0.5596533 0.30515093 0.1857576 0.8014417 0.171692 -0.20796321 -0.2928005
-0.21736851 -0.056312602 0.38300687 0.03658146 0.54428303 -0.042748187 0.10647111 0.9877572
0.40816835 0.53032315 0.0013102555 -0.09209753 0.19793163 0.16373315 0.18432164 0.39838207
-0.27958322 0.6881853 -0.17143117 -0.05287324 -0.110912256 0.21318442 -0.32163456 0.12388543
0.6829728 -0.9786681 0.5639626 -1.0854181 -0.12377411 -0.3457094 0.16165495 0.12393103
-0.1420186 0.005598343 0.10814239 -0.24982426 -0.085765 -0.10292424 -0.049070552 0.0094936825
0.4712708 0.21000232 -0.36269474 -0.15600322 -0.43486336 -0.01549697 0.11423462 0.5787759
0.17070243 -0.050203376 -0.07335434 -0.12077202 -0.058503397 -0.5114116 -0.061741184 0.09183722
-0.07840279 -0.03747249 -0.293243 -1.5977106 0.064890556 -0.01697134 0.04066756 -0.45747647
-0.27221608 -0.48124507 0.6947111 0.020631101 -0.6276351 0.13241953 -0.7058942 0.23295586
-0.9759404 -0.052004293 -0.24272278 -1.077674 0.6336334 0.6752125 0.04303325 -0.31294212
-0.8420331 0.3319905 -0.2109303 -0.22086824 -1.649358 -0.1775272 0.84804225 0.9419269
0.04704154 -0.061903052 -0.6474639 -1.1371663 0.7363227 0.06612129 -0.7698697 0.8585251
0.62337804 0.48665717 0.2656437 0.3104038 0.10492159 0.08024265 -0.17934138 0.7020556
-0.5787917 -0.32714373 -0.40925962 -1.9503729 0.1782739 -0.17116274 0.5646933 0.7494286
0.4437229 -0.51985514 0.17093517 0.43821654 0.38228258 0.08144482 -0.90645325 0.16615136
-0.6820839 -0.46271962 -0.84879345 0.5200663 0.026557907 0.2503715 -0.8051618 0.5995682
0.8938739 -0.7793272 0.2051825 -1.1929972 0.19563316 0.6412092 0.3142643 0.22547293
0.67577016 0.4574703 -0.20144421 0.56008667 1.2063421 -0.21212395 -0.4198073 -0.38778234
0.9300992 0.04635412 0.11898066 -0.32247317 -0.1852392 -0.7029668 0.20413357 -0.4598993
0.07883119 1.0692289 -0.008913019 -0.93807566 -0.7467565 -0.54630816 0.11200546 0.06611329
0.26627946 0.29285067 -0.16182035 -0.057888344 0.2481822 -0.14597751 0.6769023 -0.84509003
0.025610749 -0.010652783 -0.10406458 0.2504146 0.3363536 0.29494134 -0.37603775 0.34866956
-0.57209355 0.3339534 0.6239689 -0.3967786 -0.13750786 0.37881824 0.84370476 -0.64373845
00000000: 79a9 203d dc51 a03e c6de 0c3f 00f1 353d
00000010: 9cd3 cbbe 8099 e33d 35da 32bf a0a8 c2be
00000020: 7ff3 29be 7f3c ba3e 9b6a 9d3d d5c1 743e
00000030: 20c6 67bd 238d 05bf ce7e 52be 8198 73bf
00000040: 1dd6 483d 8bec 9fbe b044 f7be 4c88 eebc
00000050: caa8 a13e 40e0 0a3d 3c65 e1bd 4531 8bbe
00000060: c281 d5bc 3365 1dbe 4cad 4cbd 839b 72be
00000070: 675f 05be bf8c 8f3f 7b97 45be 47e9 213d
00000080: 2364 3b3e e6fc b1bd 19cf 103f cf8c c8bd
00000090: 329f 443e bc2d d5bd 639f 573d 3cf4 b5be
000000a0: a974 cebc 7cab 8cbc fc47 73be a43c 893f
000000b0: 0d21 e7bd 57c9 d8be 6b45 193e 247d 72be
000000c0: a027 033e c3bc a23e 4d22 f9be d9d0 abbe
000000d0: 8de7 303f f590 773e 53b4 1c3d 8096 9ebe
000000e0: 549d 803e 936a bc3e 7966 633e 6d05 323e
000000f0: 1252 3c3e 5cbe 6b3f 0319 c23d cf4b a43e
00000100: 682e aabb 7045 0f3f be3c 9c3e 3e37 3e3e
00000110: 492b 4d3f 07d0 2f3e 4ff4 54be f2e9 95be
00000120: da95 5ebe 0ba8 66bd 7a19 c43e 71d6 153d
00000130: 2256 0b3f b918 2fbd 860d da3d a8dd 7c3f
00000140: 71fb d03e 42c3 073f e1bc ab3a a19d bcbd
00000150: 97ae 4a3e aaa9 273e d0be 3c3e bcf8 cb3e
00000160: 8825 8fbe e92c 303f a78b 2fbe 9c91 58bd
00000170: f725 e3bd 044d 5a3e 49ad a4be a5b7 fd3d
00000180: 4ed7 2e3f fe89 7abf da5f 103f fbee 8abf
00000190: 487d fdbd d300 b1be e088 253e 8dcf fd3d
000001a0: 536d 11be 4e72 b73b c279 dd3d eed1 7fbe
000001b0: 8fa5 afbd f2c9 d2bd 34fe 48bd 648b 1b3c
000001c0: 684a f13e d90a 573e 20b3 b9be 4fbf 1fbe
000001d0: 69a6 debe 01e7 7dbc d7f3 e93d a82a 143f
000001e0: 9ecc 2e3e 0ea2 4dbd cd3a 96bd 5257 f7bd
000001f0: 42a1 6fbd dfeb 02bf 53e4 7cbd 2715 bc3d
00000200: a491 a0bd c17c 19bd f223 96be c881 ccbf
00000210: 57e5 843d 7b07 8bbc 0793 263d 5b3a eabe
00000220: e85f 8bbe c165 f6be 96d8 313f 8e02 a93c
00000230: b2ac 20bf fc98 073e 7bb5 34bf fb8b 6e3e
00000240: 3bd7 79bf 7402 55bd 528c 78be 39f1 89bf
00000250: cc35 223f bada 2c3f a243 303d f339 a0be
00000260: 7b8f 57bf a9fa a93e 1dfe 57be 492b 62be
00000270: 2a1e d3bf b1c9 35be 4c19 593f 1f22 713f
00000280: a1ae 403d 0e8e 7dbd 32c0 25bf aa8e 91bf
00000290: a57f 3c3f 996a 873d 2e16 45bf 4dc8 5b3f
000002a0: b495 1f3f 212b f93e 7302 883e 3fed 9e3e
000002b0: 21e1 d63d 4256 a43d 44a5 37be eab9 333f
000002c0: b12b 14bf 627f a7be 7a8a d1be d2a5 f9bf
000002d0: 6f8d 363e 4945 2fbe bd8f 103f 8dda 3f3f
000002e0: a62f e33e 3a15 05bf a109 2f3e eb5d e03e
000002f0: 8bba c33e 8bcc a63d 520d 68bf 9523 2a3e
00000300: 0d9d 2ebf 96e9 ecbe 874a 59bf 1123 053f
00000310: f88f d93c b130 803e 151f 4ebf 4d7d 193f
00000320: ebd4 643f fd81 47bf 5c1b 523e 22b4 98bf
00000330: 0f54 483e 4926 243f 40e7 a03e 60e2 663e
00000340: 46ff 2c3f 8c39 ea3e 6447 4ebe d761 0f3f
00000350: 6b69 9a3f 0537 59be fcf0 d6be 688b c6be
00000360: fb1a 6e3f d1dd 3d3d 22ac f33d 341b a5be
00000370: 58af 3dbe a2f5 33bf 6408 513e ec77 ebbe
00000380: 3f72 a13d 7edc 883f e907 12bc ba25 70bf
00000390: 6f2b 3fbf dada 0bbf 1e63 e53d 6866 873d
000003a0: c855 883e 86f0 953e 3cb4 25be 541c 6dbd
000003b0: 7a23 7e3e 217b 15be 7849 2d3f d257 58bf
000003c0: a2cd d13c 0389 2ebc cf1f d5bd 5836 803e
000003d0: 8a36 ac3e 8d02 973e 0588 c0be d184 b23e
000003e0: b974 12bf f1fb aa3e 6dbc 1f3f 9126 cbbe
000003f0: dcce 0cbe 77f4 c13e 09fd 573f 0bcc 24bf

fc3.bias f4 [2]
0.0030742872 0.08048564
00000000: fb79 493b a8d5 a43d

bn1.weight f4 [256]
1.6637882 0.61340374 0.9478684 0.6524836 0.6004398 0.7206442 0.68246984 0.45057425
0.6564612 0.4657779 1.1319917 0.5365871 0.53367305 0.5568613 0.4926426 0.52946055
0.56334376 0.9948901 0.660611 0.7761825 0.8692653 0.747458 0.5176053 0.7176148
0.68890476 0.82836366 0.43934163 0.6412951 0.8290414 0.8598247 0.91535527 0.7784621
0.6662893 0.64492136 0.6172908 0.60644597 0.705738 0.950439 0.2719311 0.57324135
0.78345454 0.5805996 0.6074935 0.71497 1.1443349 1.5898093 1.0050952 0.62591493
0.9800349 0.67042863 0.7536337 0.6680142 0.5150044 0.75249046 0.34196794 0.68860424
0.72418875 0.8853792 0.7637612 0.08966149 0.69790393 1.2171392 0.31204128 0.6007456
0.79714787 0.86939615 1.0843867 0.8492944 0.9442628 0.6002005 0.30409545 0.57027256
0.97903055 0.8503861 0.40458816 0.6357719 0.29916576 0.48386234 0.7852222 0.68006665
0.83806384 0.6785472 0.6907886 0.8732246 0.32964355 0.6110084 0.8289996 0.67865366
0.7062641 1.0555879 0.61334884 0.43313384 0.73673517 0.40063483 0.8035311 0.5645081
0.7342406 0.69693774 0.73653936 0.5006881 0.42551652 0.618771 0.6287631 0.65632
0.67556506 0.6951682 0.95661885 0.6995352 0.6463598 0.72831964 0.5547701 0.2199274
0.7035465 0.5538756 1.0406994 0.5914062 0.57518417 0.72764766 0.53402674 0.46041948
0.7570418 0.5808828 0.62994623 0.6481313 0.424632 0.7803535 0.9155834 0.5568061
0.92467797 0.60888076 0.95203793 1.0760887 0.48143417 0.8850158 0.8316013 0.82303303
0.73582304 0.63731813 0.7848155 0.35567293 -0.44616523 0.6899357 0.45298165 0.7391927
0.41304734 0.5554292 0.2819279 0.3423619 0.80237365 0.52958804 0.9876202 0.79617876
0.5308669 0.44509906 0.7281086 0.8578371 0.8633172 0.6723265 0.49306497 0.507321
0.80373865 0.959121 0.7303481 0.8002676 1.0820551 0.89530706 0.8549871 0.34412664
0.4908 0.85512567 0.60849327 0.55323386 0.36297405 0.45638707 0.018497294 0.83199376
0.3436119 0.66324556 0.5356755 0.6571236 0.5668718 -0.62534094 0.86887246 0.73816174
0.76015496 0.9539399 0.5840845 0.8830237 -0.6787235 0.49231437 0.5633212 0.8799176
0.6294626 0.3299286 0.636688 0.80967814 0.5159924 0.48630992 0.4994993 0.7783973
0.9313988 0.99256647 0.6896437 0.48179176 0.9222101 0.517937 0.33565557 0.75742334
0.56308657 0.68965304 0.83865523 0.60334206 0.9095117 0.6438744 0.804201 0.9552389
0.6288233 0.4091139 0.52449733 0.9012441 0.49484563 0.86010104 0.6090582 0.71530503
0.42459497 0.7015318 0.6416346 0.97648054 0.91161877 0.2087326 0.42261705 0.9217118
0.572919 0.85281086 0.39913973 0.900822 0.64887625 0.5687311 0.6526835 0.6236714
0.75768316 1.0391631 0.64213127 0.47856608 0.7236892 0.78648424 0.737773 0.789376
0.50582623 0.63525754 0.7921049 0.46252185 0.49470845 0.6078499 0.66451347 0.6233326
00000000: 03f7 d43f 0708 1d3f 81a7 723f 2a09 273f
00000010: 6cb6 193f 237c 383f 58b6 2e3f abb1 e63e
00000020: d70d 283f 717a ee3e 1be5 903f c65d 093f
00000030: cc9e 083f 768e 0e3f a73b fc3e ba8a 073f
00000040: 4c37 103f 1eb1 7e3f cd1d 293f e5b3 463f
00000050: 2c88 5e3f 6859 3f3f c881 043f 9bb5 373f
00000060: 105c 303f a40f 543f 63f1 e03e ea2b 243f
00000070: 0f3c 543f 791d 5c3f b954 6a3f 4b49 473f
00000080: f091 2a3f 9119 253f c506 1e3f 0b40 1b3f
00000090: 3fab 343f f84f 733f 8e3a 8b3e f2bf 123f
000000a0: 7a90 483f 2da2 143f b284 1b3f 4608 373f
000000b0: 9179 923f df7e cb3f f6a6 803f f63b 203f
000000c0: 91e3 7a3f 36a1 2b3f 23ee 403f fb02 2b3f
000000d0: 54d7 033f 37a3 403f 6c16 af3e 5e48 303f
000000e0: 6f64 393f 36a8 623f db85 433f 71a0 b73d
000000f0: d5a9 323f 38cb 9b3f e0c3 9f3e 77ca 193f
00000100: e211 4c3f bf90 5e3f 2fcd 8a3f 5c6b 593f
00000110: 35bb 713f bda6 193f 66b2 9b3e 62fd 113f
00000120: bfa1 7a3f e7b2 593f 2e26 cf3e f2c1 223f
00000130: 412c 993e cebc f73e 5204 493f d918 2e3f
00000140: 5a8b 563f 45b5 2d3f 86d7 303f a68b 5f3f
00000150: 0ac7 a83e 0c6b 1c3f 5139 543f 3fbc 2d3f
00000160: b9cd 343f 811d 873f 6e04 1d3f b8c3 dd3e
00000170: ad9a 3c3f 0220 cd3e 37b4 4d3f 9a83 103f
00000180: 31f7 3b3f 836a 323f d88d 3c3f 182d 003f
00000190: 4ddd d93e c767 1e3f 9ef6 203f 9604 283f
000001a0: d5f1 2c3f 8bf6 313f f9e4 743f bd14 333f
000001b0: d677 253f 2873 3a3f 6a05 0e3f a634 613e
000001c0: a01b 343f cbca 0d3f a335 853f 6666 173f
000001d0: 453f 133f 1e47 3a3f fab5 083f 1abc eb3e
000001e0: 7ecd 413f bcb4 143f 2844 213f efeb 253f
000001f0: 5e69 d93e 3fc5 473f ac63 6a3f d88a 0e3f
00000200: b2b7 6c3f 9cdf 1b3f c2b8 733f 46bd 893f
00000210: 8a7e f63e 6590 623f d3e3 543f 4bb2 523f
00000220: e65e 3c3f 4827 233f abe9 483f c31a b63e
00000230: c56f e4be a09f 303f 36ed e73e bc3b 3d3f
00000240: f17a d33e 9c30 0e3f db58 903e 0f4a af3e
00000250: 5c68 4d3f 1593 073f add4 7c3f 5fd2 4b3f
00000260: e5e6 073f 06e4 e33e 5365 3a3f 369b 5b3f
00000270: 5b02 5d3f 971d 2c3f 0373 fc3e cadf 013f
00000280: d1c1 4d3f f488 753f 18f8 3a3f 56de 4c3f
00000290: c880 8a3f d832 653f 6fe0 5a3f 5e31 b03e
000002a0: 234a fb3e 84e9 5a3f 37c6 1b3f bca0 0d3f
000002b0: bcd7 b93e 91ab e93e a387 973c 8bfd 543f
000002c0: e6ed af3e 76ca 293f 0822 093f 4139 283f
000002d0: 831e 113f 5816 20bf 6d6e 5e3f 2bf8 3c3f
000002e0: 8499 423f 6835 743f 9086 153f d70d 623f
000002f0: d3c0 2dbf a110 fc3e d135 103f 4842 613f
00000300: 7624 213f 67ec a83e fcfd 223f 1147 4f3f
00000310: 1418 043f 9dfd f83e 5fbe ff3e 0c45 473f
00000320: 2770 6e3f d618 7e3f 7d8c 303f 69ad f63e
00000330: f615 6c3f 8597 043f 0cdb ab3e 7fe6 413f
00000340: 7126 103f 1a8d 303f 1cb2 563f a074 1a3f
00000350: c2d5 683f f4d4 243f 1ee0 4d3f 898a 743f
00000360: 90fa 203f 6177 d13e 7545 063f efb7 663f
00000370: 685c fd3e 952f 5c3f 3deb 1b3f 3b1e 373f
00000380: 8364 d93e 9797 333f 2a42 243f a1fa 793f
00000390: d95f 693f 00be 553e 4361 d83e 4ef5 6b3f
000003a0: d2aa 123f d051 5a3f 0b5c cc3e 459c 663f
000003b0: c11c 263f 5d98 113f 4416 273f eea8 1f3f
000003c0: 86f7 413f 4c03 853f b762 243f 9d06 f53e
000003d0: b243 393f 0857 493f b1de 3c3f 8c14 4a3f
000003e0: d47d 013f 3da0 223f 63c7 4a3f aacf ec3e
000003f0: 6d4a fd3e 0d9c 1b3f 8e1d 2a3f ba92 1f3f

bn1.bias f4 [256]
0.39037797 0.04982448 0.40805507 0.1556005 0.26699248 -0.18722597 0.29960757 0.06359971
0.17413731 0.15834452 0.5052778 0.07787152 0.12336452 0.21736772 -0.06453937 -0.18177
-0.11097713 0.29848742 0.2080388 0.3024078 0.52160037 0.32873482 0.26343766 0.41052437
0.055565454 0.32394314 0.023101939 -0.2628726 0.12645818 0.23714781 0.5641941 0.22179325
0.39829114 0.07177501 -0.021442434 0.2924901 0.3815406 0.022554979 -0.09287849 0.26704553
0.13361053 0.057284158 0.25873214 0.4769269 0.3618621 0.19752923 0.09267285 0.058454476
0.49281925 0.119442716 0.28467885 0.10567281 0.0758898 0.41393805 0.1961967 0.24813028
0.17440397 0.109864324 0.11102721 0.008710026 0.3388874 0.2404719 0.029160809 0.23276407
0.36815926 0.29243603 0.0034303884 0.23711923 0.3728664 0.22705892 -0.0028268462 0.09268644
0.082817495 0.13568556 0.21425839 0.42051217 0.0110328505 0.12146336 0.31210828 0.17006174
0.33388495 0.19822228 0.058377754 0.3979022 0.07803217 0.074575 0.3877532 0.1810791
0.24383634 0.50157946 0.35198 0.155139 0.0987808 0.00457883 0.15219854 0.21130998
0.1539549 0.33281007 -0.017177794 0.22674008 -0.0014391227 0.043904383 0.4321868 0.23540932
0.062871054 0.43123809 0.2602533 0.14562683 0.3323556 0.32814753 0.1879259 -0.020490898
0.3797093 0.23966599 0.14520602 -0.1776611 0.21706943 0.35961732 0.06683368 0.03980362
0.5509802 0.3248176 -0.119096726 0.0925585 0.077515736 0.18696868 0.2300264 0.16554865
-0.058125176 0.020540543 -0.07124541 0.212491 0.075322635 0.17978717 0.36398622 0.26185656
0.11696081 0.10707492 0.1985002 0.028124677 -0.1990191 0.6112435 0.06669928 0.25200728
0.0031299007 0.07861181 0.0609278 0.028822644 0.25789264 0.14895779 0.1894899 0.22280422
0.22085123 0.29177436 0.1262246 0.0909789 0.2649177 -0.034028992 0.01282904 0.15366171
0.21430738 0.15998079 0.2677325 0.036713805 0.37713173 0.33135924 0.27361518 0.07217674
0.096084185 0.16558725 -0.056446407 0.35537985 -0.102254294 0.11467415 -0.008964976 0.4267759
0.1728387 -0.038136587 0.1789153 0.25846818 0.09880503 0.28692567 0.235002 0.30723977
0.25188902 0.2895225 0.3114285 0.30201715 -0.09557212 0.18400869 0.20272839 0.14444752
-0.15780762 0.013512666 0.25192922 0.27862167 0.0530276 0.2851317 -0.065069176 0.21988292
0.25566006 0.24921446 0.13677849 0.06719939 0.34151143 0.1040784 0.34054852 0.3110306
0.22697434 0.11736101 0.33747363 -0.0014990874 0.24398816 0.21041787 0.10681728 0.23408274
-0.030598484 -0.037139665 -0.027002102 0.21056215 0.32844114 0.32297534 0.15959 0.21361741
0.17107494 -0.0039747576 0.19322532 0.19759825 0.22972612 -0.039036416 0.14059311 0.35805377
0.101623595 -0.43556535 -0.18218298 0.1784166 0.095389396 0.24737139 0.111105435 0.2086965
0.31480622 -0.24760257 0.34919915 0.121276125 0.16222057 0.31596637 0.08821779 0.28499436
0.19865063 0.14662208 0.2920412 0.14162749 0.30933133 0.15162626 -0.28551242 0.122535326
00000000: 9fdf c73e c114 4c3d 98ec d03e bd55 1f3e
00000010: 3db3 883e 2ab8 3fbe 2a66 993e 9140 823d
00000020: 0d51 323e 1125 223e e359 013f 1a7b 9f3d
00000030: 8aa6 fc3d a595 5e3e 382d 84bd ea21 3abe
00000040: fa47 e3bd 58d3 983e 2008 553e 32d5 9a3e
00000050: 9a87 053f ee4f a83e 4de1 863e 4030 d23e
00000060: 9a98 633d e0db a53e 4740 bd3c 3d97 86be
00000070: 417e 013e e0d6 723e 066f 103f c51d 633e
00000080: d1ec cb3e c7fe 923d 0ba8 afbc 43c1 953e
00000090: 4a59 c33e 38c5 b83c 1437 bebd 31ba 883e
000000a0: 33d1 083e cba2 6a3d 8a78 843e c32f f43e
000000b0: fd45 b93e 1a45 4a3e 43cb bd3d f66d 6f3d
000000c0: ce52 fc3e 629e f43d 6dc1 913e fc6a d83d
000000d0: 1d6c 9b3d b0ef d33e cae7 483e dd15 7e3e
000000e0: f496 323e 8c00 e13d 3c62 e33d 7fb4 0e3c
000000f0: a682 ad3e 443e 763e a6e2 ee3c b459 6e3e
00000100: 5f7f bc3e 2dba 953e 5ed0 603b 62cf 723e
00000110: 58e8 be3e 2282 683e 9c42 39bb 63d2 bd3d
00000120: 389c a93d 28f1 0a3e 8d66 5b3e 5f4d d73e
00000130: 21c3 343c c8c1 f83d a8cc 9f3e aa24 2e3e
00000140: f8f2 aa3e c8fa 4a3e 831d 6f3d d6b9 cb3e
00000150: 55cf 9f3d c7ba 983d 9687 c63e cd6c 393e
00000160: 3cb0 793e 8367 003f b936 b43e c2dc 1e3e
00000170: 974d ca3d 030a 963b efd9 1b3e a561 583e
00000180: 5aa6 1d3e 1566 aa3e 72b8 8cbc 8d2e 683e
00000190: f2a0 bcba 15d5 333d 9747 dd3e 240f 713e
000001a0: 8ac2 803d 3dcb dc3e ec3f 853e 331f 153e
000001b0: 832a aa3e f402 a83e a66f 403e 87dc a7bc
000001c0: 4269 c23e 006b 753e e3b0 143e cbec 35be
000001d0: 7347 5e3e c31f b83e 19e0 883d 1f09 233d
000001e0: 0a0d 0d3f 7e4e a63e fce8 f3bd 508f bd3d
000001f0: 92c0 9e3d b874 3f3e 0a8c 6b3e 9685 293e
00000200: aa14 6ebd a444 a83c 1de9 91bd 3e97 593e
00000210: c142 9a3d 211a 383e 675c ba3e 1012 863e
00000220: 2689 ef3d 184a db3d a343 4b3e b965 e63c
00000230: aacb 4bbe 747a 1c3f a299 883d 1907 813e
00000240: 051f 4d3b 3bff a03d 6e8f 793d 771d ec3c
00000250: 810a 843e 6488 183e a409 423e ca26 643e
00000260: d326 623e 7363 953e 0641 013e 2553 ba3d
00000270: 4ba3 873e fc61 0bbd e530 523c 7f59 1d3e
00000280: 6573 5b3e 01d2 233e 3c14 893e 3761 163d
00000290: 6917 c13e eba7 a93e 4a17 8c3e 66d1 933d
000002a0: c9c7 c43d b48f 293e 5934 67bd 59f4 b53e
000002b0: b36a d1bd 48da ea3d d6e1 12bc 5f82 da3e
000002c0: a1fc 303e 1c35 1cbd 9335 373e f155 843e
000002d0: 4b5a ca3d ece7 923e 5da4 703e 884e 9d3e
000002e0: 99f7 803e 4b3c 943e 8e73 9f3e fea1 9a3e
000002f0: 51bb c3bd c66c 3c3e 0898 4f3e 0dea 133e
00000300: 5298 21be 3b64 5d3c defc 803e 80a7 8e3e
00000310: 7833 593d c8fc 913e fd42 85bd fd28 613e
00000320: e0e5 823e 1332 7f3e a90f 0c3e d59f 893d
00000330: 96da ae3e 0e27 d53d 605c ae3e 673f 9f3e
00000340: f66b 683e f85a f03d 58c9 ac3e 077d c4ba
00000350: 08d8 793e c877 573e 05c3 da3d 63b3 6f3e
00000360: aca9 fabc c31f 18bd 8333 ddbc 9b9d 573e
00000370: 7029 a83e 065d a53e 906b 233e 86be 5a3e
00000380: 452e 2f3e af3e 82bb dcdc 453e 3257 4a3e
00000390: 533d 6b3e a6e4 1fbd a4f7 0f3e d352 b73e
000003a0: 0820 d03d 6c02 dfbe 2d8e 3abe d7b2 363e
000003b0: 845b c33d ed4e 7d3e 3f8b e33d 89b4 553e
000003c0: 482e a13e 878b 7dbe 3bca b23e 9e5f f83d
000003d0: 261d 263e 58c6 a13e 87ab b43d c8ea 913e
000003e0: 126b 4b3e 1924 163e 6d86 953e cc06 113e
000003f0: ad60 9e3e ea43 1b3e af2e 92be cdf3 fa3d

bn1.running_mean f4 [256]
0.17554617 3.9542303 7.2969756 1.058088 4.5141606 25.570217 0.84283084 1.1041358
1.4463602 6.0252857 1.4303354 0.26463425 2.0267844 1.5390941 2.219933 0.21420777
3.9410012 1.4677222 5.9280887 0.45821753 5.788976 2.1270769 1.9814705 4.267989
0.5906026 1.3449018 12.123727 20.632265 8.643432 8.6031685 12.967918 4.513274
2.5925348 2.5067697 1.5263764 1.8337573 3.8380759 4.999719 25.409727 2.933439
0.85514164 4.390376 9.617599 3.245643 2.4913988 1.9393938 0.093595594 2.3937235
1.879903 0.46117318 13.729024 0.5409364 1.1324947 2.640221 3.9247894 4.399224
10.212104 1.0840918 1.0786875 19.419674 4.0059614 0.8407392 7.899159 1.292662
1.1729823 1.5869771 3.4902132 0.6004955 3.281233 5.586944 2.5152063 2.02547
1.5748832 0.41391078 11.424633 1.9265922 11.90098 1.3614296 3.9822474 2.9074352
1.176965 1.1783273 7.8744626 1.0768384 11.466441 0.17407347 2.2344787 0.8316731
6.2969813 2.95034 5.40343 0.9540071 2.9993532 6e-45 0.9909583 3.9677424
6.74514 2.5494525 12.0543995 10.096949 0.1778281 8.931094 6.8317604 2.1434445
10.34372 3.086339 1.6752112 3.5429673 2.0186515 0.8175924 9.184792 13.040883
1.0567012 9.645293 1.9441092 20.282694 5.666744 16.406906 0.5016946 0.6049967
3.9006581 6.8483 31.653769 5.868046 2.9901206 8.778788 1.1369191 1.0096108
1.7312877 0.7535231 1.9949229 0.8657876 6.4383574 0.38074276 6.602188 1.0614241
2.486386 5.4416428 13.718905 5.923654 4.5901775 2.8722868 2.4039402 3.519882
3.753379 2.5214324 0.98948264 7.9328604 2.8512762 4.1090603 1.4116039 1.2984787
3.1043458 5.226183 0.9770121 0.12914619 4.0880337 3.8748505 7.208003 8.925206
0.7597724 1.1989195 4.3235626 4.399096 3.6643717 11.298467 0.82630074 15.121485
0.5589855 0.6610789 12.757787 6.4868126 10.002393 36.90245 9.231746 4.5570884
6.928058 6.663865 2.5536063 1.8084488 0.7271369 36.31251 0.87162143 2.735764
2.1883295 0.60777175 0.67452013 3.1647391 2.138595 5.8388643 12.5711155 0.20947716
8.224189 0.9395666 3.0159404 3.1216655 3.2062447 7.1015744 20.730654 1.2965168
1.979313 0.36597705 0.18316963 1.9453725 5.6881905 4.7652397 0.07724516 1.8820301
9.604767 2.5070932 1.6885685 4.6470637 1.1745332 2.8513582 0.9989212 1.7852283
3.2706506 3.9587145 14.034335 0.7238197 3.190442 1.2904072 1.0102223 1.6947458
4.400938 2.0482485 0.6464853 1.0886981 0.9468453 8.760071 0.73181343 0.9913433
0.47809416 48.542526 24.604977 0.57478195 1.0838134 5.283936 0.9750375 2.8634622
5.5879974 18.031221 6.400959 7.977309 4.1348047 3.960606 0.33227274 0.9776186
4.979715 2.632304 1.8398707 8.890413 8.369484 1.745784 7.6089344 0.8022822
00000000: 60c2 333e 1c12 7d40 d380 e940 6d6f 873f
00000010: 0174 9040 ce8f cc41 c3c3 573f 5254 8d3f
00000020: 5522 b93f 24cf c040 3b15 b73f 247e 873e
00000030: d6b6 0140 0901 c53f 6213 0e40 4859 5b3e
00000040: 5d39 7c40 52de bb3f e7b2 bd40 7d9b ea3e
00000050: 4b3f b940 0722 0840 d3a0 fd3f 5e93 8840
00000060: bb31 173f be25 ac3f c9fa 4141 e10e a541
00000070: 7f4b 0a41 94a6 0941 987c 4f41 be6c 9040
00000080: 17ec 2540 ea6e 2040 4d60 c33f 8fb8 ea3f
00000090: 09a3 7540 b3fd 9f40 1f47 cb41 77bd 3b40
000000a0: 90ea 5a3f f67d 8c40 afe1 1941 9db8 4f40
000000b0: 1473 1f40 0e3e f83f 0caf bf3d c432 1940
000000c0: a9a0 f03f e41e ec3e 15aa 5b41 cf7a 0a3f
000000d0: 96f5 903f 62f9 2840 c02f 7b40 71c6 8c40
000000e0: c764 2341 85c3 8a3f 6f12 8a3f 7e5b 9b41
000000f0: d630 8040 af3a 573f e9c5 fc40 f375 a53f
00000100: 4924 963f 1122 cb3f a75f 5f40 13ba 193f
00000110: b9ff 5140 3fc8 b240 24f9 2040 4da1 0140
00000120: c695 c93f 1dec d33e 4ccb 3641 939a f63f
00000130: 6a6a 3e41 5343 ae3f 24dd 7e40 6b13 3a40
00000140: caa6 963f 6ed3 963f 99fb fb40 d7d5 893f
00000150: 8b76 3741 5140 323e b301 0f40 87e8 543f
00000160: df80 c940 5fd2 3c40 e6e8 ac40 cf39 743f
00000170: 67f5 3f40 0400 0000 71af 7d3f 7eef 7d40
00000180: 30d8 d740 3b2a 2340 d2de 4041 1a8d 2141
00000190: 9218 363e c3e5 0e41 c89d da40 322e 0940
000001a0: e17f 2541 9486 4540 526d d63f fabf 6240
000001b0: 9631 0140 bc4d 513f e8f4 1241 75a7 5041
000001c0: fc41 873f 1f53 1a41 92d8 f83f f542 a241
000001d0: f855 b540 5841 8341 0f6f 003f 10e1 1a3f
000001e0: 62a4 7940 4625 db40 eb3a fd41 08c7 bb40
000001f0: 235e 3f40 ea75 0c41 9186 913f ed3a 813f
00000200: d69a dd3f e4e6 403f a259 ff3f 42a4 5d3f
00000210: 0607 ce40 b7f0 c23e 2045 d340 bfdc 873f
00000220: f320 1f40 f021 ae40 a380 5b41 938e bd40
00000230: bce2 9240 8cd3 3740 28da 1940 bf45 6140
00000240: 5d37 7040 265f 2140 bc4e 7d3f fed9 fd40
00000250: 4f7b 3640 6c7d 8340 70af b43f 8d34 a63f
00000260: 9aad 4640 e43c a740 771d 7a3f e63e 043e
00000270: 2cd1 8240 8dfd 7740 f6a7 e640 a5cd 0e41
00000280: 7280 423f 3276 993f a05a 8a40 65c5 8c40
00000290: 1185 6a40 85c6 3441 7288 533f 9af1 7141
000002a0: ac19 0f3f 773c 293f e51f 4c41 f893 cf40
000002b0: cd09 2041 1c9c 1342 3bb5 1341 abd3 9140
000002c0: a7b2 dd40 623e d540 496e 2340 407b e73f
000002d0: a525 3a3f 0340 1142 9522 5f3f c216 2f40
000002e0: 970d 0c40 ee96 1b3f 5aad 2c3f 168b 4a40
000002f0: bede 0840 fad7 ba40 4a23 4941 2e81 563e
00000300: 4796 0341 7087 703f 2b05 4140 5ec9 4740
00000310: 1d33 4d40 1940 e340 61d8 a541 43f4 a53f
00000320: 215a fd3f 5861 bb3e d290 3b3e f701 f93f
00000330: a805 b640 d87c 9840 b632 9e3d 5de6 f03f
00000340: 20ad 1941 3774 2040 0323 d83f bfb4 9440
00000350: 1b57 963f a77c 3640 4db9 7f3f 5c82 e43f
00000360: 5752 5140 945b 7d40 a38c 6041 3f4c 393f
00000370: 3430 4c40 102c a53f f74e 813f 6eed d83f
00000380: 7cd4 8c40 8116 0340 1080 253f 765a 8b3f
00000390: 7464 723f 4029 0c41 2058 3b3f adc8 7d3f
000003a0: c2c8 f43e 8c2b 4242 fed6 c441 e924 133f
000003b0: 66ba 8a3f 0116 a940 0f9c 793f f742 3740
000003c0: e0d0 b240 f13f 9041 a8d4 cc40 1e46 ff40
000003d0: 5250 8440 927a 7d40 a71f aa3e 3645 7a3f
000003e0: d359 9f40 ab77 2840 e280 eb3f 223f 0e41
000003f0: 68e9 0541 da75 df3f 647c f340 5e62 4d3f
