checkpoint_critic0.pth (torch_old, 188849 bytes, 9 tensors)

fcs1.weight f4 [256, 48]
00000000: 1f46 84bd c9ae a83f e0a4 5f3d 354d c03e
00000010: c70f a13c 1539 47bf f043 043d d447 c03e
00000020: 6307 4bbd 0efe 943f 737f 29be 135e cbbe
00000030: f1e7 c4bc 626c 79bf da71 f2bd 887d e4be
00000040: 1014 2ebe 3102 8b3f 2e8c 81be 2f0f 013e
00000050: d84d ec3d 8156 81bf a37d 1abe e346 733e
00000060: a297 3d3d de79 8bbe d8d1 a73c 182f bdbc
00000070: 32f6 d9bd 00e0 54bf 537f 0b3d 525d 083d
00000080: ece1 cabd 03a7 eebd b5fd 093d 37d3 e33e
00000090: 3c36 d83c d468 7bbf 0fae fa3c 253e ca3e
000000a0: bd72 42bd ee11 1fbe a870 f93b b96b b3be
000000b0: 2bd5 d7bd 6505 71bf 001b 18bd f97a 8dbe
000000c0: bc96 4f3e 6397 6b3e b78f 81bd 9d23 2c3e
000000d0: f1fa 2b3f ceaf a6be b08e 26bd dfe6 ec3d
000000e0: 5bd5 12bd 7287 82be 56c9 cfbc 34af 5fbe
000000f0: b0ae 243f 44bd 50be a320 23bd 68c1 1cbe
00000100: 160b 403d 746c d3be 4817 a7bd 08cc 7fbd
00000110: 0513 803e 103e 5ebe 98d5 c5bd 6779 be3b
00000120: f6b1 853e bb8b f13e 988c 0dbd 14de 403e
00000130: ed6c 37bf b45f 6bbe bd1b 80bd 602f 113e
00000140: eac7 1c3e 7631 c53e d62a a1bd 0333 203f
00000150: caee 39bf 42e8 15be 55e9 a03c 916a 0b3f
00000160: aba5 073e 69ff 0a3f 2bd9 843c f46f b03e
00000170: 1df0 6fbe cdb5 96be e23c 9e3c 7507 df3e
00000180: 9e13 2abe d949 17bb fbbd 8f3d b56f f8be
00000190: d2eb bebc 8d51 d0be aa1c 6b3d bd04 bebe
000001a0: af51 24be 0150 0fbe 0b5f c43d 20b8 63be
000001b0: 6e5e 6ebd 94a1 efbd 372e cb3d c987 27be
000001c0: c4e3 5ebe 8e87 85be e212 e5bd b564 4cbe
000001d0: 4ed3 06be 2dcc 0abf 1b5f 15be 32dc 9ebe
000001e0: be0f a43e 578f acbe 8d86 dfbd 73af 17bf
000001f0: 3b48 173d 1f2b e4be c43c 3dbe 517b 06bf
00000200: 8281 cb3e 72a7 ffbe baed 3f3e b4a1 35be
00000210: 2ba9 d43c 6a4c 11be 0eab d83d 00c6 04be
00000220: 3566 0d3f 1507 a4be 44b0 f13d aa3b 053f
00000230: 2792 c53d bcee edbe 1c46 243e c103 003f
00000240: 5a6a e8bd 3fa9 9b3f 2280 8bbd 2c3f ea3e
00000250: d66b a03d 8502 9bbc 21ca 8bbd dc5f ec3e
00000260: b14d 34be f2b6 c43f ee44 66bc a2d2 1d3f
00000270: c731 22bd 017f b8be a35f f9bd d94b 1e3f
00000280: 02b2 36bc 4022 ce3f 9ada 173d 9f72 69bf
00000290: 10a9 273e 810e 1fbf eb69 1bbc 3f14 59bf
000002a0: e6fb f33a 3e21 b63d 14eb 33bd 250b 65bc
000002b0: 7221 b2bd 9dea b7bc f1a8 9ebd 84b5 083b
000002c0: 4d02 2a3d c451 07be e119 5439 83b9 f3bd
000002d0: 69f7 893d b630 92be cd3d 05bc 19ff 06be
000002e0: 38d2 293e be73 76be 56e3 833d f834 fcbd
000002f0: bad4 f6bd a58a 15bf fa68 933d 6453 a4bd
00000300: 789c 00be 4cc0 90be 47a8 373d e58a 963c
00000310: d6d8 483f e971 6dbe 7dea 36bd 5049 103d
00000320: 84aa 12bd 780d c2bd 44a2 cabc fd03 503c
00000330: adc7 0a3e ba3d ddbd 354d 4a3c 9f5a 4e3c
00000340: 47ad f03d 106f 903e 39e4 0cbd 8c62 313c
00000350: d744 59bf c5ac 193f 20a1 a83b 6e7c 6ebd
00000360: f421 cfbd 5ac2 c4be cab9 88bb 5fbb 063b
00000370: c220 51bf 7e52 41be fabf 21bc 0aa9 dabc
00000380: d8f9 45bc 8933 be3d 8bf9 213b 1234 96bc
00000390: f7c4 25be 7437 e1bd d7fb babc 834b 93bd
000003a0: cbc4 8c3e 2229 8d3e 1eaf 603c 3d56 503c
000003b0: 9852 593f 02d1 1d3f 6592 41bd 86e9 50bc
000003c0: a035 063d 7467 fcbd cda7 dcbc 6795 1bbe
000003d0: bb14 283f cb19 3e3e a767 4dbd 926b e2bd
000003e0: 02b0 873e 2872 19bd d3f7 4a3d 8360 d03e
000003f0: f0bc 923e 237d 1c3e 7936 56bd d424 e53e
-0.06458687 1.317834 0.054600596 0.37558904 0.019660844 -0.77821475 0.032291353 0.375548
-0.04956759 1.1640031 -0.16552524 -0.3972021 -0.02403638 -0.97431004 -0.11838122 -0.44627023
-0.1699984 1.0860044 -0.2530226 0.12603448 0.11538285 -1.0104524 -0.15086989 0.2375751
0.046287186 -0.27241415 0.020485803 -0.023093745 -0.10642661 -0.83154297 0.034056973 0.033292122
-0.099063724 -0.11652949 0.03368922 0.44497082 0.026393048 -0.9820683 0.030600576 0.39500538
-0.047472704 -0.15534183 0.0076123066 -0.35043123 -0.105387054 -0.94148856 -0.037135124 -0.27632883
0.20272344 0.23006968 -0.063262396 0.1681046 0.6717978 -0.32556003 -0.04066342 0.11567473
-0.035848003 -0.25493962 -0.02536456 -0.21844178 0.6432905 -0.20384699 -0.039826047 -0.15308154
0.046885572 -0.4129368 -0.081587374 -0.06245044 0.2501451 -0.21703362 -0.096598804 0.005812812
0.26112336 0.47176918 -0.03455791 0.18834716 -0.7165058 -0.22985727 -0.06255291 0.14178228
0.15310636 0.38514298 -0.078694984 0.6257784 -0.7262999 -0.1463938 0.019642511 0.5445948
0.13246791 0.54295975 0.016216835 0.34460413 -0.2343144 -0.29435578 0.01931614 0.43560377
-0.16609046 -0.0023084788 0.07018658 -0.48522726 -0.023305807 -0.40687218 0.057400383 -0.3711299
-0.16046785 -0.13995363 0.095884405 -0.22238207 -0.058195524 -0.117007405 0.09920924 -0.16360392
-0.21766573 -0.26079983 -0.11185242 -0.19960292 -0.13166544 -0.542178 -0.14587061 -0.3102737
0.3204326 -0.3370311 -0.109143354 -0.5925209 0.03693412 -0.4456415 -0.18480211 -0.52531916
0.39747244 -0.49932438 0.18743029 -0.17737466 0.025959572 -0.14189306 0.10579501 -0.12966156
0.5523408 -0.32036653 0.11801198 0.52044165 0.09647017 -0.46471202 0.1604237 0.5000573
-0.1134841 1.2161025 -0.06811549 0.4575132 0.07833068 -0.0189221 -0.068256624 0.46166885
-0.17607762 1.536833 -0.01405452 0.61649525 -0.039598253 -0.36034396 -0.121764444 0.61834484
-0.011150839 1.6104202 0.03707371 -0.9119052 0.16373086 -0.62131506 -0.009485702 -0.8479652
0.00186145 0.08893059 -0.04392536 -0.013979708 -0.086977854 -0.02245074 -0.07747067 0.0020860145
0.0415061 -0.13214785 0.00020227536 -0.11900618 0.06736643 -0.28552788 -0.00813241 -0.1318325
0.16584098 -0.2406759 0.06439845 -0.123147905 -0.12052293 -0.5841468 0.07197757 -0.08023718
-0.12559688 -0.2827171 0.044838216 0.018376777 0.78455865 -0.23187985 -0.04465722 0.035226166
-0.035807148 -0.09475225 -0.024735577 0.012696263 0.13552733 -0.10802789 0.012347509 0.012594848
0.117518 0.28209734 -0.034397338 0.010826718 -0.84870666 0.6002925 0.0051461607 -0.058224134
-0.10113898 -0.38429528 -0.0041725384 0.002055846 -0.8169061 -0.18879125 -0.009872431 -0.026691932
-0.012083493 0.09287173 0.002471539 -0.018335376 -0.16188417 -0.10996905 -0.022825165 -0.07192137
0.2749389 0.27570444 0.013713626 0.012715873 0.84891653 0.61647046 -0.047258753 -0.012750989
0.032765985 -0.123244196 -0.026935482 -0.15193711 0.6565663 0.18564527 -0.05014768 -0.11055674
0.2650147 -0.037462384 0.04955275 0.40698633 0.28659773 0.15282111 -0.052298043 0.4475466

fcs1.bias f4 [256]
00000000: 1032 343d 5f6a 18be 2164 8dbe 968a 29bc
00000010: 43b1 1abf df28 b1be a06b 2fbd 0a4e f9bd
00000020: 550c 92be 4766 05bf ac8a c3be f7b6 58be
00000030: ca61 18bf e34d 2ebf 4201 16bf 380b 0abe
00000040: e965 3cbe 6fc3 c2be 7962 38be 0a5c 6fbe
00000050: 2d4b 22bf 73d7 60be 4133 27bf e2bd 3ebe
00000060: c6da fdbe bf8a 42be fa9c 89be 8696 a23e
00000070: 82f4 60bd a11e afbe c9ce 36be 058a 31be
00000080: 56bc af3c 07bb ecbe 67bd 70be e919 00bf
00000090: 1557 85be 0605 5dbe 195d a93e 342c e73d
000000a0: 239c 58be 8031 f8be 0848 c9be 90a1 98be
000000b0: 9550 9cbe 6ea6 02be 72d8 53bf 6568 d7be
000000c0: 468a 9fbe 4fa9 303e 4b4b 4ebd 0b42 22bf
000000d0: 5cf3 f13d dfe8 55be 03ea 82bf 3391 84be
000000e0: 55b7 9cbb 40ae e0be e610 213d 6375 aebe
000000f0: 72ea a9bd 0cb9 ebbe 8e4d 1bbf 846c b1be
00000100: 29b8 61be 3327 c9be 64bb 11be 1241 afbd
00000110: 1847 f9be 5a10 163e 996b 27bf 09d1 9bbe
00000120: c1a0 d3be 9a9c e2be 985f 92be 6d1a d9be
00000130: d848 4cbe d3d0 bbbe 40f8 f1be 97b3 01bf
00000140: 8ea2 8cbe 2618 b5bf 57a8 57be 6edb 85be
00000150: 95c8 f23d cf43 42bd c3e9 8ebe f50d 22be
00000160: cacc 9ebe 8f7e b9bd 4678 c9be ace9 c3bd
00000170: 689b 3cbf 80be 033c 82a1 493d e4ab 18bf
00000180: e089 37be 11aa cf3d 2512 e1be 3239 2f3e
00000190: a4b5 85be c9eb 89be a17f 38bf 7bda 57bf
000001a0: 5248 e6be 613b a1be 5e03 aebd 44ac a5be
000001b0: 0475 97be dd13 84be 29bf f1be fe4f c0bb
000001c0: fe0c 64bd 87f0 1ebe 5178 e0bd e6b3 363e
000001d0: e9e0 0ebe a41e e4be fd46 6e3b 3056 4dbf
000001e0: 9eaf acbe 207b fbbe b8b9 ac3e 1762 d73c
000001f0: 4858 873c 50a4 20bf 4f9f 28bf d40b dfbd
00000200: 1585 11bf 6ed4 c3be 3809 d1bd feb6 8cbf
00000210: 069f 3ebe 60b1 0dc0 ad43 593e 7ee7 08bf
00000220: 5420 13bf f28f f8be a500 883c 81b8 acbe
00000230: 9b7f e5be 5a87 c0bd d62a d2bc 3352 d2be
00000240: fa67 9ebd 5e0c 0ebf 7821 b1be 59a9 52bd
00000250: 9135 a53e fa78 07bf 4448 bcbd 59e7 90be
00000260: 3482 533e b1b1 d03e 6a4e acbe 3a84 21bf
00000270: c60b adbe 9c75 c2bd 47fb 37bf 6168 96be
00000280: 62f2 97be 8990 54be 990e d5be 6b58 b8be
00000290: a410 b3be 2e20 afbe 15d0 63bd 8711 26bf
000002a0: a0b9 003e d263 2cbf 2202 92be a342 a1be
000002b0: fd81 debe bc1d a8bd db8e 1d3e 2658 18bf
000002c0: 4e51 5cbe 824a e4bc 4de9 49bf 31b8 96be
000002d0: 4648 8fbe 5f74 d6bc cb56 93be 8ea7 80be
000002e0: 4a2c 99be 799d 19be 0636 a33b c11c 21be
000002f0: 25ad 07bf 46b4 a73b 4e14 06bf 53f8 19bf
00000300: 52fc 4abf 803b efbe 4e6f 1ebf c753 e43e
00000310: aaa5 a7be 0ca6 1fbf 4a43 97be 9f8e 68be
00000320: 703d 0dbf 95cc 9ebe 9527 7abe cec1 ebbe
00000330: 5cac f3bd 52ec 28be 94bc 33bf fce1 c9be
00000340: 9311 84bd 0ad0 43be 5cad d9bd 689f 3cbf
00000350: bb5e f8bd f1bb a0be 0327 f3be 06e1 16bd
00000360: ffc6 0abf 1928 01bf abee 2dbe 737d efbc
00000370: b083 693e e8dd 843e 06c6 c1be b082 53be
00000380: c601 cc3c 2927 f3bc 0d7a d7be d295 07bf
00000390: a237 d93d ba77 833d 1b7a ecbe 67de 40bf
000003a0: 05d9 ac3e 94b2 fbbe 333d 31bf b39a 443d
000003b0: fe00 04be f800 33be 61bc 56be 5cf7 d5be
000003c0: 4167 ac3d 9e1e 72be 5d4a e1be bbde 8bbf
000003d0: 4713 e83e 3761 04be 35e2 38be 52e4 cdbc
000003e0: e07f bfbe c4d9 9abe 628f febe 72b3 a9be
000003f0: 0e4c a9be d89c 49be 7028 cd3d cd2d e0bd
0.043993056 -0.14884327 -0.27615455 -0.010347983 -0.6042673 -0.34601495 -0.04282725 -0.12173088
-0.28525034 -0.5210919 -0.38191736 -0.21163546 -0.59524214 -0.68087596 -0.5859567 -0.13480842
-0.1839825 -0.3803973 -0.18006314 -0.23374954 -0.6339596 -0.21957187 -0.6531258 -0.18627122
-0.49580973 -0.1899824 -0.26877576 0.31755465 -0.05492068 -0.34203056 -0.1785232 -0.17337807
0.02145211 -0.4623644 -0.23509751 -0.50039536 -0.26043 -0.21583948 0.3307884 0.11287728
-0.21153311 -0.48475266 -0.39312768 -0.29810762 -0.3053023 -0.127588 -0.82752144 -0.42071834
-0.31160182 0.17252086 -0.050364774 -0.63382024 0.11813995 -0.20889615 -1.0227665 -0.25892028
-0.004782597 -0.43882942 0.039322756 -0.34073934 -0.0829667 -0.46039617 -0.60665214 -0.34653103
-0.22042908 -0.3928772 -0.1423164 -0.08557333 -0.48687053 0.14654675 -0.65398556 -0.3043292
-0.41333583 -0.44260103 -0.28588557 -0.42402974 -0.19949663 -0.36682758 -0.47259712 -0.5066466
-0.2746777 -1.4147995 -0.2106031 -0.26143974 0.11854664 -0.04742795 -0.2791272 -0.15825637
-0.31015617 -0.09057342 -0.39349574 -0.09566054 -0.7367463 0.008041024 0.04922629 -0.59637284
-0.17923689 0.101398595 -0.43959156 0.17111662 -0.26115143 -0.26937702 -0.72069746 -0.8431775
-0.4497705 -0.31490615 -0.08496736 -0.3235799 -0.29581463 -0.25796404 -0.47216156 -0.005868911
-0.055676453 -0.15521441 -0.109604485 0.17842063 -0.13952984 -0.44554627 0.003635823 -0.80209637
-0.33727735 -0.49117374 0.33735442 0.02629189 0.016521588 -0.6275072 -0.65868086 -0.10890928
-0.5684369 -0.38248008 -0.102068365 -1.0993345 -0.1861535 -2.213951 0.21217223 -0.5347823
-0.57471204 -0.48547322 0.01660187 -0.33734515 -0.44823918 -0.09400816 -0.025655191 -0.41078338
-0.07734676 -0.5548762 -0.34595847 -0.051431034 0.3226743 -0.5291897 -0.09193471 -0.28301504
0.20655137 0.40760568 -0.33653575 -0.63092387 -0.33798045 -0.094950885 -0.71867794 -0.2937651
-0.2967711 -0.20758261 -0.416127 -0.36004958 -0.34973633 -0.3420424 -0.055618364 -0.64870495
0.1257081 -0.67339814 -0.28517252 -0.31496152 -0.43458548 -0.082087964 0.15386526 -0.59509504
-0.2151539 -0.02786756 -0.78871614 -0.29437402 -0.27984828 -0.026178537 -0.28777155 -0.25127834
-0.29916602 -0.15001477 0.0049808053 -0.15733625 -0.5299857 0.005117926 -0.5237473 -0.6014454
-0.7929126 -0.46725082 -0.6188859 0.44595167 -0.3274358 -0.6236274 -0.29543525 -0.22710656
-0.5517187 -0.3101546 -0.24429162 -0.460463 -0.11898109 -0.16496399 -0.7020962 -0.39430225
-0.064486645 -0.1912233 -0.10628769 -0.73680735 -0.121274434 -0.31393388 -0.474907 -0.036835693
-0.54209894 -0.5045181 -0.16985576 -0.029234624 0.22804141 0.2595055 -0.37846392 -0.20655322
0.02490319 -0.029681759 -0.42085305 -0.5296298 0.10606314 0.064193204 -0.4618691 -0.7533936
0.33759323 -0.49159682 -0.6923401 0.047999095 -0.12891003 -0.17480838 -0.20970298 -0.41790283
0.084181316 -0.23644492 -0.44002047 -1.0927347 0.45327207 -0.1292771 -0.18055041 -0.025133286
-0.37402248 -0.30244267 -0.49718767 -0.33144718 -0.33065838 -0.19688737 0.100174785 -0.10946236

fc2.weight f4 [128, 258]
00000000: f49e 8abb 9544 cabd 4af5 013d 22f4 123d
00000010: f795 8bbd c070 18be 44ec ccbd 5cbb 613d
00000020: 5a7f 2bbd 0e2c 40bd 80f3 823d 14dc a63c
00000030: 45c8 1cbc 5e1f 55be bdb0 84be ee0a 403d
00000040: fdfd e2bd 0a4e 293e 9349 bcbd c550 5b3c
00000050: 2ade 10be 7fc7 95bd 4824 bf3c f071 a63d
00000060: 3a43 0fbe f0e7 96bd 84ce 65bd 5532 b2bd
00000070: c39c a4bc b17b 3fbd e416 21bd 41e7 ee3d
00000080: 8607 9c3d cbf6 33bc 5dc0 a33d 0368 7bbc
00000090: 4eea 13be 97b2 ccbd 0ded b4bd a7ca 593e
000000a0: c027 14be d41b 41be fdf9 c83c 2ede 3dbd
000000b0: 41aa e1bc 69a8 af3d 341c b6bd 75e4 39bd
000000c0: d07d a7bd d446 53be ee3f 563d a009 3abd
000000d0: b539 8fbd 0264 3bbd 4a76 fa3c 1938 7d3c
000000e0: 6739 b73d 1d50 c2ba fe74 b6bd 43d5 c03c
000000f0: 6b1e 65bc d115 5abd 8bde a7bc 82a7 d0bc
00000100: 3ffd 35bc c7a9 6abc 1702 fe3c 2b8e 263e
00000110: d97b bd3d 5f95 3dbd 0831 bcbd 62be 2bbc
00000120: 2f3d b4bd 00f0 c43c 03a2 5ebd 1d00 8abd
00000130: d5db debd 4454 33bd 9f44 55be db38 77be
00000140: 2826 bd3b 3261 0abe 5a9d 3fbd d6fc 16be
00000150: af45 83bd 5420 95bd 2880 cc3c bd8b 44bc
00000160: 2d69 f4bb 527d 05be 961f e9bd c060 13be
00000170: 47f1 6b3d 5b21 0ebe 9478 4cbe 37f5 46ba
00000180: ce07 62bd 646d 12be 2dee 273c fc6f 17be
00000190: 6613 edbd b3d7 db3d bd01 a93d 0034 a3bd
000001a0: f29c c6bd fb73 a9bd 3d52 733d f12f dbbc
000001b0: 1da4 4fbe 68bc 9ebd 4484 babd 43c1 b13c
000001c0: 0ed2 f8bd c08c 823c 60d2 46be 4be6 8cbd
000001d0: dc6d c53d e2e6 4a3c dfe2 9abd 08b2 3abc
000001e0: 2989 b6bd 0376 9f3d e75f e8bd 7637 b9bd
000001f0: c30c 013e f321 03be 9f5c 1dbd e75c a3bd
00000200: c021 543d b64d e43d 4341 c5bd d334 d7bc
00000210: c39c 0f3c 39bc 5b3d 5e87 b4bd aa23 27bd
00000220: 6476 9dbc bf40 c73b 1e04 e13c 48f2 e8bd
00000230: d01f ac3c 0be6 57bd 00f1 25be 92f1 f23d
00000240: 7cf4 bebd e2b5 d5bd 7349 853c 4ec6 d7bd
00000250: 058a 22bd d761 24bb 692c 28bd ad52 46bd
00000260: 225c 603d 0ba7 4c3e 44a9 4db9 ab00 9ebd
00000270: e5b8 053d 792f 58bd 7667 41be a6cc 903d
00000280: b6c7 a33d 564b 78bd a847 b43d f7c9 923d
00000290: de3b 06bc a098 38be d5e4 9abd e6b9 3cbe
000002a0: d86f ec3d 6118 ab3d e063 06bd 75f5 083d
000002b0: 7f8b 3fbd 3f72 873d fb50 6bbb 706d 3abe
000002c0: c9a2 dd3d 4c21 cabb a838 08be bb7f 86bd
000002d0: 53cf 683b 6089 c7bd e8bc 16bc b260 0cbe
000002e0: 691d a9bd 2bba 453c 58b8 33be d1f8 a63d
000002f0: 1546 2c3d 5263 da3d e57a acbd 920c 88bd
00000300: 8911 d63c b77c 86bd 9caa 10be 14c4 3fbe
00000310: 7d72 4a3d 8be3 2bbe 6845 cb3d 174d 5ebe
00000320: 1b29 45be 6b99 56bc f2a3 75be d1e7 64bd
00000330: b0c7 8e3c 06ba 03be d87c 173d eece d53c
00000340: cf8a e5bc 7a4c acbc 357c d0bc 86d7 9fbd
00000350: 5068 833d 497d f2bc f96d 1c3d 653e 003e
00000360: 4a7e cabd c14d 763d 3fa7 1dbc 3eeb 1ebd
00000370: 6295 33be 4ace a53d d498 77bd fc43 cfbb
00000380: 93c3 8cbc e137 cebd 1909 793d b87f 713c
00000390: f8d9 e8bd 49eb c03d 5147 6dbd 23b7 8abc
000003a0: 34d3 47bd 855c 8abd 0aa4 0ebe 1512 bc3d
000003b0: 6e67 01be 1f30 a2bd 8160 0d3e 9582 1e3d
000003c0: d290 4dbd 5099 95bd 9dc5 c6bc 2b0b 023d
000003d0: 82b6 ddbd 831c 81bc 640c 49be e781 ae3c
000003e0: f1f2 833c e4d7 2bbd 9863 3bbd 09b2 7ebd
000003f0: 1981 903d e607 a03b 508b 40bd 1245 1dbe
-0.0042303745 -0.09876362 0.031728067 0.035877354 -0.06815713 -0.1488676 -0.100060016 0.05511032
-0.0418695 -0.046917014 0.063941 0.020368613 -0.009569232 -0.20812747 -0.2591609 0.046885423
-0.11083601 0.16533676 -0.09193721 0.013385956 -0.14147249 -0.073134415 0.02333273 0.081272006
-0.13990489 -0.07368457 -0.05610515 -0.08701006 -0.020094281 -0.04674882 -0.03932847 0.11665202
0.076186225 -0.010984133 0.07995675 -0.015344623 -0.14444849 -0.09995001 -0.08834276 0.21268712
-0.14468288 -0.18858272 0.024533266 -0.046354465 -0.027547004 0.085770436 -0.08892098 -0.04538389
-0.08178294 -0.20632488 0.05230706 -0.045419335 -0.069934286 -0.04574967 0.030573983 0.015455269
0.089464955 -0.0014824901 -0.08909033 0.023539191 -0.013984303 -0.053243462 -0.020491859 -0.025470499
-0.011107742 -0.014322705 0.031006856 0.1626517 0.09252138 -0.04628503 -0.091890395 -0.0104824025
-0.08800732 0.024040222 -0.054353725 -0.06738303 -0.108817734 -0.043781534 -0.20826958 -0.24142782
0.005772371 -0.1351364 -0.04678092 -0.14744887 -0.064097755 -0.07281557 0.024963453 -0.011996207
-0.007458827 -0.13036087 -0.11382978 -0.14392376 0.057603147 -0.13879912 -0.19967872 -0.00075896404
-0.055183224 -0.14299542 0.010249657 -0.14788812 -0.115759656 0.10734501 0.08252285 -0.079689026
-0.09697904 -0.08274075 0.0594046 -0.026756259 -0.20277448 -0.077507794 -0.09107259 0.0216986
-0.1214944 0.015936255 -0.19416189 -0.068798624 0.09640095 0.012384148 -0.075628035 -0.011394985
-0.0891288 0.07786181 -0.11346417 -0.090437815 0.12602524 -0.1280592 -0.03841841 -0.07976704
0.05179 0.11147635 -0.09631588 -0.026270306 0.008765402 0.0536463 -0.08814882 -0.040805496
-0.019221492 0.0060807164 0.027467784 -0.113743365 0.021011263 -0.05270962 -0.16205215 0.11862482
-0.093239754 -0.10435082 0.016270375 -0.105358705 -0.039682407 -0.002508273 -0.041057978 -0.04841869
0.054775365 0.19985597 -0.0001961338 -0.07714971 0.032647032 -0.05277965 -0.18887123 0.070702836
0.07997076 -0.06061872 0.0880273 0.07167428 -0.008192984 -0.18026972 -0.075631775 -0.1843029
0.1154477 0.08354259 -0.032810092 0.03343721 -0.046763893 0.066135876 -0.0035906422 -0.1820581
0.108220644 -0.00616852 -0.13302863 -0.065673314 0.0035523965 -0.09742999 -0.009200312 -0.13708761
-0.08257563 0.012068312 -0.1755079 0.08152927 0.042059023 0.10663475 -0.08421878 -0.066430226
0.026131408 -0.06566756 -0.14127582 -0.18727142 0.04942559 -0.1678602 0.099253476 -0.21709095
-0.19253962 -0.013098101 -0.23988321 -0.05588514 0.017429203 -0.12863931 0.036984295 0.026099648
-0.02802029 -0.02103256 -0.025449852 -0.0780478 0.064163804 -0.029600756 0.038190816 0.12523802
-0.09887369 0.060132746 -0.009622394 -0.038798563 -0.17537454 0.08095987 -0.060448483 -0.006325243
-0.0171831 -0.10069252 0.06079969 0.014739923 -0.11369699 0.09419877 -0.05792934 -0.01693303
-0.048785403 -0.06755928 -0.13929763 0.091831364 -0.12637112 -0.079193346 0.13806345 0.03869875
-0.05018694 -0.07304633 -0.024264151 0.03174893 -0.10825826 -0.015760666 -0.19633633 0.021302177
0.016107054 -0.041953936 -0.045749277 -0.062181506 0.070558734 0.004883754 -0.04700786 -0.1535838

fc2.bias f4 [128]
00000000: c04e 24be 28d2 a1bd 8b2d 4cbe 6162 61be
00000010: 0d87 2ebe f3ab 83bd e5d3 2bbe 3150 b1bd
00000020: 7b12 273c c19b 02be ec39 44be 8082 e4be
00000030: b6cb 44be 0d23 3cbe 28ed cebe 6ef7 b1be
00000040: 9314 41be d45f 25be efe1 4dbe 55dd c8bd
00000050: a490 3ebe bf6a 92be 6d5a 09be 0647 50be
00000060: be8f 88bd 069d 2abe 1875 24be 5e3d 3dbe
00000070: 8be5 8dbe 450a 8dbe 3cba 62be 9e3a 65be
00000080: 7e8d 18be 4d97 6dbe 2b54 25be 6fa3 85be
00000090: 3658 92bd a8c7 ddbd f8f3 57be 5618 a4be
000000a0: bc6d 37be b84e 72be 828d 0bbe cd53 79be
000000b0: 07a0 73be de03 2ebe 7266 12be 9cde 5dbd
000000c0: 0d05 fdbd bc95 9abe 09ff f7bd 3846 cfbe
000000d0: cfa1 2cbe 0ffa 08be 2c9f 14be 093b 9dbe
000000e0: 8d1f 1abe 6f08 88be c67e 96be fbc1 25be
000000f0: 2039 bfbe 6cb7 37be e6fc 3dbe 5ca4 383d
00000100: 892f a3be f6a2 7dbe 26a7 4cbe 8fe5 2dbe
00000110: 8f97 91be 755a 99be 85d4 71be 5ea7 b7bd
00000120: 6536 cebd 3ced 52be 8cff e2bd d23b 57be
00000130: d37b 8bbe 3d17 1fbe dc4f 2ebe b35e 6bbe
00000140: 8678 1cbe 4d0d 1bbe 8f30 48be 86cc 98be
00000150: 565f 4ebe 6e6e 0fbe f930 ffbd 40e0 a0be
00000160: aa90 87be 85f0 38be 2c8d 2bbe 636f b2bd
00000170: e922 03be 68cc 953d 666c f7bd c8e0 ecbe
00000180: 241f e8bd 3d7d fbbd e631 0ebe 83c8 11be
00000190: b90d 81be 3944 8dbe 7e0f 3dbe ae57 99be
000001a0: 243b a7bd fea8 17be b18f dc3d c743 92bd
000001b0: b991 88be 3705 30be 84dd 82bd e18d 33be
000001c0: 114e 70be d69e 90be a8ac 97be b91a 9fbd
000001d0: 3e93 99be 866d 8abe 9f51 50be c917 3fbe
000001e0: 8738 61be 9f37 48be d236 51be 8da0 8abe
000001f0: 2df1 86be c5e2 3cbe ec57 e5bd 03a9 70be
-0.16045666 -0.07901412 -0.19939248 -0.22010185 -0.17043705 -0.06429281 -0.1678005 -0.086578734
0.010197277 -0.12754728 -0.1916272 -0.44630814 -0.19218335 -0.18372746 -0.4041531 -0.34759086
-0.18855505 -0.16149837 -0.20105718 -0.09807841 -0.18609864 -0.28597066 -0.13413401 -0.20339593
-0.06668042 -0.16661462 -0.16060293 -0.18480441 -0.2771419 -0.27546898 -0.22141355 -0.22385642
-0.14897725 -0.23202248 -0.16145389 -0.26101252 -0.07145731 -0.10829097 -0.2108916 -0.32049817
-0.17912954 -0.23662841 -0.136282 -0.24348374 -0.23791514 -0.16993663 -0.14296892 -0.054167375
-0.12354479 -0.30192363 -0.12109191 -0.4048326 -0.168586 -0.1337664 -0.14513844 -0.30709103
-0.15051098 -0.26568934 -0.29393595 -0.16187279 -0.3734827 -0.17941064 -0.18553504 0.04507862
-0.31872204 -0.24769196 -0.19985637 -0.16982101 -0.28435943 -0.29951826 -0.23616226 -0.0896747
-0.10068969 -0.2059831 -0.11083898 -0.21018913 -0.27242908 -0.15536208 -0.17022651 -0.22985344
-0.15280351 -0.15141793 -0.19549774 -0.2984354 -0.20153555 -0.1400697 -0.12460513 -0.3142109
-0.26477557 -0.18060501 -0.16753072 -0.087126516 -0.12806286 0.07314378 -0.12081222 -0.46265244
-0.113340646 -0.12279747 -0.13886222 -0.14236645 -0.25205782 -0.27591112 -0.18462941 -0.29949707
-0.08165577 -0.14810559 0.107695945 -0.07141834 -0.26673678 -0.1718949 -0.06389907 -0.17534591
-0.2346728 -0.28246182 -0.29623914 -0.07768769 -0.2999515 -0.27036685 -0.20343636 -0.18661417
-0.2199422 -0.19552468 -0.20431069 -0.27075616 -0.26355878 -0.1844588 -0.111984104 -0.23501973

fc3.weight f4 [1, 128]
00000000: 4d5e 833b c1cc 4abd 1c64 b4bb 10cc 9ebd
00000010: 5a54 093c 7c76 1fbd cc38 a3bc b5bf cbbd
00000020: a5f2 0b3d dee0 bc3d fa5b 74bd e12b 58bd
00000030: 31e8 e9bc 9726 9f3c fe05 abbd 4d57 163d
00000040: 3472 5dbc 5a0a 823d b593 67bc 6c86 ebbc
00000050: 27a7 0dbb 7c17 98bd bf63 bb3d f584 cdbb
00000060: 59e5 4cbd 1d85 a43d bd2e ccbc ff80 4dbb
00000070: 7c07 933d f966 293d f9ff 4b3d 6085 893c
00000080: 73b0 d6bd 7263 87bb 1b71 f3bc a5dc 3cbd
00000090: e31c b7ba f4ea 913d b4e0 003d ca9d 963c
000000a0: 4c1b 54bb 1418 94bd 9669 21bc 9269 01bb
000000b0: 1874 233b ad81 e1ba 451e 7d3a 6e84 7a3d
000000c0: 5107 83bd a4ab 343d 191e 16bd 6521 29bd
000000d0: 1748 f33b 4395 9d3a e2fb f73c 8629 c9bd
000000e0: 9e39 b33c d1aa 863d d0f3 8cbd 1b99 943d
000000f0: eb61 9f3d d7a8 67bc 10fd cfbb 7afd 32bd
00000100: 3e10 733d 43a1 4bbd ffce c0bd 7c5c 6bbc
00000110: afd5 c63d 3024 3d3c 600a 80ba ff8b 76bd
00000120: 66b0 a53d 2235 c13b 36cf 983d dae7 183c
00000130: d666 523d 291d babc 186e 22bd b34e ef3c
00000140: 9ee8 5cbd c8a5 8f3d cf93 93bd 3134 d6bd
00000150: e6bb 333d 3fc0 13bb 8b16 76bd b82b a13c
00000160: 593b c6bd 7551 973d 8299 d3bc fd89 d5bc
00000170: cf29 b7bc b45c dabc e4c7 cd3c 7072 6f3d
00000180: d294 993c 2ec7 49bd 7c53 88bd 852f 973d
00000190: e06f d0bb 752f 893d 86b3 e93c 327b 3b3c
000001a0: 1ab3 7e3c 4e34 a53d a426 2ebd 9690 1cbd
000001b0: e7b8 b53d e8bd 9c3b 8b5a 91bd d01c e1bc
000001c0: 21d8 12bc d881 493d 61e5 b5bd 3d10 3e3d
000001d0: 7aef b3bc 22ea 6bbd c9aa 4ebc 12e3 1f3b
000001e0: 96d9 c13b 0274 dfbd 575c a1bd c741 d93d
000001f0: cb4f b7bd 97c2 5b3c d76b c6bd ce85 513d
0.0040090443 -0.049511675 -0.005505098 -0.077537656 0.008381927 -0.038931355 -0.019924544 -0.099486746
0.03416695 0.092225775 -0.05965803 -0.05277622 -0.0285531 0.01942758 -0.08350752 0.03670435
-0.013515998 0.06349631 -0.014134337 -0.02875062 -0.0021614523 -0.07426354 0.091498844 -0.006271953
-0.05002341 0.08033202 -0.02492463 -0.0031357405 0.07179162 0.041357968 0.04980466 0.016787231
-0.10482874 -0.004131728 -0.029717019 -0.04610886 -0.0013970401 0.07124892 0.031464294 0.018385787
-0.0032364903 -0.07231155 -0.009851834 -0.0019746763 0.0024941023 -0.0017204784 0.00096556946 0.06116145
-0.0639788 0.044109 -0.036649797 -0.041291613 0.0074243653 0.0012022633 0.030271474 -0.09822373
0.02187806 0.065755494 -0.06882441 0.07255765 0.07782348 -0.014139376 -0.006347306 -0.043698765
0.05934166 -0.049714338 -0.09414481 -0.014365312 0.09708726 0.011544272 -0.0009768717 -0.060192104
0.08090286 0.0058962265 0.07461397 0.0093326215 0.051367603 -0.022718983 -0.039655775 0.029212331
-0.05393278 0.07014042 -0.072059266 -0.104591735 0.043880366 -0.0022545008 -0.060080092 0.019674167
-0.096792884 0.073885836 -0.025830034 -0.026066775 -0.022358803 -0.026655532 0.02511973 0.058458745
0.01874772 -0.04926222 -0.066565484 0.073821105 -0.006360993 0.06698505 0.028527986 0.011442946
0.015545631 0.08066617 -0.04251732 -0.038223825 0.08873158 0.004783381 -0.07097348 -0.02747956
-0.008962662 0.049196094 -0.08881641 0.046402205 -0.021964777 -0.057596333 -0.012613961 0.002439682
0.005915831 -0.109107986 -0.078789406 0.10608249 -0.08950766 0.013413093 -0.096885376 0.051152997

bn1.weight f4 [256]
00000000: 6482 853e 8794 183f bc23 753e 20c2 d23e
00000010: 67e7 603f bc42 c53e 5e40 fa3e cf3f a03e
00000020: 8806 a63e 6960 9d3f 4ae5 b0be 4d7f b93e
00000030: 87c0 9f3e 3cb1 d13e a534 c63e 1cf1 003f
00000040: 2597 b83e c79d 7b3e a325 e43e 05e7 3b3e
00000050: d2ed 6b3f 6630 5c3e 0145 923e 39f7 8e3e
00000060: 57dc b23e 7863 9c3e 9f05 2f3e a088 d93e
00000070: 84fc bd3e afa6 c53e 71bd 673e c024 923e
00000080: 5715 bf3e 4535 5b3e 317b a73e f99c e43e
00000090: 2ba3 993e 52be b23e 446f 3f3f 4beb bf3d
000000a0: 21cd 903e 872c 423e f1da e33e 6ada 573e
000000b0: 412c 843e f930 983d 0a92 203f 89df 693e
000000c0: 7708 ac3e f2b6 ef3e 4f89 113f 051d 193f
000000d0: f4fe a03e d63b 453e d0c8 92bf 8d46 823e
000000e0: 7dcf e03e 0bc6 6c3e 6968 da3e 6c65 9a3e
000000f0: a341 a53e 5ebd 8b3e 5682 263f 1eeb d33e
00000100: b74f f33e e8ee 793e 1848 123e afed 3f3e
00000110: 9370 943e e91a ba3e da6e 223f cc87 9f3e
00000120: 1510 d13e 425d c93e ab97 913e 761e c03e
00000130: 3237 b73f 8243 df3e a5fa 753e eac4 923e
00000140: a02a 4b3e 03b0 7e3e c167 be3e 55fc 033f
00000150: cb1f bd3e 0284 583e 0efd f83e 8cdd 933e
00000160: 41da b33e f661 693e 0ba3 833e 119d e03e
00000170: f358 ab3e e01e 263e ec80 093f 8621 903e
00000180: a075 373e 9445 873e 4df3 4f3e 766c a43e
00000190: ec3e 723e d967 723e b412 563e 17c3 b03e
000001a0: f480 0b3f e90a 773e 4c03 773e e83e 7e3e
000001b0: 9c5e b93e 1296 ea3e f169 d83e 3264 b23e
000001c0: e849 9a3e e792 a93e 2bd4 973e 9c4d a03e
000001d0: bbdb 7e3e ad49 e53e ced0 843e a6ea 533f
000001e0: 4829 8f3e 17da b33d 983f df3e 274a 8d3e
000001f0: 0b35 e03e 5d57 923e 5a48 853e b95f a53e
00000200: f9ca 31be fd11 943e b988 863f d1cf e33e
00000210: 9faf d83e 36d6 4c3f 90b2 943e 8a6e 623e
00000220: 7293 e23e 52fe dd3e 3049 813e bb3f 0b3f
00000230: 1abe a43e cc5b a93e dabb 4ebe 85bf 893e
00000240: 16b6 9e3e 8a72 9f3e a287 803e 625e ed3e
00000250: a5e3 f43e 1c73 933e 5664 b03e c58a a43e
00000260: c98a 0d3e 64d5 973d c975 163e c148 1d3f
00000270: 3085 923e 301e 823e 797d fd3e 0ac8 a83e
00000280: d064 b3be ce68 7c3e 204d a53e c71a ef3e
00000290: 64ba 0e3f 141d 8e3e b876 943e 1865 c43e
000002a0: 3889 cf3e ff18 343f e912 743e 594d 8a3e
000002b0: 91f7 6f3e 7d5f 083f 8960 8f3e 5632 cd3e
000002c0: f0c5 613e f827 523e a8fd 763e 2dba a03e
000002d0: 8d8d 5a3e 086f e23e 8dbc 463e 5093 963e
000002e0: c842 9a3e 48e4 993e 06bf 893e a686 aa3e
000002f0: 3988 553e 1d07 183e 4c1c 2f3f 93bf 863e
00000300: 3fe4 773e feac a03e 08b9 873e 1324 2f3f
00000310: 9c94 9d3e 1ba0 853e 2fb3 7a3e 514e 8c3e
00000320: f83e 453f cc52 913e 5625 de3e f5a1 063f
00000330: 4993 d83e 37f5 cc3e 783e dc3e 5d7e f03e
00000340: deac a33e 6572 a03e 9317 aa3e c991 e13e
00000350: d6b7 833e 4fb4 683e d9f2 983e 0ebc 723e
00000360: 49fd 6c3e f5a8 b33e 8e63 9fbe 5e45 b33e
00000370: 7829 e63e b429 803e 6a76 e93e 36d3 283f
00000380: c7ae 043f 15a6 743e ee3d d53e 0787 d23e
00000390: e639 773e 6943 e33e e0dc a03e 9953 013f
000003a0: adfd d73e 56d1 663f 1f8f a63e baf3 863e
000003b0: 6f0c 153f 69f0 ab3e b487 733e 4f00 d43e
000003c0: e98d 093f eaff d23e 5b29 9a3e 0da4 bb3e
000003d0: bec3 a63e 9795 a93e 4bf5 b43e f9ce 953e
000003e0: 303d a23e c6c6 943e 96a4 57be 817d 0e3e
000003f0: 8b21 7e3e ec42 5b3e c639 6f3e 2a7b dc3e
0.26076043 0.59601635 0.23939413 0.4116373 0.8785309 0.38527477 0.48877233 0.31298682
0.32426858 1.2295047 -0.34549934 0.36229935 0.31201574 0.40955532 0.3871204 0.50367904
0.36052814 0.24571906 0.44559965 0.18349846 0.9215976 0.21502838 0.2856827 0.2792299
0.3493373 0.3054464 0.17091988 0.4248705 0.37106717 0.38603732 0.2263086 0.28543663
0.37320969 0.2140704 0.32711175 0.4465101 0.300073 0.34910828 0.7477915 0.093710504
0.282815 0.18962298 0.44502977 0.21079412 0.25815013 0.07431216 0.6272284 0.22839178
0.33600208 0.46819264 0.5685014 0.59809905 0.31444514 0.19261107 -1.1467533 0.2544445
0.439083 0.23122422 0.42657784 0.30155504 0.3227664 0.27292913 0.65042627 0.41390318
0.47521755 0.24407542 0.14285314 0.18743013 0.28992137 0.36348656 0.63450396 0.31158292
0.40832582 0.39328963 0.28436026 0.3752324 1.4313719 0.43606192 0.24021395 0.28665859
0.19840479 0.2487183 0.37188533 0.51556903 0.3693832 0.21144107 0.48630565 0.28879964
0.35127452 0.22791275 0.2571033 0.43869832 0.334663 0.16222715 0.53712344 0.28150576
0.17915964 0.2642027 0.20307656 0.32114 0.23656815 0.23672427 0.20905572 0.34523842
0.5449364 0.24125256 0.24122351 0.24828684 0.36204994 0.4581762 0.42268327 0.34842068
0.3013451 0.3311989 0.2965406 0.3130921 0.24888508 0.44782773 0.25940555 0.8277992
0.27961183 0.08781832 0.43603206 0.27595636 0.4379047 0.28582278 0.26031762 0.32299593
-0.17362584 0.28919974 1.0510474 0.4449449 0.42321488 0.8001436 0.29042482 0.2211248
0.44253117 0.43358094 0.2525115 0.5439412 0.32176286 0.33077848 -0.20188847 0.2690393
0.30998296 0.31142074 0.2510348 0.4636107 0.4782993 0.2879876 0.3445155 0.32137123
0.13822474 0.07413748 0.14693369 0.6143914 0.2861724 0.25413656 0.4950979 0.32965118
-0.3503785 0.24649355 0.32285404 0.46700117 0.5575316 0.2775656 0.28996825 0.38358378
0.40534377 0.7035064 0.23835339 0.27012137 0.23434283 0.53270704 0.28003338 0.40077466
0.22048163 0.2052306 0.241202 0.3139204 0.2134306 0.44225335 0.19407864 0.29409266
0.30129075 0.30056977 0.26903552 0.33305854 0.20852746 0.14846464 0.6840255 0.26318035
0.24208163 0.31381983 0.26508355 0.6841442 0.30777442 0.26098713 0.24482416 0.274035
0.7704921 0.28383482 0.4338786 0.52590877 0.4229987 0.40030834 0.4301641 0.46971408
0.31967825 0.31337276 0.3322111 0.44056538 0.25726193 0.22725032 0.29872778 0.2370455
0.23143496 0.3508984 -0.31130642 0.3501386 0.44953513 0.25031817 0.45598155 0.6594728
0.5182919 0.2389148 0.4164881 0.41118643 0.2414318 0.44387367 0.31418514 0.50518185
0.42185727 0.9016317 0.32531068 0.26357824 0.582221 0.33581856 0.23782235 0.41406485
0.5373216 0.41210872 0.30109677 0.36648598 0.32571214 0.3312194 0.35343394 0.2925947
0.31687307 0.29057902 -0.21058878 0.13915063 0.24817483 0.21412247 0.23361883 0.43062717

bn1.bias f4 [256]
00000000: 6b67 f73c 9f38 5f3e b9ad ef3b 12e2 0f3e
00000010: 545f f93e 572e 563e 1185 6d3e 32f6 ac3d
00000020: 2ffe 903d 3057 e43e 7456 35be 87bb 613d
00000030: eda5 803d 60d0 573e db37 cb3e 0b16 033e
00000040: e2fb ef3d d3de a2bd 98cd 813e 7f19 64bc
00000050: 2c1f 073e e172 933c 44ac 75bd ddf3 143d
00000060: fee7 c13d 6b7b b43d d005 f33d fd03 383e
00000070: 3b9e cabc 5d6d b13d 33ef 6c3d cb42 8c3c
00000080: 1bbe eb3d b79a c6bc 5c35 233b f52c 4e3e
00000090: 7ba6 ad3d d726 ab3d 8a3d 2d3e d72a acbe
000000a0: 5d36 8c3d 5bd6 823d 75dd 3d3e f8d5 813d
000000b0: 5ab6 053d 7e5c b3bd 4fe0 8c3e ad94 633d
000000c0: 035d dd3d 0548 0b3e 52b0 323e 3423 833e
000000d0: 1efc 0e3d 8d16 9a3d bb0d 3dbe 9089 f73d
000000e0: 61f5 bb3d 4d75 8a3d 3b6e dc3d 15e9 1e3d
000000f0: cd4c 0b3e 41b9 2dbd e139 303e 61fb 533e
00000100: 4a6b 8d3e 3ad3 5f3d c949 93bd b958 d7bd
00000110: 573c 963d 0860 153d 2885 883e b0e8 8e3d
00000120: c4aa 893e 0dc3 3e3e b1cb 6f3d ab22 ab3d
00000130: 5a01 893e 9291 a83e 12d5 953d 6b7c 443e
00000140: d55b a33d 6dc0 0a3e 67a5 8a3d d1f5 123e
00000150: 06ac 3a3e d3e6 3a3e f86c 573e 2a22 933d
00000160: 751d 1f3e 9667 103e 0ea3 fe3d 680a 733e
00000170: d7f9 d63d cd6f 333d be3b 493e f2bf e33d
00000180: 7275 0c3d f83d 8e3d c33c a9bd de12 c73d
00000190: 63ef 443d 9a87 023d 0167 163d 2586 8d3e
000001a0: a64f 9a3e 2c80 b13d 50ef c2ba c47e 513c
000001b0: 70d4 b63d 1070 113e 9fa9 053e 0190 ee3d
000001c0: aa3b ce3d cecb 13bc 3dda b23d 6f02 093e
000001d0: 958f 61be 2722 453e 4c80 853d 6922 9b3e
000001e0: c5d6 b73d 26be 6a3c bc95 c83d bba2 a63d
000001f0: b1e7 243e f3a8 c33d fd49 033d 6d5f 5d3d
00000200: d852 dfbc 94f7 253e b1b6 83bc 20e9 193e
00000210: 1222 043e ea92 973e f876 833d 7339 033d
00000220: c8bd 233e 19a3 7a3e 500c eb3d 39c7 6e3e
00000230: 0f4c 9e3d 2883 9a3d 076d 033e 097c 48bc
00000240: 5790 013e adec e53d c4ce 533d e0db 433e
00000250: e31d b33d 0c45 373d 9aed 9fbc 89b1 683d
00000260: 8629 cdbd ff4c 73be f5c9 0abb 668f 693e
00000270: e594 a73d 5ec7 21be 31e5 ae3e e8fa b73d
00000280: d42b f9bd 72c8 1d3d 4528 fa3d 7838 063e
00000290: 1ec3 413e 3320 db3b fa15 b43d 8efc 423e
000002a0: ed58 a63d 79d8 563e 28e8 b5bb 144c ba3d
000002b0: f332 853e 09a8 bb3d f929 053d 7268 1f3e
000002c0: 0a79 6bbe b6de df3c e761 cb3d 7bc9 b43d
000002d0: 7319 babc 7fbb 123e 9f16 813d 50b2 353e
000002e0: 221f e23d f376 cb3b 6857 113e 6c46 b93d
000002f0: cf75 643d 988c 93be 3ebb 153e 2a53 b53d
00000300: 8fe9 503d f48a 333e 4d63 923e 86a5 bf3d
00000310: 672e bb3d 25dc 093d 538c 0d3c f234 983d
00000320: 4600 833e 3b83 aebc ce2a a53d 7f2d 203e
00000330: 8f8d 0e3e baed c93d 15bc 3e3e 99a7 723e
00000340: 4424 903d 4a80 023c a13b df3d f7bb 283e
00000350: 28b6 2d3d 84d0 853d 0337 803d d4c9 29bd
00000360: f0ad a2bc 545f 413d a2b0 c9bd 6cb9 e5bc
00000370: 8534 2f3e 6d66 343d f3e3 6d3e 3eda 443c
00000380: 45ec 1d3e 8f98 9e3d 063d bf3d 34a4 8d3e
00000390: 4d68 e03d 6c72 143e ec00 ac3d 3cc6 9c3c
000003a0: 6468 9c3d 800a ce3e 6531 043b bd21 45bc
000003b0: 36d2 623e 15c4 0b3c da9a 823d c448 8639
000003c0: da3f 113e c67f 073e 6104 9d3d 6f11 1cbd
000003d0: 3319 5c3d 6824 c93d 8055 d23d 3a38 193d
000003e0: 39f5 993d 86a8 d83d 3c63 f2bc 44a8 073e
000003f0: d754 0e3d 3ce6 25bd 81c8 d2bb aee2 1f3e
0.03020068 0.21798943 0.0073144105 0.14051083 0.48705542 0.20916115 0.23195292 0.084453955
0.07079732 0.4459777 -0.1770876 0.05511048 0.06281648 0.21075583 0.39691052 0.12801377
0.11717965 -0.079526566 0.25352168 -0.013922094 0.13195485 0.017999114 -0.05997874 0.03636538
0.09468077 0.088126026 0.11866343 0.17970271 -0.024733653 0.086634375 0.057845306 0.017121693
0.11510869 -0.024243696 0.002490363 0.20134337 0.08479019 0.083570175 0.16918007 -0.33626434
0.068463065 0.06388541 0.1854151 0.063396394 0.032644607 -0.08757876 0.27514884 0.05556171
0.10808756 0.13601692 0.17450073 0.25612795 0.034908406 0.075238325 -0.18462269 0.12086785
0.09177662 0.067606546 0.10763212 0.038796503 0.13603516 -0.042413 0.17209579 0.20701362
0.27620918 0.0546448 -0.07191808 -0.105149694 0.07335728 0.036468536 0.2666409 0.06977975
0.26888096 0.18629093 0.058543865 0.08356222 0.26758844 0.3292356 0.073160306 0.19188087
0.079765 0.13549967 0.06769829 0.14351584 0.18229684 0.18252115 0.21037662 0.07184251
0.1553858 0.14102015 0.12433444 0.23734438 0.10496872 0.043807793 0.19651696 0.11120595
0.034291692 0.06945413 -0.082635425 0.097203955 0.04807986 0.0318676 0.036719326 0.27641407
0.30138892 0.08667025 -0.0014872346 0.012786571 0.08927238 0.14202905 0.13052987 0.1164856
0.10069974 -0.009020759 0.08733032 0.13379835 -0.22027428 0.1925131 0.06518611 0.3029969
0.08976511 0.0143275615 0.097941846 0.08136507 0.16104008 0.09553709 0.032052983 0.054046083
-0.027261183 0.16207725 -0.016078325 0.15030336 0.12903622 0.29604274 0.06419176 0.03203721
0.15990365 0.2447628 0.11476958 0.23318185 0.07729351 0.07544547 0.1283456 -0.012236604
0.12652718 0.11226783 0.05171086 0.19126844 0.08745935 0.044743583 -0.019522477 0.056809936
-0.100176856 -0.2375984 -0.0021177505 0.22808608 0.08182696 -0.15798709 0.34159234 0.089834034
-0.12166563 0.038521238 0.12214712 0.13107479 0.18922088 0.006687188 0.08793254 0.19041654
0.0812243 0.20981015 -0.005551357 0.09096542 0.26015434 0.091629095 0.03251073 0.15567186
-0.22995391 0.027327877 0.09930783 0.08827492 -0.022717213 0.14329337 0.06303143 0.17743802
0.11041094 0.006209248 0.14193499 0.09046635 0.055776414 -0.28818202 0.14622208 0.08853753
0.05100399 0.17533475 0.28591385 0.09357743 0.0913971 0.03365721 0.008639413 0.074319735
0.25586146 -0.02130281 0.08064805 0.15642355 0.13921188 0.09859796 0.18626435 0.23696746
0.07038167 0.007965157 0.10900045 0.16477953 0.042410046 0.06533912 0.06260493 -0.041452244
-0.01985833 0.047210053 -0.09848143 -0.028042518 0.17109878 0.044042993 0.23231487 0.012014924
0.15422161 0.07743942 0.09337811 0.2766434 0.10957394 0.14496773 0.08398613 0.019137494
0.076370984 0.40242386 0.0020171043 -0.01203197 0.22150502 0.008530636 0.06377192 0.00025612686
0.14184514 0.13232335 0.07666851 -0.038102563 0.05373497 0.09821397 0.10270214 0.037407137
0.07517476 0.10579018 -0.029588334 0.13247782 0.03474888 -0.04050277 -0.0064325933 0.15613815

bn1.running_mean f4 [256]
00000000: 9e12 d63e e32c 7740 ca02 8b3f 25a7 b03f
00000010: 9a56 cd3f 7950 853f c5d4 8540 0640 9540
00000020: 232d 243f 66cd 1941 f709 a23f 9f4f e03f
00000030: 0646 0340 8cad 093f cfe7 c240 b08d 5a3f
00000040: fb59 7040 840b 823f 280e 3040 39d6 d040
00000050: efef 0840 c288 2641 55a7 3a41 5212 2440
00000060: 17f4 a73f be69 543f 797e 4240 5487 9040
00000070: 9e0b f73f c690 a13e 3045 d23e 3a1c 323f
00000080: 57be e53f cc0b a640 d039 f63f 380a c53f
00000090: 765f 633f 4df5 963f ea37 cd3e cf34 a140
000000a0: db34 e43e cdbd 0741 912e d83f ff32 e13e
000000b0: 152f ce40 81c2 5a3f 2845 0940 b814 4740
000000c0: 653e 183f e992 f13e c0ba 1e3f ee54 3840
000000d0: 8048 1440 568a d53f 9287 333e 9aba 6540
000000e0: b091 9540 dd0c 623f 3cbf 473f c622 0a40
000000f0: b7a2 dd3e 0004 693f d8e2 3d3f e070 4540
00000100: d5ce 9d40 a6e7 4d41 5dd9 2140 a717 e540
00000110: 1607 e73f 47b8 5240 8d3d 9c40 1ed3 793f
00000120: 814b f93f 9561 3e40 6ecc c33e 569d 8f40
00000130: d1b9 973e 8b6a 2641 6f9d 763f a9c2 8f40
00000140: bab4 1d40 0cb5 8241 6927 293f 2811 1540
00000150: 005b e540 38d3 9e40 f441 4b40 f782 c83f
00000160: 675e 1a40 0f80 3b3f 14b3 3240 2f0a 9940
00000170: 1a34 223f 3728 5040 12af b23f 2c96 1141
00000180: 11c5 163f 121f 5f3f 3a65 f841 b614 bf3f
00000190: bd3f 443f f9bb 3240 2c1a a93e 152e 0041
000001a0: bcdb 2d40 da0e 4640 6a02 8540 102e 3440
000001b0: 5131 333f fbdb 573f d5b1 4e40 8ee0 963f
000001c0: babd 1540 1b99 973f 3c44 e73e 78bd bd3f
000001d0: 2d03 6c40 6d3c 8240 7958 193f 3369 2040
000001e0: dffe 6240 be7e 1741 9484 443f 8e67 273f
000001f0: b427 9540 bfc7 1b40 7b46 d540 bf1e af3f
00000200: cb42 463f 2fc1 5740 8d86 0740 4798 e840
00000210: d3e8 353f c279 db40 eba2 293f 2802 1940
00000220: 00a0 3540 a19e 2c40 ad60 6b40 2aea f73f
00000230: 4815 8b3f db4c 8a3f b388 3540 3133 ef3f
00000240: 4389 2f40 76d9 6a40 30b8 aa3e 7e40 3e40
00000250: cbea 993e 7e95 2e3f f93f 2e40 8cc0 0a40
00000260: c615 1241 b95a d840 530e a840 c0df 9040
00000270: 923f f03f 4fa4 7341 0346 0640 6c9a b73f
00000280: d579 183f 9052 0541 e0d8 a73f 5d73 6b40
00000290: d44c 593f 8a86 2b40 4a5f cc3f 14f5 6540
000002a0: 2847 2040 bd09 ed3f f1f8 5a40 b110 2540
000002b0: 5128 5140 60bd 3b3e 42fe 2f40 37d9 de3f
000002c0: 2aaf 3f3f a3a8 f13e b2c7 f93f ec7c 9e3f
000002d0: 89ac a03f 4699 db3f 469b 8d3f d151 bf3f
000002e0: 915e b23f 5d1d 2c40 4edc 873e 35eb 173f
000002f0: 9502 823f 0e24 9140 635d cb3f a975 4940
00000300: 1aea 9d40 2a06 c540 4018 ee40 bf27 a23f
00000310: bc57 263f 01d0 1f40 ffd5 783f 91da 4f40
00000320: aff5 113f 3f01 6041 2677 103f b500 553f
00000330: ef71 b43f 5e20 e53f 23e3 8d3f b371 2c40
00000340: 77d4 2440 59c1 8e40 2912 953f f4ee 8b3f
00000350: 1036 113f e789 c03f b72e 2b3f e104 5a3f
00000360: d572 a63f ba0b 8840 baac e13f 18dd 9c40
00000370: 9666 7b3f 2891 e93f f610 2940 724c 3e3f
00000380: fc17 273f 66f3 2040 780a ad40 efc2 ec40
00000390: ef20 9040 4980 643f 9c67 d43e b1c5 ae40
000003a0: 7ed4 c03f dd55 ae41 6666 0940 17c3 0c40
000003b0: 0898 ac3f 26ad 2440 52e8 5e40 d631 2940
000003c0: 833b 733f 2a62 723f dc31 ae40 740a c340
000003d0: ebea ce3e 7d74 683f 8dfb b840 2c8c 143e
000003e0: 0e00 5240 0c27 e83f cec2 e43e c5bb c041
000003f0: 33ca db3f 33d1 cc40 3d0e d13e ad3a 0b3f
0.4181108 3.8621147 1.0860226 1.3801008 1.6042054 1.0415183 4.182223 4.6640654
0.64131373 9.612646 1.2659291 1.7524298 2.051149 0.53780437 6.090797 0.8537245
3.755492 1.0159764 2.750864 6.52615 2.1396444 10.408388 11.665853 2.5636182
1.3121365 0.8297385 3.0389693 4.5165195 1.930042 0.31555766 0.4106841 0.6957432
1.7948712 5.18894 1.9236393 1.5393744 0.88817537 1.179361 0.40081722 5.0376964
0.44571576 8.483838 1.6889211 0.4398422 6.4432473 0.8545304 2.144846 3.1106396
0.59470206 0.47182396 0.6200371 2.8801837 2.316925 1.6682842 0.17532185 3.5895143
4.674034 0.8830088 0.78026175 2.1583724 0.43288204 0.9102173 0.7417426 3.0850143
4.931498 12.869055 2.5288918 7.1591372 1.8049037 3.2924974 4.8825135 0.97587764
1.9476167 2.974706 0.38241905 4.487956 0.29633954 10.401011 0.96333975 4.492512
2.4641557 16.338402 0.6607576 2.3291721 7.1673584 4.9632835 3.1759005 1.5664967
2.4120119 0.73242277 2.79218 4.782493 0.6336075 3.2524545 1.3959677 9.099163
0.5889445 0.87156785 31.049427 1.4928195 0.76659757 2.792723 0.3302778 8.0112505
2.7165365 3.0946565 4.1565447 2.8153114 0.69997126 0.8432004 3.229604 1.1787279
2.339705 1.1843599 0.45169246 1.4823446 3.6876938 4.069876 0.59900624 2.5064209
3.546806 9.468443 0.767648 0.65392387 4.6610966 2.4340665 6.6648536 1.3681258
0.7744567 3.371166 2.1175873 7.2685885 0.71058387 6.858613 0.6626422 2.3907566
2.8378906 2.697182 3.6777756 1.9368336 1.086587 1.0804704 2.8364685 1.8687497
2.7427528 3.6695228 0.3334365 2.9726863 0.30061945 0.68196857 2.7226546 2.1680021
9.130316 6.7610745 5.2517486 4.527313 1.87694 15.227614 2.0980232 1.4344001
0.595609 8.332657 1.311306 3.6789162 0.84882855 2.6800866 1.596658 3.5930834
2.504343 1.8518597 3.4214442 2.5791438 3.2680857 0.1833396 2.7498937 1.7410039
0.74876654 0.47198972 1.9514067 1.2381873 1.2552654 1.715615 1.1063011 1.4946843
1.3935109 2.6892922 0.26535267 0.5934327 1.0157038 4.535651 1.5887874 3.1478064
4.934827 6.1570024 7.44046 1.266838 0.6497762 2.4970706 0.9720153 3.2477152
0.5701551 14.000304 0.56431806 0.83204204 1.409727 1.7900503 1.1084942 2.6944396
2.5754678 4.461102 1.1646167 1.0932298 0.5672312 1.5042084 0.66868156 0.85163695
1.3003794 4.2514315 1.7630837 4.901989 0.9820341 1.8247423 2.6416602 0.74335396
0.6527097 2.5148559 5.407528 7.3987956 4.50402 0.8925825 0.41485298 5.4616323
1.5064847 21.791925 2.146875 2.1994073 1.3483896 2.5730681 3.4829297 2.6436667
0.9501268 0.94681036 5.4435863 6.095026 0.40413603 0.90802747 5.780707 0.14506596
3.2812533 1.8136916 0.44679874 24.091684 1.7171081 6.400537 0.40831175 0.5438641

bn1.running_var f4 [256]
00000000: acba 9a40 c5e7 4242 4d3d 8441 b99d 0f41
00000010: c21b bf40 afd7 2141 013b 8d42 71ff 7442
00000020: a359 1141 6af0 0943 b624 4f41 446f cc41
00000030: 45d3 de41 dc8f cb40 6ccc 3842 31b3 4341
00000040: 31d1 2442 c5bc 2f41 0190 7941 87e8 c642
00000050: e9d5 e440 3bf1 1043 ae8b 5242 000a 3142
00000060: efdc aa41 344d 5941 28b3 5042 8880 a042
00000070: 91f4 9d41 8481 8d40 a49d 7540 f6bc f640
00000080: 40e0 be41 93ba 9442 897a 9f41 f166 9d41
00000090: bb5a 7041 7b85 cf41 9d65 7440 4596 d242
000000a0: 8f60 c740 60b8 8c42 e66b 9e41 e19b 9b40
000000b0: bcfa 8e42 0279 7541 09ac b941 b2a5 8b42
000000c0: b01e d640 4700 d840 509a 8b40 2028 9441
000000d0: 02f7 0f42 2744 e941 5197 953f 699a 3742
000000e0: a91e 1e42 4a6f 4641 c78b 3541 d97c c341
000000f0: 4f08 9f40 1b3f 4841 f9a2 ed40 b79a 2642
00000100: ac80 5242 8b29 d842 b844 ef41 1cd5 0843
00000110: e522 0f42 7314 b041 f467 1b42 5dac 7441
00000120: 74fb a141 2167 3242 bf1a d640 5798 2542
00000130: de0c 6540 9a87 3242 97e1 8441 1327 6942
00000140: 1d32 2c42 f477 8642 3609 3541 66c0 f041
00000150: df51 9142 7075 1d42 73dc fe41 d39d d541
00000160: da81 ea41 0a38 1041 aa17 2342 98c8 1d42
00000170: 5a83 ad40 01ab 8142 b291 8a41 f707 7f42
00000180: 8d93 da40 e3a4 5c41 934c 6643 91f4 c241
00000190: 256f 0041 309d 0942 f9e5 8240 6031 9642
000001a0: a8ad e841 41d5 3742 6c3d 8a42 8c07 2f42
000001b0: fec1 0841 9ecd 2f41 9b68 5242 ddaf 5141
000001c0: 7f45 1842 7f62 9b41 d62e a640 794a bf41
000001d0: 9f89 3b42 4cb6 ec41 5872 cf40 4814 0141
000001e0: 5c2e c842 a832 0043 6138 8a40 88e1 2041
000001f0: 8fda 5e42 0102 0242 acf8 8a42 b111 8841
00000200: 3d4b 5741 ea4e 3342 e6da 0841 8629 fa41
00000210: 0cf4 ed40 0019 0f41 2b9a 3d41 3e7f d941
00000220: 629e 2242 d946 9841 2199 8c42 d025 5441
00000230: f25e a941 75b8 9741 a4a9 2a42 a00f d141
00000240: 2a92 2f42 af27 0642 3881 a540 7397 0642
00000250: ff6e ea3f baf8 1b41 6d59 f241 5f73 0242
00000260: c3bd f942 475a 0b43 40e2 8542 a68a dd41
00000270: 203e 8041 d5f2 e943 2fbd 5c41 412a ac41
00000280: 54f6 9340 446e a942 26ac 7541 9610 2542
00000290: c7ee 0c41 1cbf 0242 df0e ca41 fdad 4542
000002a0: 3b2e 3542 049f c841 aab1 3742 2072 0742
000002b0: f699 bd41 614f e63f 8c78 1142 1aba b141
000002c0: a693 c740 3ca1 ae40 843e ae41 0b14 9e41
000002d0: e820 8241 5d06 fa41 398b 9941 f207 9641
000002e0: be40 8e41 c323 1c42 6312 4f40 9b68 c640
000002f0: e50a 4d41 8fa2 d442 9214 7a41 edc0 5442
00000300: d98b ae42 fd10 8042 a09b 6942 9c76 7b40
00000310: cbd4 d740 5226 0a42 df81 7841 35cf 2142
00000320: fcd7 8140 5abf 0e43 1b19 0441 4905 c240
00000330: 94a4 9841 c1d2 fd41 b447 fb40 b744 0242
00000340: 975d 2f42 d9ca 3542 e7c9 8041 78a0 3c41
00000350: 470b 0541 cb54 8341 6a28 9640 0af0 5241
00000360: c59c 9141 973d 8e42 bee5 bd41 abdc 7942
00000370: f5ee 2041 a81b be41 1ff6 c141 3cb2 6f40
00000380: 6915 0141 7757 db41 39b3 9b42 a45c 9b42
00000390: b557 5242 7137 9941 2838 3740 5539 6342
000003a0: 5f42 6341 b382 1b44 9130 8a41 a324 fd41
000003b0: bf4e 5041 853c 6542 e116 7442 af5d 2f42
000003c0: ce58 6241 1314 0c41 efaf 9242 a12c ff41
000003d0: 89ca ed40 afdc 7741 86bd 9f42 4c4b 0540
000003e0: 18bb 1c42 f18d ab41 45ca b840 56d5 3f43
000003f0: 0736 b741 bb64 6c42 8509 7040 0d44 9940
4.835287 48.726337 16.529932 8.9760065 5.9721384 10.115157 70.61524 61.249454
9.084384 137.93912 12.946463 25.554329 27.853159 6.361311 46.19963 12.231248
41.20429 10.983586 15.597657 99.454155 7.151112 144.9423 52.636406 44.259766
21.357878 13.581348 52.174957 80.25104 19.744417 4.42206 3.8377466 7.7105665
23.859497 74.3644 19.934832 19.675264 15.022151 25.940176 3.818702 105.293495
6.230537 70.36011 19.802685 4.862778 71.489716 15.342043 23.209002 69.82362
6.691246 6.750034 4.362587 18.519592 35.99122 29.158278 1.1686803 45.90079
39.52994 12.40217 11.346625 24.43596 4.969764 12.515407 7.426144 41.65109
52.625656 108.08114 29.908554 136.83246 35.784077 22.009985 38.851517 15.292081
20.24778 44.60071 6.690765 41.39877 3.5789104 44.632423 16.610151 58.28816
43.04894 67.23428 11.314749 30.093945 72.659904 39.364685 31.857641 26.702063
29.313404 9.013681 40.77311 39.445892 5.422284 64.83399 17.32114 63.75778
6.8305116 13.790256 230.29912 24.369417 8.027135 34.403503 4.090573 75.096436
29.084793 45.958256 69.119965 43.75737 8.547361 10.9876995 52.602154 13.105435
38.067867 19.423094 5.1932173 23.911364 46.884396 29.589012 6.482708 8.0674515
100.090546 128.19788 4.319382 10.055061 55.713436 32.501957 69.48569 17.008638
13.455869 44.827065 8.553442 31.270275 7.436041 8.9436035 11.850139 27.18713
40.65467 19.034594 70.29908 13.259232 21.17136 18.965067 42.665665 26.13263
43.89274 33.538754 5.172024 33.6479 1.8315123 9.748224 30.293665 32.612667
124.87063 139.35265 66.941895 27.6927 16.030334 467.89713 13.796187 21.520632
4.6238194 84.71536 15.354528 41.266197 8.808295 32.68663 25.257261 49.41991
45.295147 25.077644 45.9235 33.86145 23.700176 1.7992975 36.36772 22.21587
6.2367735 5.457182 21.780525 19.759787 16.266068 31.253107 19.19298 18.75388
17.781612 39.034924 3.2354972 6.200269 12.81516 106.3175 15.630022 53.188404
87.27314 64.03318 58.401978 3.9291143 6.7447257 34.537422 15.531707 40.45235
4.0576153 142.74747 8.256129 6.063145 19.08036 31.727907 7.852503 32.567104
43.841396 45.448093 16.098585 11.789177 8.315253 16.416403 4.6924334 13.183603
18.201548 71.12029 23.737179 62.465496 10.058339 23.763504 24.245176 3.7452536
8.067727 27.417707 77.850044 77.68094 52.58565 19.152071 2.8628025 56.80599
14.203704 622.0422 17.273714 31.642889 13.019225 57.3091 61.022343 43.841488
14.146681 8.754901 73.34362 31.896791 7.4309735 15.491378 79.87016 2.0827208
39.18271 21.444307 5.774691 191.83334 22.90138 59.09837 3.750581 4.789557
